lstm_model.pth (torch, 75622 bytes, 5 tensors)

lstm.weight_ih_l0 f4 [256, 5]
00000000: 9d98 9f3a 416c 163e 81a6 d03d eb18 e13c
00000010: 65ad 6dbd 1254 abbd 8a89 463d 5d9f d13c
00000020: dede 493d 5961 943d b2bd 02be 8182 7abb
00000030: b1be 82bd dc14 bebc 3719 8bbd f14d 1ebd
00000040: 53a6 8c3d 7edb 043c 960d 38bc ddbd e23d
00000050: af54 fd3c 084e 76bd 61f6 983c 24b6 20bd
00000060: f5e9 35bd d262 9ebc efa5 103e 1279 313d
00000070: f0e0 aa3d c6c9 19bd 053c 243e c4c7 8f3c
00000080: 8c48 5e3d da15 053e 5a35 1a3e b3e6 c93d
00000090: 0531 853d 13fb 063e d9bf 023e b079 b23d
000000a0: 37f0 f93d f066 5bbd da3e e73d 0cdb 393e
000000b0: 3a28 e2bc 28f9 40bd 49a0 fb3c 8c78 c03d
000000c0: e5fa 0f3e 5ba3 043e cef6 c6bd 3035 113d
000000d0: f862 833d 33f7 cd3c 4591 2f3b 898f a53c
000000e0: e2fc c53d eb0a ab3b 49ad f9bc 4d42 f7bd
000000f0: 2292 c5bb 1724 9e3d 0f9c c7bc 8b99 b1bd
00000100: 73aa 02be 7982 0e3d 103d 203b 52bc 053e
00000110: d257 9c3d 6f8c 053e 7325 90bd 7991 12be
00000120: 337a a83d 38b9 45be e1c3 b4bc 4962 9f3d
00000130: 0015 53bd 101d 00bd 9239 0ebc ba5e 143e
00000140: 7e9d f33d 5a98 bc3d 19ef 9c3d 80eb c33d
00000150: 0aa0 323d 8b2c 12bc 906a cb3d 67d6 09bd
00000160: fcb8 313e 7f0b 623e e75b 9bbb 2c76 d23d
00000170: 0efa ab3b f23b 463d a011 333e 6146 773c
00000180: 8fa7 b13d 2841 fb3d 160d 363d 3236 713d
00000190: 8834 73bc f88f 863d e7ef 293e 8f77 333e
000001a0: 3ec1 9a3d 1b1c b7bd ba8c 9abd 1075 bcbd
000001b0: a834 473d 470c 173e 7dea cb3d 1f52 723d
000001c0: ca78 8b3d a041 32bd ea00 1e3e 65ed 693d
000001d0: a0c4 c83d f252 c3bd 08ef 2b3d 8130 c83d
000001e0: 2ed8 0c3c 116f 90bb 5a25 403d bab2 a1bc
000001f0: fe34 99bd 27a7 523d 35e8 243e 4009 293e
00000200: 7c08 b93d e3e5 903d 63f6 dcbc 786f 12bd
00000210: 3267 983c 863f 2b3e 414a 9e3d 1e16 b1bd
00000220: f76d 52bd a3ab 6ebd 710b cebc 6054 7abd
00000230: 132b 22bc b24e b6bd 992b 223d d85e 033d
00000240: 0074 88bc ffc5 24bd 3a45 bf3d 5fd7 37bd
00000250: 29c1 e73b 2819 88bd 5fc6 933c 4c68 aabd
00000260: d147 c7bd 1341 a9bd d3f3 cf3d 1067 2b3d
00000270: 211a cc3d 8dac 3bbd e512 e2bc af74 283d
00000280: 9ca6 b6bc dbec 88bd 8505 b3bb 4005 083e
00000290: 6fca 7c3c 7848 e1bc bee6 203d 0474 d4bc
000002a0: d817 3d3e d4fa 503d 208d 2ebd 3dad cf3d
000002b0: ce89 eebc 367a 753e ca1d 283e 76b5 0b3e
000002c0: b4a9 d13d 38b1 103e cba0 da3d 404d 5cbc
000002d0: 9c48 c73c 02ec 7abd ce35 843d 35c1 8b3d
000002e0: 4a6c 043e cb24 dd3b 2d13 cd3c 5208 203d
000002f0: 2cf6 963b 42da 383d 6f19 453d 20c1 d13d
00000300: de08 ad3d 83a8 503e 6fa2 193e 4dce 03bd
00000310: ea7a 10be 0d7f a7bb 7702 053e 7521 9d3d
00000320: 3e03 e2bd 7358 133d d6a7 e13c 6ff1 6f3c
00000330: f0fe 29bd 5ffa 673d 5b08 80bd c18f 803d
00000340: cb62 30bd d624 e9bd 7c19 84bd 3e7e ea3d
00000350: 72b1 253d 3ec1 eb3c 0b84 2c3d a05d 81bd
00000360: 9242 d83d c832 993d 2c3c 283e 61a3 093e
00000370: c34b 94bd 0221 f23c d824 013e 1192 ac3d
00000380: fb7c 013e 1f7b 1dbd 1c26 e23c ac6e 2d3d
00000390: 630f 283e 4e29 8ebd fe50 793d b7b8 3cbd
000003a0: ab37 64bd 6b58 e23c 06cd c63d ece3 833a
000003b0: 72c0 113e 83b1 273e d60e b73d e4be 023e
000003c0: cc12 21bd 433f 463d 804d 123e 8e47 493e
000003d0: 7dab 1a3e d2ca dabd e7d8 cdbd 9133 b1bd
000003e0: d76f 4abd 6a42 103d 6e53 b53d 3d07 8ebd
000003f0: 4a53 08be 567f 3e3d 12a4 dbbd 42d5 b4bd
0.001217622 0.14689733 0.10188008 0.027477702 -0.05802669 -0.083656445 0.04847101 0.025588686
0.04928481 0.0724513 -0.12767676 -0.003822476 -0.06384028 -0.023203306 -0.06791919 -0.03864855
0.06867661 0.008108972 -0.011233708 0.1107137 0.03092417 -0.06013301 0.01867217 -0.039236203
-0.044412572 -0.01933423 0.14125799 0.043328352 0.08343685 -0.03754594 0.1603852 0.01755131
0.054268405 0.12996617 0.15059415 0.098584555 0.0650349 0.13181715 0.12768497 0.08714616
0.122040205 -0.053564966 0.11291285 0.18149966 -0.027607072 -0.047112614 0.030716078 0.093979925
0.14060552 0.1295294 -0.09715043 0.035451114 0.06415361 0.025142288 0.0026789468 0.020210044
0.09667374 0.0052198074 -0.030478137 -0.12073193 -0.0060293833 0.07721727 -0.024366407 -0.08671864
-0.12760334 0.034792397 0.0024450459 0.1306012 0.07633938 0.13041852 -0.07038393 -0.14313306
0.08226433 -0.19308937 -0.022066059 0.07782418 -0.0515337 -0.031277716 -0.008680718 0.1448926
0.118952736 0.09208746 0.07662792 0.095664024 0.043609656 -0.008921753 0.099324346 -0.033651736
0.17355722 0.22074698 -0.00474118 0.10276446 0.0052483147 0.048397012 0.17487192 0.015092463
0.086745374 0.12268287 0.044446073 0.058889575 -0.014844067 0.065704286 0.16595422 0.17526077
0.07556389 -0.089409076 -0.07546373 -0.092020154 0.0486342 0.14750777 0.099568345 0.059160348
0.06810148 -0.043519616 0.15430036 0.057111163 0.09803128 -0.09537305 0.041976005 0.097748764
0.008596463 -0.0044077714 0.04691062 -0.019738544 -0.074808106 0.05142894 0.16104205 0.16507435
0.090348214 0.070750974 -0.026972955 -0.035750836 0.018603895 0.16723451 0.077290066 -0.08646797
-0.051374402 -0.058269154 -0.02515194 -0.061115623 -0.009897965 -0.08901729 0.03959236 0.032072872
-0.016656876 -0.040227886 0.09339376 -0.04488313 0.007072587 -0.06645423 0.018038927 -0.08320674
-0.09730495 -0.08264365 0.10153928 0.041846335 0.09965921 -0.045818854 -0.0275969 0.041126903
-0.022296242 -0.066858016 -0.0054633045 0.13283253 0.015429123 -0.027500376 0.039282553 -0.025934227
0.18466127 0.05102046 -0.042615056 0.101404645 -0.029118445 0.23972401 0.16417614 0.1364344
0.102374464 0.14130104 0.106752 -0.013446152 0.024326615 -0.06126023 0.06455575 0.06823961
0.12931934 0.006748771 0.025033558 0.039070435 0.0046069827 0.045130022 0.04811996 0.10241914
0.08448957 0.20376782 0.1500337 -0.032179166 -0.14109388 -0.005111581 0.12989222 0.07672397
-0.11035775 0.035973024 0.02754585 0.014644965 -0.041502893 0.056635257 -0.06251594 0.06277419
-0.043062966 -0.11383979 -0.06450173 0.1144986 0.04045243 0.028778668 0.042118113 -0.06316686
0.10559572 0.07480389 0.16429204 0.1344123 -0.07241013 0.029556755 0.12611711 0.084262975
0.12645333 -0.038447496 0.027606063 0.042341873 0.1641212 -0.06941472 0.060868256 -0.046074595
-0.05571715 0.027630052 0.09707074 0.0010062433 0.14233568 0.16376309 0.089383766 0.12768131
-0.039324567 0.048400175 0.14287376 0.19656202 0.1510448 -0.10683216 -0.100511365 -0.08652414
-0.049423065 0.035219587 0.088538036 -0.06934974 -0.13313022 0.046508156 -0.10724653 -0.08829738

lstm.weight_hh_l0 f4 [256, 64]
00000000: d33e ddbd de50 ad3d d7e9 8e3d 25d7 c73d
00000010: e660 fbbc 9822 28be 730f 21be ad2b 073e
00000020: 90ff 0dbe b5c6 1c3d 1277 673c 8615 8e3c
00000030: 096a 953d 3433 e4bb d441 39bd 0705 083d
00000040: 6b29 8abd ab11 343d 0a8c 86bd 6388 79bd
00000050: 836b 3ebe 08d9 ff3d e4b6 413d 5da4 47bd
00000060: 86e6 e4bd 66a2 6bbd 5273 cd3d 6987 d0bc
00000070: c939 8f3d f758 003c 6901 7cbd 663c 65bd
00000080: 2611 28bd d0c4 72bc 0339 933d b9c3 5b3d
00000090: ebd3 30be 2b79 1dbe b4e9 d0bb 584c 5a3d
000000a0: e0b2 c6bc d8c6 50bd 0b90 7b3d e02c 11bc
000000b0: 844b 8cbd 7fb1 8f3d 1cd3 cf3b 58f7 913d
000000c0: 0871 253e 3b59 ad3c 0a73 58bd 581f 0ebe
000000d0: 48ad e6bd 5623 ddbc ce4e f6bc e194 653d
000000e0: e4ed b23d a904 f33c 5a91 9fbd 421b 723d
000000f0: b131 6bbd 1ce5 95bc 2979 4f3d 7180 223e
00000100: c5c7 adbd bed5 223e 15dd 3b3d 0f6a a1bc
00000110: b97d bf3d 05aa 863d 5021 34be c027 9a3c
00000120: ce56 4c3d f636 3fbd 42ca d43d d22f 833d
00000130: a13f b5bd a8f5 7dbc 1e75 46bd 6236 b2bd
00000140: be4b 753d 9716 d13b 29d5 c4bd aef5 c9bd
00000150: b590 e2bd 96ed 63bc a11a 52bc 10b1 98bd
00000160: 31ef 1ebe 772a e23c ab06 b33d b8d6 173d
00000170: 413b fe3d 0635 183b a283 82bc c42a a13d
00000180: a862 01bd 71be 4bbd 071a 00bd e6dc a33b
00000190: 7b71 dabd a3ed 23bd 587d 57bd 2941 f6bd
000001a0: 2407 dbbc ac37 0a3d 859e 05bd f900 043c
000001b0: 02fd e4bd a5b8 b23b 376f 5f3d fa58 04bd
000001c0: ed3f 91bd 3c0e 963c 9af4 06be 53b7 bebc
000001d0: 6eea 603d 27f9 5ebc 5b64 923d 0432 8bbd
000001e0: c1f0 a8bd 83e7 b7bd 6e5e a9bd 3e40 b3bd
000001f0: a498 263d c98d 0c3d a099 ec3b a71c 6b3d
00000200: 944f c1bc 340b 09be fcb5 82bd 3c13 f2bd
00000210: a078 7abd 2097 733d 3b66 1abb d144 86bd
00000220: 6896 69bd bc59 0cbe b83c 06be 4f4d 8fbd
00000230: 19df 4b3d 4e6c 07be 0815 943b 86d4 f6bd
00000240: 4318 b939 dcdd 9cbd f644 923d 73df 63bc
00000250: 62e5 7a3d 69a2 9b3b f4b4 de3d bf4c a53d
00000260: a9f0 7eb8 2c25 703d 5e67 99bd 33d6 cebc
00000270: 6d82 0cbe 0b93 8dbd 1848 d03c feb0 8c3a
00000280: 0dd9 493d 63db d03c 46fe b43c ab05 833d
00000290: 505a 4b3d b630 ee3b c866 193c 3af9 3dbd
000002a0: 5bfb e3bd 62b5 5d3d 978c 9dbc 0cea babd
000002b0: 62f1 dabd f690 053e 920e 37bd 7ab6 5f3c
000002c0: be8d cd3d a486 1dbc 31b3 1abd e028 d3bd
000002d0: abb8 08bd 8536 1fbd 57ec b83c 14fe 48bd
000002e0: 60ef 14bd 0f55 06be a4e1 a33d 25a9 d63d
000002f0: fd04 b5bd 166a f9bc e462 8e3d f561 cf3c
00000300: 7390 9abd 4d62 9abd c16b 0cbd ac1e 98ba
00000310: 0aa0 ad3d 5cd6 b03d 423e 03be e768 833c
00000320: fe21 85bd 9ef7 413d 8df8 693d 354c 9c3d
00000330: 8a24 523b 8999 f0bd 382a a1bd 82e4 d43d
00000340: 36d2 c73b dc15 5a3d a1d6 c63d 001a a73d
00000350: d8d8 b7bd bff6 dabd f28b 35bd 528a e1bd
00000360: 16a9 b8bc 336e 083c 9683 9ebd 282d 623d
00000370: 1e9a f13d 3801 5839 3b3a eebd c951 fcbc
00000380: 4639 c83d 4c63 8c3d 7776 103d 2ac3 103c
00000390: eb5e 663c a9a9 ccb8 ba76 c9bd 1dfb e83c
000003a0: f0ce 703d 6630 c0bd e73a f8bd 7381 ccbc
000003b0: 7a5f 283d 319f 56bc 584a 06bd 9092 85bb
000003c0: 913c 893d 3d88 5d3d 8486 bcbc 63a7 85bd
000003d0: 027b 82bd 2c49 2e39 7a62 b6bd 7459 00bb
000003e0: 6417 c33d eb81 1e3d 515f b5bd 1131 cd3d
000003f0: 2b6d 59bd 754d e8bd 49bd 99bd 34e0 813d
-0.108029984 0.0846269 0.06978195 0.097578324 -0.030685853 -0.16419446 -0.1572855 0.13200255
-0.1386702 0.03827544 0.01412751 0.017344248 0.07295615 -0.0069641117 -0.045228794 0.03320792
-0.06746181 0.043962162 -0.06569679 -0.060921084 -0.185957 0.12492567 0.04729356 -0.048740733
-0.11176781 -0.057527922 0.10031761 -0.025455194 0.069934435 0.007833711 -0.061524782 -0.055965804
-0.04103198 -0.014817432 0.071886085 0.053653453 -0.1726834 -0.15378253 -0.006375516 0.053295463
-0.024255216 -0.050970882 0.061416667 -0.008860797 -0.06850341 0.070162766 0.006342305 0.07127255
0.16156399 0.021160712 -0.052844085 -0.13879144 -0.112635195 -0.026994389 -0.030066874 0.056050185
0.0873678 0.029665308 -0.077913955 0.059108026 -0.057420436 -0.018297724 0.050652657 0.15869309
-0.08485369 0.15901849 0.045865137 -0.019703893 0.093501516 0.065753974 -0.17590833 0.018817782
0.04988747 -0.046683274 0.1039014 0.064056054 -0.08850027 -0.015500464 -0.048451535 -0.08701779
0.059886687 0.0063808667 -0.096109696 -0.09861313 -0.11062757 -0.013911625 -0.012823732 -0.07455647
-0.15520932 0.02760814 0.08741506 0.037070006 0.124136455 0.0023224964 -0.015931908 0.07869485
-0.031588227 -0.049742166 -0.03127482 0.0050006984 -0.10666176 -0.04002155 -0.05260977 -0.12024147
-0.026736803 0.0337445 -0.03262188 0.0080568725 -0.1118107 0.0054541402 0.054549422 -0.032311417
-0.07092271 0.018317334 -0.13179246 -0.023280775 0.05491107 -0.013609207 0.071480475 -0.06796649
-0.08249045 -0.08979704 -0.08269964 -0.087524876 0.040672913 0.034314904 0.007220462 0.057400372
-0.023597516 -0.1338318 -0.06382367 -0.11820075 -0.061150193 0.059470296 -0.002355947 -0.065560944
-0.057028204 -0.13706106 -0.131091 -0.06997167 0.04977331 -0.13224909 0.0045191087 -0.120522544
0.00035304026 -0.07659504 0.071420595 -0.013908255 0.061253913 0.0047495854 0.10874358 0.08071279
-6.078245e-05 0.0586292 -0.07490419 -0.025248623 -0.13721628 -0.06912812 0.025425002 0.00107339
0.04927926 0.025495237 0.022093903 0.063975655 0.049646676 0.0072689904 0.009362884 -0.04638026
-0.111319266 0.05412806 -0.019232078 -0.09126672 -0.10690571 0.1304358 -0.04469163 0.013654346
0.10036801 -0.00961462 -0.037768546 -0.10310531 -0.033379238 -0.038870353 0.022573633 -0.049070433
-0.0363611 -0.13118385 0.08002022 0.104814805 -0.08838842 -0.030446094 0.06952456 0.025315264
-0.07547083 -0.07538281 -0.03428245 -0.0011605821 0.08477791 0.08634636 -0.12816718 0.016041232
-0.06500624 0.047355287 0.057121802 0.07631723 0.0032065236 -0.117480345 -0.07869381 0.10395147
0.006098057 0.053243503 0.09708906 0.08159256 -0.089769065 -0.10691594 -0.044322915 -0.11012711
-0.022541564 0.008327055 -0.07739942 0.055218846 0.11796974 0.00020599819 -0.116322 -0.030800717
0.09776549 0.06854877 0.035269227 0.008835593 0.014060716 -9.75908e-05 -0.098370984 0.028440053
0.0587911 -0.09384231 -0.1212061 -0.02496407 0.04110668 -0.013099478 -0.032785743 -0.0040763095
0.06701005 0.054085005 -0.02301336 -0.06526067 -0.06371118 0.00016621192 -0.08905502 -0.0019584568
0.09525946 0.03869812 -0.08856071 0.10019124 -0.053082626 -0.11342899 -0.075068064 0.063415915

lstm.bias_ih_l0 f4 [256]
00000000: 346c fb3d 070b 133d f04e 7cbd 44b1 a3bd
00000010: 29c0 2ebd cafc 213e 09f4 33bd 19e1 a13d
00000020: b8fc a0ba 44e9 443d 3167 c63d 92fc 2b3d
00000030: d3c3 e0bc 953a 97bc 21f9 56bd d2b9 153e
00000040: aa4f f03c 450d 33bd d75c e9bd 385e bc3d
00000050: 5ebc 183e 7865 a0bd e824 d23c 8bc6 053e
00000060: 17fc 763c 4db4 003e 6d43 963d c12f 9dbc
00000070: 94fb 643d a2c7 78bd ac9a 2dbd 2658 c0bd
00000080: fbda 8e3d f955 fc3d b426 633d 578b 39bd
00000090: 2f31 0dbd 2e53 ee3d 23d4 cebc 6443 e93d
000000a0: 2098 c6bd 78fb 193e c04f 00bd 1beb fa3d
000000b0: cdd7 dc3d 902e fcbc a527 5c3d 1d79 643e
000000c0: e341 16bc 3dda 5ebc 24d2 72bd ade9 d43d
000000d0: 48d5 21bd 2fea 93bd 7586 89bc 5fba 7c3d
000000e0: 7928 4abd 2322 edbd 1672 723d 2101 723d
000000f0: 6e73 a83d e9a8 cdbc 3a08 443c ed04 b3bd
00000100: ce50 ae3c ae8e c13d 7470 e7bb 14ea bfbd
00000110: efa0 77bd c980 d5bd 74c6 3dbd d23b a73d
00000120: de37 103b 17f7 6ebd 69ed b53c c8d2 1a3c
00000130: 0a49 c1bd 9932 963c e577 0b3d 9974 003e
00000140: 551a 86bd bce1 e4bd ad67 ce3d d3ae 7b3d
00000150: d3a6 febc 45d7 d6bd 89d4 d33d 8b12 083e
00000160: ce01 92bd e140 f5bc 051b c03d d252 fd3c
00000170: 75e2 e63c ab3a fa3d bc85 2a3d b1f0 ddbd
00000180: 76f1 1bbd c6ed de3d 7d00 fe3d ddde 90bd
00000190: 9010 df3d 0e92 f3bd 1c5e cb3c 3f11 383d
000001a0: 5a74 c2bd fa1f f5bd f8e2 35bd 1092 8cbd
000001b0: 317e 983d 37d1 e7bb 3a8c a6bd 76c2 af3d
000001c0: 763b 1a3c 8aeb 053d bb77 ac3d bd78 d0bd
000001d0: 6e15 cfbd 55d4 073d 8c48 8ebd 49ed 913d
000001e0: d2a6 aabd b5fa e63c bad7 88bd 9499 403d
000001f0: 793d aabd 7bc3 9a3c 4270 e9bd c589 8d3d
00000200: 91b3 bfbd ec54 7c3d 151b 47bc a443 913d
00000210: 96db a53d 599d b13d ebd0 48bd 8f56 fc3c
00000220: 19fb 19bd bc1f f63a 6f85 94bd 9a09 84bc
00000230: 1337 863d 7292 053c 1845 063e 9abf 5c3d
00000240: 74b8 e5bd 9999 9ebd 3a3f 95bd 8159 e9bd
00000250: 821c b93d 11a7 87bc fc9a a93d fac5 c03d
00000260: 8fae 663d 2bbb 82bd e8b0 d53d d06e b33d
00000270: 38cc 353c 0082 133c 63a7 033d 49d4 ebbd
00000280: 1a7e 853d 627c 933d e7e7 4b3c d2ae 1b3d
00000290: 8707 cebc e01e 80bd 4c8a 0d3d 3c44 d3bd
000002a0: c027 b4bd 9bf2 a73d 5e9d 89bc e1a0 92bd
000002b0: bc2e 843d 7fc8 37bd 82b3 fc3d 6077 bfbd
000002c0: 186d dbbd fbb8 a5bd 165f ecbc a5c6 d13c
000002d0: 2bd5 63bd 8fe0 d33c 5a1d dc3d 88b2 a3bd
000002e0: ac01 d43d 9ea7 e53d fb8d ff3d c0e7 b4bd
000002f0: 0af7 e63d 5388 043e 0da7 64bd 7279 04bd
00000300: b599 23bd d559 0cbd e018 acbc 78c7 003d
00000310: 0049 d23d 6a3e 1d3e f5a2 0a3d c985 193c
00000320: 97d1 e9bb 7481 1ebd 1152 993d e1b1 963d
00000330: 2a62 7b3d 63b1 e43b 6951 e73c 4889 9cbd
00000340: bcc3 21bd ae78 d83d 7f78 583d cd92 6e3d
00000350: 90e0 093e 622b da3d 82a3 9c3c 8479 063d
00000360: 8e77 c8bd 5c88 b53d 561a 273c 08b0 733d
00000370: e296 cfbd 0d28 91bd 90e3 c63d c4a3 fa3d
00000380: de73 19bb 7ab4 f63c afdd 1b3d 362b c3bd
00000390: 07d6 d9bd 02a9 df3d 93e3 8ebc 36b1 0bbd
000003a0: 0810 623d 8fe5 82bd bb5a ca3d 6f7d 90bd
000003b0: 3a75 15bd c10b a63d d02c eabd 9a8b 0e3e
000003c0: 5cbc aa3b 55c1 21bc 9258 313b ffc9 f3bc
000003d0: ba64 b1bd 1a32 8e3d 9d2a d2bc e18e 353d
000003e0: e9db 983d b220 543d 4734 a73d 70e8 adbd
000003f0: 29a6 0abc a5fa 263d fa88 af3d a12d 1a3d
0.122764975 0.03589919 -0.06159872 -0.07992795 -0.042663727 0.15819088 -0.043933902 0.07904262
-0.0012282347 0.048074022 0.09687651 0.041988917 -0.027437126 -0.018460551 -0.05248368 0.14621666
0.029334862 -0.043713827 -0.11394661 0.09197658 0.14915606 -0.07831854 0.025652364 0.1306402
0.015074751 0.1256878 0.07337079 -0.01918781 0.055903986 -0.06073726 -0.042383835 -0.09391813
0.06975361 0.123210855 0.055456832 -0.0452989 -0.034470733 0.11636959 -0.025247639 0.11389807
-0.09696984 0.15037334 -0.031326056 0.12251874 0.10783348 -0.030783921 0.053748745 0.22311826
-0.009170982 -0.013601837 -0.059282437 0.103961326 -0.03951004 -0.07222401 -0.016787747 0.061701175
-0.049355004 -0.11578777 0.059190832 0.059083108 0.082251415 -0.025104957 0.011964852 -0.08741174
0.021278765 0.09451042 -0.007062966 -0.09370819 -0.060456213 -0.104249544 -0.046331838 0.08165707
0.0022005956 -0.058341112 0.022207933 0.009449668 -0.09437759 0.018334674 0.034049887 0.12544478
-0.06547991 -0.11175868 0.10078368 0.061446022 -0.031085407 -0.10490278 0.10343272 0.13288324
-0.071292505 -0.029938163 0.093801536 0.03092328 0.028184155 0.12218221 0.041631445 -0.10836924
-0.038072072 0.108851954 0.12402437 -0.07073758 0.10891831 -0.11893092 0.024825148 0.044938322
-0.094948485 -0.1196899 -0.044405907 -0.06863797 0.07445944 -0.007074501 -0.08132215 0.08582012
0.009413591 0.03269533 0.08421274 -0.10179279 -0.10111509 0.03316148 -0.06947431 0.07125337
-0.083326 0.028195718 -0.066817716 0.047021464 -0.08312506 0.01889204 -0.113983646 0.06911043
-0.093604214 0.061604425 -0.012152453 0.070929796 0.08098523 0.0867259 -0.049027365 0.030802993
-0.03759298 0.0018777768 -0.07252013 -0.01611786 0.06553473 0.008152591 0.13112295 0.053893663
-0.11216822 -0.0774414 -0.0728745 -0.11394025 0.090386406 -0.016559156 0.08281514 0.09412761
0.056318816 -0.06383356 0.10434133 0.0876137 0.011096053 0.009003162 0.032142054 -0.115150996
0.065181926 0.072014585 0.012445427 0.03800852 -0.025150074 -0.06255889 0.03455572 -0.10315749
-0.08796644 0.0820057 -0.016798671 -0.071595915 0.064542264 -0.044868942 0.12338926 -0.09348941
-0.10714167 -0.08091923 -0.028853934 0.025607416 -0.055623215 0.025863914 0.10747786 -0.079930365
0.103518814 0.11213611 0.124782525 -0.08833265 0.11277588 0.12942629 -0.055823375 -0.03234238
-0.03994151 -0.034265358 -0.021007955 0.03144023 0.1026783 0.1535584 0.033846814 0.009370276
-0.0071355808 -0.038697675 0.07486356 0.073581465 0.061372913 0.006979154 0.028237062 -0.07643372
-0.039493307 0.10569893 0.05284929 0.05824547 0.1346457 0.10652806 0.019120935 0.03283073
-0.09788428 0.08863899 0.01019915 0.05949405 -0.101362005 -0.07087717 0.09711373 0.12238267
-0.002341501 0.030115355 0.03805321 -0.09529726 -0.106365256 0.109209076 -0.0174425 -0.03410455
0.05519107 -0.06391441 0.09880587 -0.070551746 -0.03648875 0.08107711 -0.114343286 0.13920441
0.0052104425 -0.009872754 0.0027060849 -0.029759405 -0.0866179 0.0694315 -0.025655085 0.044325713
0.074638195 0.051788993 0.08164268 -0.084915996 -0.008462467 0.040766377 0.08571048 0.03764117

lstm.bias_hh_l0 f4 [256]
00000000: ac97 0b3e 1b88 3cbb 9cb9 743d 105e 4ebd
00000010: 2244 89bc 6fe6 443b d999 ad3d 96c4 8c3d
00000020: e891 ffbd 48a3 01bc cd53 8cbd 3ea3 c5bd
00000030: 7b46 873d f1a2 8e3d ba40 0bba 0bb0 12bb
00000040: 6408 95bd 8745 283d f43e ce3c 788a 013c
00000050: 2f32 1c3e 23ba 5bbd e637 703d bd22 0e3e
00000060: 16e3 7b3d fb1b ff3d bb40 84bd d154 c43d
00000070: 9e33 153d 3f61 a93d 4af3 a83d 5682 b23d
00000080: f931 8cbc 1bcb 263e 1592 8bbd 048d 1cbd
00000090: e954 113d c675 83bd d94b fa3d c96b c0bc
000000a0: 56bc b8bd 64a5 24bd 0104 153e 69b5 183a
000000b0: de9d 893d 1e96 12bc 31bc 97b9 0d93 543e
000000c0: 1e88 cbbd c2a4 d3bc 185c 253c ba4b 273a
000000d0: a31d ef3d ff0c ec3d 1dfe d3bd 95b0 b5bc
000000e0: 11a5 48bd 30f5 7bbd cbba edbd 8573 65bd
000000f0: 8482 0d3d 71ac 833d 6e6a e63d 03be 87bd
00000100: eab8 a03b 4821 9b3d 87a2 02be 971d 133d
00000110: 996d 073d 2b99 84bd 0e11 0a3e f44e a83d
00000120: b094 47bb 942f e33d 2fe1 74bd 4245 983c
00000130: dd36 a63c 6e9f bebd 7b9e 6ebd 44e9 c4bd
00000140: 4880 a23d caba dfbd d1c0 b4ba 0bb6 f03d
00000150: 8fbd 203d 874a 043e a491 8e3c 0c21 113e
00000160: da05 c53d 0bd0 d3bd e1fc debd 017d 813d
00000170: d677 c03d 7bb1 9d3d dc2a 103d c425 2d3a
00000180: 6206 643d 836a 063e 037f 54bb 71ea e73d
00000190: 9890 973d dd35 033d 8b3d b13d 5347 b8bc
000001a0: d454 d5bd de8f 8d3d fe79 033c 2970 17bb
000001b0: 3935 d73d bb95 b6bd db72 06bd 6a55 2abd
000001c0: 6e20 f7bd 5850 943d f5fd d53d 5b74 153d
000001d0: c515 25bd c1b1 503d f279 89bd 6f5f 693d
000001e0: 5803 933d 7b9b f63c 106f a5bd 40e2 00bd
000001f0: 9598 d9bd 627e d63d b693 983d 987e 643d
00000200: f765 97bd 8c4a 92bd 2724 acbb 2011 c33d
00000210: 48e0 8abd 1dfc c93c e529 2f3d 3019 d93d
00000220: d584 e7bd c393 663d cee8 133e 846a 8abd
00000230: 0dce afbc 56c7 263d 2af0 1dbd 9dd0 fdba
00000240: a18e 20bd efa3 bf3d b6dc 46bd bf0a cbbd
00000250: cb8a 08be 724a 983d 7176 81bd de58 fabd
00000260: df3e 963d f360 6dbd 64f4 78bd 9438 9ebd
00000270: 8644 443d 012c 383d 66c1 9ebc 50e8 0ebd
00000280: 9969 07bc 9455 8cbd 0598 db3c e6cb 79bd
00000290: 6785 e4bd 1c0c 04bd ca6d 2d3d 6cca d33c
000002a0: f02f 27bc 26f3 573d f5df dbbd 68c8 ebbd
000002b0: f2aa 6abd dbdc 2ebd 2557 d8bd 75d9 cabc
000002c0: 2499 953d 4108 983d f6bd b2bd bba4 bfbd
000002d0: 41bc 32bd 8a9c 52bc 251a 0f3d 9613 2e3d
000002e0: 1095 8b3d a6cc 523d e095 6dbc 5cf4 d4bd
000002f0: 5103 343d 5cbc 84bc afad dd3d dc81 a23d
00000300: de4e 1e3e 04ef 253d a8b3 783d 063c 29bd
00000310: 0450 803d 36e1 e93b 3e33 3d3d 2628 f63d
00000320: 9333 febd a247 943d c390 883d 168a ca3c
00000330: 62db 3abd 2343 373e ae33 74bd 8334 7b3d
00000340: e411 1dbd 7b80 1f3d c630 97bd e3ee b0bd
00000350: fa63 81bd 0a13 35bd 5e7a cfbc 9874 333b
00000360: d40d adbd 9f32 f4bc 67ed 75bd af80 4f3d
00000370: afc9 cb3c 4b89 b43d 452f 16bc cf60 313c
00000380: 9109 533d 3ae3 b8bc 6f9b 6bbd 66c5 5d3d
00000390: 8dcb 85bd 0a5a d53d 9708 34ba c947 ed3d
000003a0: fa17 053e 3728 0e3d 5d79 45bd 4d36 f13d
000003b0: c6c4 e93d c1bb 9cbd a0d9 f83d 304b 683a
000003c0: cdc7 933d b6fc abbd 27d2 383d a210 943d
000003d0: 8487 f3bc d366 85bb cd93 f23c 05a0 3ebc
000003e0: d7cd 163e 5663 7b3d 6598 903d ccef 493d
000003f0: c2be 28bd ef9b f33d 28db ccbd 45b6 eb3d
0.13632077 -0.0028767649 0.059747323 -0.050382674 -0.016756121 0.0030044576 0.0847661 0.06873433
-0.12479001 -0.007912464 -0.06851921 -0.096502766 0.0660524 0.06964672 -0.0005312074 -0.0022382762
-0.07276991 0.04108193 0.025176503 0.007906549 0.15253519 -0.05364431 0.05864706 0.13880439
0.061495863 0.12456509 -0.06457659 0.0958649 0.03642618 0.08270501 0.08249529 0.08716266
-0.017113673 0.16288416 -0.06814972 -0.03822042 0.035481367 -0.06418948 0.12221498 -0.023488896
-0.09020297 -0.04019679 0.14552309 0.0005825372 0.06719564 -0.008946924 -0.00028941178 0.2075922
-0.09938072 -0.025835399 0.010092758 0.00063818286 0.11675575 0.11525916 -0.10351203 -0.022178927
-0.048985545 -0.061513126 -0.116078936 -0.05601837 0.034548298 0.06429375 0.112507686 -0.06628039
0.004904856 0.07574707 -0.12757312 0.03591689 0.033063505 -0.06474527 0.13483068 0.08218184
-0.0030453615 0.11093059 -0.059785064 0.018587712 0.020289833 -0.093077525 -0.058256608 -0.096148044
0.07934624 -0.10924299 -0.0013790374 0.11753472 0.039243277 0.12919055 0.017403431 0.14172763
0.09620257 -0.103424154 -0.108880766 0.06322671 0.09397857 0.07699867 0.035197124 0.0006605054
0.05567015 0.13126568 -0.0032424338 0.11324013 0.07400626 0.03203379 0.086543165 -0.022494948
-0.1041657 0.06912206 0.008024691 -0.0023107624 0.10508198 -0.089152776 -0.03282438 -0.041585363
-0.12066732 0.07241887 0.10448829 0.03648792 -0.040303964 0.05095077 -0.06712712 0.05697578
0.07178372 0.030103436 -0.08077824 -0.03146577 -0.10624806 0.10473324 0.074500486 0.05578479
-0.07392495 -0.07143125 -0.005253333 0.09524751 -0.067810595 0.02465635 0.042764563 0.10600507
-0.113046326 0.05629326 0.14444277 -0.067585975 -0.021460557 0.040717445 -0.038559116 -0.001936454
-0.03919852 0.0935744 -0.04855033 -0.09914159 -0.13334195 0.07436074 -0.06321419 -0.12223981
0.073362105 -0.057953786 -0.060779944 -0.07725635 0.04791691 0.04496384 -0.019379329 -0.03488952
-0.008264923 -0.0685226 0.026805887 -0.06098547 -0.11158257 -0.03223811 0.04234103 0.025853358
-0.0102043 0.05272212 -0.10736076 -0.11512834 -0.057291932 -0.042691093 -0.105634965 -0.024761895
0.073046 0.07423449 -0.087276384 -0.09357592 -0.043636564 -0.012854705 0.034937043 0.042499147
0.06815541 0.0514647 -0.014501065 -0.1039817 0.043948475 -0.016203098 0.10824143 0.07934925
0.15459773 0.040511146 0.06071821 -0.04131701 0.06265262 0.007137443 0.046191446 0.120193765
-0.12412181 0.072402254 0.06668236 0.024724048 -0.045619376 0.17896704 -0.059619598 0.061329376
-0.03834714 0.038940888 -0.0738235 -0.08639314 -0.06317897 -0.04420761 -0.025326904 0.0027382728
-0.08449903 -0.029809294 -0.060040858 0.05065983 0.024876444 0.08815249 -0.009166543 0.010826304
0.051522795 -0.022569288 -0.05752128 0.054143332 -0.06532965 0.10417564 -0.0006867735 0.115859576
0.12997428 0.03470632 -0.048211444 0.11777935 0.11414485 -0.07652999 0.12150884 0.00088613015
0.07215843 -0.0839781 0.045122292 0.07229735 -0.029727705 -0.0040710955 0.029611493 -0.011634831
0.14726959 0.06137403 0.07060317 0.049300954 -0.041197546 0.11894976 -0.10002738 0.115093745

fc.weight f4 [1, 64]
00000000: 5ec8 2bbe 28e5 953d 6c03 133d 8995 d83b
00000010: 3c6c 753d e489 39be 12ff 0ebe a5f0 0b3e
00000020: 16eb 83bd 8342 c83d 937d 89bd 836d a1bc
00000030: 9446 253d 1bf7 42be 5c90 b63c 46cb 00be
00000040: 84e4 a73d 1070 05be 2530 46bd 1927 b3bd
00000050: 52ca 19be 51f5 143e 7a69 e8bd aba2 623d
00000060: 3adb 98bd dca1 363e 6207 193e 0050 25be
00000070: fc52 1b3d 8c89 e23b 1bfa fb3c e888 10be
00000080: b37a 95bd f3fe b6bd f98e 1f3e ed08 733d
00000090: eec3 7fbd b976 013c b6d1 9d3d 9eac 8cbc
000000a0: 1952 0bbd d01b f0bd 87ea c8bd 79ef 7dbd
000000b0: dcc7 a5bd 42ae 55bd ceef 8e3c fedb 373e
000000c0: 9a50 093e 3123 a43d 9ad9 72bc d057 eebc
000000d0: 5cf5 9ebd 061e 00be f707 073e 74b2 15be
000000e0: 1dc1 ca3d 0e03 923d 299c dc3d 1c7e 233d
000000f0: 9406 a93d 07a7 f73c 015c 0c3e 62b8 fa3d
-0.16775653 0.07319099 0.035891935 0.006609623 0.059917673 -0.18119007 -0.13964489 0.13666017
-0.064413235 0.09778311 -0.067134045 -0.01970554 0.04035051 -0.19039576 0.022285633 -0.12577543
0.08197883 -0.1303103 -0.048385758 -0.08747692 -0.15018585 0.14546706 -0.11348243 0.055330914
-0.07463689 0.17835182 0.14944223 -0.16143799 0.037920937 0.0069133695 0.030758908 -0.14114726
-0.07298794 -0.089353465 0.15581883 0.059334684 -0.062442712 0.007901841 0.07706015 -0.017172154
-0.03401384 -0.11724055 -0.098103575 -0.061995957 -0.08094761 -0.05216814 0.017448332 0.17955014
0.13409653 0.08014525 -0.014822388 -0.029094607 -0.07761642 -0.12511453 0.13186632 -0.14618856
0.09900115 0.07129489 0.10771973 0.03991519 0.08253208 0.030231012 0.13706972 0.122421995
