models/gru_model.pth (torch, 97954 bytes, 9 tensors)

gru.weight_ih_l0 f4 [150, 5]
-0.1174375 0.033869963 -0.12588586 -0.19388978 0.033314314 -0.022820007 -0.12794417 0.07995202
0.030845404 0.03294792 0.029581852 -0.064088725 -0.064108185 -0.028085623 0.12620252 0.09495854
-0.10572434 0.06646565 -0.032387044 -0.015538413 -0.06464442 -0.05238226 -0.14972544 -0.04326392
0.06483124 -0.13667552 -0.012953093 0.019210173 0.12514481 -0.09085098 -0.1064514 -0.09561337
0.0882591 0.015423425 -0.08835695 -0.021103181 0.108825915 -0.095152475 0.13778298 0.05105061
-0.0007308754 0.018639635 0.041568905 -0.16288853 -0.063258566 0.08959016 0.06299191 -0.09126472
0.022462605 -0.13496076 -0.044558436 0.086380504 -0.052945442 0.14349474 0.114380315 0.12820593
0.09134284 -0.061426092 -0.014245582 -0.076905645 0.017708767 -0.08392001 0.097664624 -0.03749172
-0.071203046 0.0755693 -0.016513888 -0.07437315 0.08936355 0.08550943 -0.039422475 0.10662883
-0.11835922 0.056498155 -0.09670506 -0.03396002 0.036821615 0.03332089 -0.065663174 0.0012929145
-0.08788182 -0.093841024 -0.0035852424 0.01127517 -0.09561758 -0.10945667 0.012819779 -0.09191768
0.08508489 0.07561801 0.029186962 -0.034559373 0.016905135 -0.059626408 0.034231886 -0.092254594
-0.01050624 0.0029136557 0.078523114 -0.00671801 0.0028087262 -0.15056926 -0.012659757 0.0155394375
-0.11151882 0.027395464 0.027016293 -0.13537352 -0.18019845 -0.10023395 0.00011089813 -0.12469999
0.06673609 -0.12490455 -0.012868614 0.14363329 -0.033275288 -0.07834081 -0.09700189 -0.029795254
0.0020652504 -0.1225107 -0.028194427 -0.11727987 -0.051794287 0.110401064 0.05098501 -0.12590356
-0.04922406 0.042449567 -0.073432416 -0.016691646 -0.0025708044 -0.11619222 -0.06964483 0.11689242
0.090325035 -0.1401152 -0.09602085 -0.07025761 -0.061828546 -0.08560787 0.09985643 -0.05207654
0.025985364 -0.064105555 -0.0948702 -0.012426814 0.10262137 0.110165894 0.11505081 0.00671455
0.10602779 0.07546004 0.13506293 0.03196292 -0.08123744 0.05328768 0.10213521 -0.0057664267
0.119336985 0.1295948 0.14678387 -0.03335145 0.030054783 -0.04096562 -0.15876894 0.010310237
-0.10871546 -0.08776133 -0.11225734 -0.024689961 0.08401722 0.050922833 -0.082853384 0.14895688
-0.109753594 -0.087637424 0.12933226 0.16028084 -0.07165438 -0.013573211 0.010226317 0.03379254
0.06461678 -0.014234251 -0.07892343 0.09742196 -0.06882127 0.07419731 -0.09397039 0.04379918
-0.16602205 -0.07225903 0.08567697 0.09832958 -0.06198795 0.0639802 0.0703407 0.085791424
-0.15275413 -0.115270704 -0.15777387 0.09735667 0.07045403 -0.077379696 -0.033971664 -0.123153836
-0.09946337 0.023713661 -0.1209453 -0.101555526 -0.07508718 0.03198947 -0.038979925 -0.01895343
-0.049079407 0.1279572 0.11472542 0.048044987 0.023629904 -0.09714075 0.06929626 -0.20037901
-0.029573144 0.1595937 0.023711778 -0.025126638 0.02819047 0.09286728 -0.1446115 0.11086014
-0.0050986325 0.06453468 -0.11117298 0.059993356 -0.11305325 0.051075835 0.0022610938 0.06839462
0.026263665 -0.11497056 -0.14289507 -0.16214208 -0.11126677 -0.08887831 -0.07257117 0.06707975
-0.100283116 -0.019686593 -0.10931205 -0.28028825 -0.19001411 -0.33137107 -0.070303984 -0.23036095
00000000: 1283 f0bd 3bbb 0a3d 39e8 00be 0b8b 46be
00000010: 9774 083d 06f1 babc cc03 03be e2bd a33d
00000020: 80af fc3c 66f4 063d a455 f23c f340 83bd
00000030: 274b 83bd d213 e6bc 3c3b 013e 9f79 c23d
00000040: 0186 d8bd 251f 883d 47a8 04bd d494 7ebc
00000050: 4b64 84bd c88e 56bd a051 19be 8235 31bd
00000060: 3ec6 843d abf4 0bbe 3639 54bc a75e 9d3c
00000070: f625 003e 1410 babd 3103 dabd f1d0 c3bd
00000080: 30c1 b43d 88b2 7c3c 7df4 b4bd 94e0 acbc
00000090: 1fe0 de3d 4ddf c2bd fb16 0d3e 721a 513d
000000a0: 3898 3fba 26b2 983c 2844 2a3d 40cc 26be
000000b0: b58d 81bd 0c7b b73d e701 813d ffe8 babd
000000c0: 7f03 b83c 2733 0abe e882 36bd 43e8 b03d
000000d0: 52dd 58bd 49f0 123e 3a40 ea3d 6a48 033e
000000e0: f411 bb3d ed99 7bbd 4d66 69bc b580 9dbd
000000f0: fa11 913c 41de abbd 6404 c83d eb90 19bd
00000100: e7d2 91bd 14c4 9a3d 2248 87bc f350 98bd
00000110: 3d04 b73d 911f af3d 7679 21bd 3760 da3d
00000120: 5266 f2bd 9c6a 673d 4d0d c6bd a919 0bbd
00000130: 43d2 163d 7c7b 083d 6a7a 86bd 0377 a93a
00000140: 62fb b3bd b92f c0bd 63f6 6abb 7ebb 383c
00000150: 26d3 c3bd d22a e0bd 0d0a 523c 563f bcbd
00000160: fd40 ae3d 9ddd 9a3d 7f19 ef3c 218e 0dbd
00000170: a37c 8a3c d23a 74bd bc36 0c3d faef bcbd
00000180: 5d22 2cbc 08f3 3e3b bad0 a03d c122 dcbb
00000190: 9b12 383b d42e 1abe df6a 4fbc 2099 7e3c
000001a0: fb63 e4bd 746c e03c 4651 dd3c 5b9f 0abe
000001b0: f185 38be 7547 cdbd fb91 e838 b562 ffbd
000001c0: eeac 883d f5cd ffbd e1d6 52bc 9b14 133e
000001d0: ab4b 08bd 2671 a0bd eda8 c6bd 2d15 f4bc
000001e0: 2759 073b e4e6 fabd 00f8 e6bc 6e30 f0bd
000001f0: 3f26 54bd f419 e23d a8d5 503d ddec 00be
00000200: 2b9f 49bd 99df 2d3d bc63 96bd ebbc 88bc
00000210: f17a 28bb 30f6 edbd f3a1 8ebd 4b65 ef3d
00000220: 55fc b83d 5c7a 0fbe 94a6 c4bd 39e3 8fbd
00000230: ee3f 7dbd 2e53 afbd 8781 cc3d 364e 55bd
00000240: 42df d43c c649 83bd 4f4b c2bd d699 4bbc
00000250: 272b d23d a89e e13d c29f eb3d ba05 dc3b
00000260: 1925 d93d cb8a 9a3d f04d 0a3e 8deb 023d
00000270: d15f a6bd 2f44 5a3d 442c d13d 4bf4 bcbb
00000280: f366 f43d 80b4 043e 834e 163e 889b 08bd
00000290: 7335 f63c 91cb 27bd 5394 22be 45ec 283c
000002a0: 36a6 debd 36bc b3bd 2de7 e5bd 9a42 cabc
000002b0: 3811 ac3d 7694 503d 09af a9bd 2788 183e
000002c0: 7ec6 e0bd 407b b3bd ad6f 043e a920 243e
000002d0: 88bf 92bd 2c62 5ebc 488c 273c 0c6a 0a3d
000002e0: cd55 843d c736 69bc 9ba2 a1bd 2a85 c73d
000002f0: 2af2 8cbd c2f4 973d 8c73 c0bd c566 333d
00000300: af01 2abe 8bfc 93bd 6877 af3d 0561 c93d
00000310: 14e7 7dbd 0d08 833d c90e 903d 6ab3 af3d
00000320: 946b 1cbe 0c13 ecbd 798f 21be ef62 c73d
00000330: 344a 903d 3f79 9ebd df25 0bbd 1438 fcbd
00000340: 74b3 cbbd 2743 c23c 2bb2 f7bd 58fc cfbd
00000350: 4fc7 99bd 6407 033d 6aa9 1fbd 3944 9bbc
00000360: 7d07 49bd 3607 033e 29f5 ea3d d2ca 443d
00000370: 8093 c13c bbf1 c6bd 33eb 8d3d 2830 4dbe
00000380: 6143 f2bc 886c 233e 343f c23c 61d6 cdbc
00000390: b3ef e63c 3331 be3d 0915 14be a40a e33d
000003a0: 6e12 a7bb c22a 843d a9ae e3bd 98bb 753d
000003b0: 7688 e7bd e534 513d dc2e 143b 7b12 8c3d
000003c0: e626 d73c af75 ebbd 1653 12be 9308 26be
000003d0: d5df e3bd d505 b6bd 32a0 94bd 1c61 893d
000003e0: 3c61 cdbd c745 a1bc ffde dfbd f181 8fbe
000003f0: 0f93 42be 78a9 a9be 89fb 8fbd bee3 6bbe

gru.weight_hh_l0 f4 [150, 50]
-0.050012525 0.06113572 0.06929138 -0.04190447 0.023529015 0.08165566 0.12131186 -0.044996005
-0.037707318 -0.0331114 0.155132 -0.10527221 0.030075237 -0.13265471 -0.11236451 -0.103200495
0.1415493 -0.1247819 0.11308799 -0.11779141 -0.100207545 -0.035974897 -0.10948919 -0.06977229
0.007515646 0.03033457 -0.04132578 -0.07728798 0.0771366 -0.09909478 0.0677704 -0.06134995
-0.091070056 0.041761883 0.039256457 -0.122092195 0.12753591 -0.080338374 0.003278117 0.01318734
0.14641485 0.0148634 0.1490147 0.0809952 -0.09167647 0.062053725 -0.02914406 0.02008927
-0.12271165 0.09786788 0.10087084 -0.15775687 -0.021137107 0.089536935 -0.006296155 0.15503117
-0.025887506 -0.18463147 -0.06991349 0.18932502 -0.0448851 -0.12107718 -0.14465655 -0.14626493
0.06483441 0.14557469 0.06321065 -0.15230076 0.14232682 0.10151297 -0.048647474 -0.015280511
-0.026294872 -0.050770834 -0.07115745 -0.085121155 -0.040644836 0.10270279 -0.009124635 0.02427365
-0.09076914 0.07463193 -0.058494482 -4.742976e-06 -0.10105636 0.039139014 -0.16011429 0.028548328
-0.1006626 -0.02005345 -0.008571984 0.1863999 -0.054917295 0.023722103 0.17527747 0.0016638933
-0.062458828 0.04389886 -0.11442436 0.16781963 -0.03577504 -0.093677215 -0.16511703 0.05099731
0.12448236 -0.10522779 0.08225754 -0.17527965 -0.032289304 0.050543502 0.059162572 -0.05242259
0.06599917 0.18183798 -0.19977403 0.026822306 0.17470519 -0.0159777 0.046053063 -0.16274863
0.032231797 0.060475677 -0.08670566 0.07494318 0.079883635 0.116808675 -0.10563228 -0.023880942
0.1547884 0.009783618 0.06774631 0.034604304 0.009375247 -0.18330349 -0.07575023 -0.024931248
0.06770659 -0.069575064 -0.031325255 -0.06884934 0.0949634 -0.06711808 -0.010912109 -0.19706008
-0.12358602 -0.1676376 -0.048443295 -0.07622462 -0.0412788 -0.03241316 -0.12647383 0.032846104
-0.08668717 -0.003335275 -0.08727842 -0.13362816 0.07252489 -0.06035876 -0.10919474 -0.008643703
-0.08567782 -0.04347527 0.051098567 -0.050304845 0.1047122 -0.019789364 -0.07649874 -0.086015955
-0.110238545 -0.14165695 -0.017870726 0.10895591 -0.08864516 0.07480766 0.04500107 0.069938734
0.032944735 -0.10514722 -0.099361986 -0.069526695 -0.08239306 -0.10744175 0.07720872 0.08530518
-0.122084625 -0.030839406 -0.08992631 -0.15781151 -0.08650407 0.04085982 0.090931445 0.008138418
-0.079800785 0.053857062 -0.072962895 -0.06961983 0.046133608 0.008506232 -0.1325356 0.15644981
-0.057543326 0.11323507 -0.07082019 0.05452411 -0.12552236 -0.0152858235 -0.17178136 0.049731802
0.10099647 0.13014434 -0.05198404 -0.1505708 -0.054086585 -0.104124725 -0.034901544 0.16075185
-0.1555858 -0.15336524 0.14035664 0.09181923 -0.017442431 0.091585785 -0.002090978 0.06986755
0.04834052 -0.0022741344 0.037343793 0.12433151 0.10962015 0.100182 -0.018352672 -0.04259366
0.103915945 -0.09037352 0.11644996 0.07613823 -0.13395484 0.006276257 -0.075137 0.117497206
0.11521324 0.16384545 0.067694575 -0.0616289 -0.05328357 0.13285987 -0.009103499 -0.108178236
0.01818073 -0.10223071 -0.0054782294 -0.13882297 -0.14718278 -0.08564856 0.08833091 0.03263064
00000000: efd9 4cbd 7369 7a3d a4e8 8d3d 06a4 2bbd
00000010: ecbf c03c 153b a73d 5a72 f83d bb4d 38bd
00000020: fd72 1abd d29f 07bd ecda 1e3e f598 d7bd
00000030: 5860 f63c a3d6 07be 5d1f e6bd c85a d3bd
00000040: 4df2 103e a78d ffbd ad9a e73d 9f3c f1bd
00000050: 9d39 cdbd 6a5a 13bd de3b e0bd c6e4 8ebd
00000060: cf45 f63b 3480 f83c 3945 29bd 2949 9ebd
00000070: cbf9 9d3d 34f2 cabd 35cb 8a3d 164a 7bbd
00000080: f082 babd 820e 2b3d 61cb 203d 790b fabd
00000090: c698 023e 7288 a4bd add5 563b b70f 583c
000000a0: c6ed 153e 9e85 733c 4f97 183e d0e0 a53d
000000b0: e0c0 bbbd 0c2c 7e3d 86bf eebc 4192 a43c
000000c0: 3f50 fbbd f46e c83d 5f95 ce3d 048b 21be
000000d0: ba27 adbc 245f b73d fa4f cebb 7ec0 1e3e
000000e0: 0912 d4bc 0810 3dbe ce2e 8fbd 6bde 413e
000000f0: 70d9 37bd 50f7 f7bd d920 14be 79c6 15be
00000100: e7c7 843d 8811 153e 9674 813d bbf4 1bbe
00000110: 1fbe 113e 08e6 cf3d 9342 47bd 1c5b 7abc
00000120: 5868 d7bc 14f5 4fbd ffba 91bd 0054 aebd
00000130: 337b 26bd d755 d23d 7e7f 15bc 89d9 c63c
00000140: 2ce5 b9bd a0d8 983d e997 6fbd db25 9fb6
00000150: a3f6 cebd 3b50 203d 00f5 23be 2fde e93c
00000160: 3128 cebd 2247 a4bc 8271 0cbc 9edf 3e3e
00000170: f5f0 60bd db54 c23c f07b 333e ff16 da3a
00000180: d4d4 7fbd 4bcf 333d 5257 eabd e9d8 2b3e
00000190: d988 12bd d7d9 bfbd 7014 29be 8ee2 503d
000001a0: 9cf0 fe3d ab81 d7bd a476 a83d 827c 33be
000001b0: ca41 04bd b406 4f3d 7454 723d 12b9 56bd
000001c0: 932a 873d bc33 3a3e 9091 4cbe 74ba db3c
000001d0: ebe5 323e aae3 82bc 23a2 3c3d 94a7 26be
000001e0: 7d05 043d 58b5 773d bd92 b1bd cf7b 993d
000001f0: 089a a33d 6339 ef3d bd55 d8bd f7a1 c3bc
00000200: da80 1e3e 784b 203c 94be 8a3d 3ebd 0d3d
00000210: a39a 193c e9b3 3bbe f022 9bbd 9e3c ccbc
00000220: c1a9 8a3d 5f7d 8ebd e94e 00bd e200 8dbd
00000230: 2c7c c23d 3475 89bd b4c8 32bc 1eca 49be
00000240: ab1a fdbd 31a9 2bbe 7a6c 46bd a71b 9cbd
00000250: f613 29bd a9c3 04bd 5b82 01be a389 063d
00000260: 0b89 b1bd a194 5abb 07bf b2bd d2d5 08be
00000270: ee87 943d bf3a 77bd 7ea1 dfbd 519e 0dbc
00000280: da77 afbd 2013 32bd bb4c 513d 740c 4ebd
00000290: 5a73 d63d 4e1d a2bc 5fab 9cbd 2229 b0bd
000002a0: bfc4 e1bd 850e 11be a165 92bc 4724 df3d
000002b0: 988b b5bd c234 993d 0b53 383d 0a3c 8f3d
000002c0: 0ff1 063d 6d57 d7bd 4c7e cbbd 0364 8ebd
000002d0: b1bd a8bd 6c0a dcbd 9b1f 9e3d 7bb4 ae3d
000002e0: 8107 fabd eca2 fcbc 492b b8bd 5799 21be
000002f0: 0c29 b1bd a05c 273d 443a ba3d 0057 053c
00000300: 986e a3bd 3999 5c3d 926d 95bd d794 8ebd
00000310: 98f6 3c3d b95d 0b3c 6ab7 07be 6134 203e
00000320: 8db2 6bbd cae7 e73d 2d0a 91bd ac54 5f3d
00000330: ef88 00be 6471 7abc 74e7 2fbe 93b3 4b3d
00000340: 3dd7 ce3d 8f44 053e 37ed 54bd 3b2f 1abe
00000350: e589 5dbd 583f d5bd ecf4 0ebd 229c 243e
00000360: e251 1fbe c70b 1dbe a7b9 0f3e b80b bc3d
00000370: 6ee3 8ebc 5491 bb3d ca08 09bb b816 8f3d
00000380: b600 463d a509 15bb cef5 183d 85a1 fe3d
00000390: 8780 e03d 382c cd3d 5858 96bc b176 2ebd
000003a0: e2d1 d43d c115 b9bd 517d ee3d 5cee 9b3d
000003b0: 752b 09be 0fa9 cd3b 6de1 99bd 60a2 f03d
000003c0: ebf4 eb3d 1ac7 273e 74a3 8a3d 966e 7cbd
000003d0: df3f 5abd 6b0c 083e d826 15bc 8d8c ddbd
000003e0: c1ef 943c 565e d1bd b882 b3bb 9c27 0ebe
000003f0: 15b7 16be 8368 afbd d6e6 b43d b5a7 053d

gru.bias_ih_l0 f4 [150]
0.05804281 0.08720904 -0.10068657 0.09285563 -0.16390103 0.09756617 0.14159387 -0.09461363
-0.16511883 -0.12461618 0.060115058 -0.01635118 -0.022331487 -0.04299864 0.021038394 -0.033562325
0.038821965 -0.094278984 -0.051930413 0.035359677 -0.11971333 -0.06424125 0.010115408 0.039851602
0.07925415 0.00035851836 0.15313429 0.12772708 0.12891911 0.04463903 -0.042493783 -0.1157738
-0.022150269 -0.083562836 0.020620733 0.14983141 -0.0831781 0.1067257 -0.041729268 -0.07911619
0.094051145 0.14961137 -0.04319269 -0.14185458 0.110201664 0.15013471 0.028585084 -0.13913031
-0.14694 -0.032877453 -0.21846297 -0.10339539 -0.26628122 -0.071890526 -0.29290572 -0.071127005
-0.46975955 -0.2652338 -0.3081064 -0.21486287 -0.2775433 -0.23872328 -0.3721421 -0.30796233
-0.23764466 -0.27316436 -0.33826223 -0.15511213 -0.018745273 -0.35527492 -0.29279953 -0.11969132
-0.095209524 -0.13887148 -0.2570473 -0.5074599 -0.09856522 -0.15776287 -0.31437305 -0.28691724
-0.09894821 -0.020415869 0.0777192 -0.38869637 -0.19294398 -0.1438849 -0.21286678 -0.11833827
-0.05923605 -0.16708313 -0.008657294 -0.371972 -0.23245978 -0.07825545 -0.3951726 -0.114532866
-0.4107705 -0.43729892 -0.11573364 -0.15765335 -0.13265549 0.00786833 0.0166824 0.014706479
-0.074542224 -0.001345955 -0.122763544 0.09703692 0.082683735 -0.08491949 0.009375353 0.042575676
0.10057667 -0.008598056 0.058641274 -0.08115576 -0.07761199 0.05246698 -0.029221555 0.1266441
-0.11346041 0.03444922 -0.05136637 0.018112425 0.066658944 -0.0044141654 -0.011650486 -0.13233285
-0.10415394 -0.050688222 0.07359262 0.060345024 -0.0027392355 0.110436514 0.03213532 -0.013344039
0.12069549 0.06534986 0.085055605 -0.06705714 0.07813266 0.005545295 -0.1324396 -0.040849656
-0.027454294 -0.07125886 -0.0059992378 -0.10674238 0.015378558 -0.12172929
00000000: 4cbe 6d3d a79a b23d c334 cebd 182b be3d
00000010: acd5 27be c6d0 c73d fcfd 103e cac4 c1bd
00000020: e914 29be c536 ffbd 353b 763d e9f2 85bc
00000030: 86f0 b6bc 581f 30bd b658 ac3c a678 09bd
00000040: c803 1f3d 5715 c1bd fcb4 54bd 4fd5 103d
00000050: 432c f5bd eb90 83bd 19bb 253c 6f3b 233d
00000060: 0050 a23d 85f7 bb39 3ccf 1c3e e3ca 023e
00000070: 5f03 043e 6ad7 363d f60d 2ebd d01a edbd
00000080: 7b74 b5bc fe22 abbd d0ec a83c 686d 193e
00000090: 4859 aabd 0193 da3d 4fec 2abd ab07 a2bd
000000a0: e39d c03d b933 193e d1ea 30bd 5442 11be
000000b0: 69b1 e13d eabc 193e 442b ea3c 2d78 0ebe
000000c0: 7077 16be 82aa 06bd c2b4 5fbe f6c0 d3bd
000000d0: 0356 88be 573b 93bd bdf7 95be 09ab 91bd
000000e0: 5384 f0be bacc 87be 1fc0 9dbe 0305 5cbe
000000f0: 281a 8ebe e073 74be 6989 bebe 3dad 9dbe
00000100: 1f59 73be 33dc 8bbe b530 adbe b7d5 1ebe
00000110: b08f 99bc 98e6 b5be d2e9 95be b920 f5bd
00000120: 36fd c2bd 5334 0ebe b49b 83be e4e8 01bf
00000130: 90dc c9bd 978c 21be 81f5 a0be d1e6 92be
00000140: 5ca5 cabd 2e3f a7bc 3e2b 9f3d 3603 c7be
00000150: 1b93 45be 9056 13be c0f9 59be 565b f2bd
00000160: 80a1 72bd d717 2bbe 53d7 0dbc 1d73 bebe
00000170: f009 6ebe 6544 a0bd 1054 cabe 3590 eabd
00000180: 8350 d2be a5e5 dfbe c205 edbd e16f 21be
00000190: d7d6 07be 2bea 003c 87a9 883c 72f3 703c
000001a0: 98a9 98bd c16a b0ba 746b fbbd 4bbb c63d
000001b0: 1756 a93d 45ea adbd 159b 193c d563 2e3d
000001c0: 24fb cd3d dcde 0cbc d531 703d fe34 a6bd
000001d0: 09f3 9ebd 9ee7 563d 0b62 efbc feae 013e
000001e0: ee5d e8bd a01a 0d3d 8b65 52bd 8260 943c
000001f0: 7c84 883d b4a4 90bb aee1 3ebc 4382 07be
00000200: a94e d5bd 749e 4fbd bab7 963d 582c 773d
00000210: bf84 33bb 8a2c e23d 53a0 033d f5a0 5abc
00000220: 322f f73d 26d6 853d a231 ae3d 4155 89bd
00000230: 0404 a03d 4eb5 b53b 3f9e 07be f851 27bd
00000240: d4e7 e0bc 2af0 91bd 4195 c4bb c09b dabd
00000250: 59f6 7b3c 354d f9bd

gru.bias_hh_l0 f4 [150]
0.06073549 -0.05707162 0.13721123 -0.1174882 -0.1433945 0.11013399 0.10752237 -0.011058148
-0.17331028 0.09922335 -0.07521346 -0.008486753 0.030669376 -0.13063997 -0.009382595 -0.017582912
-0.0085973395 0.09124993 -0.16572082 -0.13223243 0.08942361 0.12740731 -0.0579501 -0.032063846
0.119641915 -0.14677568 0.028287606 -0.103205316 -0.078095354 0.0718036 -0.036839265 -0.040756907
-0.046241477 0.08703599 -0.11382619 -0.08424668 -0.11940119 -0.034646913 -0.029125005 0.0681486
0.004661968 -0.123567976 0.045786258 -0.07083554 0.0018207458 0.044621818 0.09816981 0.07749623
0.03965404 -0.10276135 -0.35944882 -0.2593137 -0.24942428 -0.27927893 -0.2991939 -0.08049305
-0.4973587 -0.2270022 -0.49528736 -0.08719801 -0.21266311 -0.47671804 -0.24259575 -0.23644753
-0.21103057 -0.20280188 -0.21986361 -0.20903568 -0.15326859 -0.3171462 -0.33505633 -0.087904856
-0.15231231 -0.112556525 -0.11158347 -0.45638624 -0.35796353 -0.23193951 -0.35998017 -0.36465725
-0.11952391 0.1897002 0.19350883 -0.2930821 -0.26559344 -0.29349574 -0.13560939 -0.15055747
-0.075741656 -0.3015625 -0.12323016 -0.22965905 -0.13805996 -0.10636403 -0.3021209 -0.17806695
-0.3759969 -0.18135723 -0.33699188 -0.26995203 0.032798298 -0.047461156 -0.0037393535 -0.08205617
0.084598854 0.0435654 0.010128137 -0.06799901 0.0032746955 0.05272698 0.07679593 0.079016104
-0.06673575 -0.09451532 -0.0058243577 0.12421548 0.092984974 0.1199603 -0.0540963 -0.023355976
-0.09004092 -0.080199756 -0.07948122 -0.057855986 -0.0367904 -0.053802997 0.06576839 0.108978435
0.092361696 0.05705537 -0.13330352 0.1218236 -0.026608652 0.09653786 -0.06806705 -0.0020285295
0.041100018 0.08115993 -0.02868054 -0.13111132 0.05392571 -0.097464986 -0.07184259 -0.09336952
0.11816251 -0.10691741 0.07163489 -0.1130301 0.06503566 -0.030669846
00000000: c7c5 783d eec3 69bd 1a81 0c3e a79d f0bd
00000010: 02d6 12be ee8d e13d b034 dc3d 3c2d 35bc
00000020: 4078 31be 9d35 cb3d 8409 9abd 060c 0bbc
00000030: 583e fb3c 7cc6 05be 75b9 19bc 0a0a 90bc
00000040: dbdb 0cbc 3ee1 ba3d b8b2 29be f067 07be
00000050: ba23 b73d 1077 023e 165d 6dbd 6155 03bd
00000060: d206 f53d 5d4c 16be 69bb e73c 4f5d d3bd
00000070: 75f0 9fbd c40d 933d c5e4 16bd b7f0 26bd
00000080: b467 3dbd ed3f b23d b51d e9bd 8689 acbd
00000090: 9c88 f4bd ece9 0dbd 9097 eebc 7e91 8b3d
000000a0: 6cc3 983b 3511 fdbd 5f8a 3b3d 3912 91bd
000000b0: 17a6 ee3a 5ec5 363d 410d c93d 58b6 9e3d
000000c0: 466c 223d 8b74 d2bd ad09 b8be c4c4 84be
000000d0: 1469 7fbe a6fd 8ebe f12f 99be 8ad9 a4bd
000000e0: cda5 febe 4473 68be 4e96 fdbe df94 b2bd
000000f0: 5cc4 59be 6314 f4be 056b 78be 4d1f 72be
00000100: 6618 58be 4cab 4fbe ed23 61be 730d 56be
00000110: 71f2 1cbe fd60 a2be 818c abbe 7607 b4bd
00000120: c2f7 1bbe 0984 e6bd e085 e4bd 75ab e9be
00000130: ff46 b7be 8d81 6dbe 524f b8be 5bb4 babe
00000140: f4c8 f4bd c540 423e 2e27 463e db0e 96be
00000150: ddfb 87be 1345 96be 30dd 0abe bd2b 1abe
00000160: 711e 9bbd 6666 9abe 1860 fcbd be2b 6bbe
00000170: 975f 0dbe 62d5 d9bd 97af 9abe 2f57 36be
00000180: aa82 c0be b6b5 39be 338a acbe 2737 8abe
00000190: 8257 063d a166 42bd f10f 75bb 110d a8bd
000001a0: 2a42 ad3d a271 323d 7cf0 253c 1143 8bbd
000001b0: 469c 563b 3ff8 573d 2f47 9d3d 32d3 a13d
000001c0: c1ac 88bd 4091 c1bd 41da bebb b064 fe3d
000001d0: e86e be3d bfad f53d 1594 5dbd 0855 bfbc
000001e0: 6067 b8bd c53f a4bd 0dc7 a2bd 66fa 6cbd
000001f0: 88b1 16bd 8860 5cbd 94b1 863d 1630 df3d
00000200: 2128 bd3d e4b2 693d b880 08be a77e f93d
00000210: 63fa d9bc a4b5 c53d bd66 8bbd 14f1 04bb
00000220: 7e58 283d 2d37 a63d 74f3 eabc 0c42 06be
00000230: 35e1 5c3d b99b c7bd 3522 93bd 8538 bfbd
00000240: 30ff f13d 84f7 dabd 50b5 923d 537c e7bd
00000250: 6b31 853d 543f fbbc

gru.weight_ih_l1 f4 [150, 50]
-0.23893468 0.101837635 0.047394738 0.07805331 -0.050018907 -0.07599366 -0.14271456 0.20801817
0.10044055 -0.06808367 -0.1580386 0.14800458 0.13247569 0.06731037 0.18484983 -0.07208852
-0.14690405 0.06320882 0.14771935 -0.05714689 -0.018224886 -0.203947 0.023317935 -0.19577089
-0.2132579 0.0049978425 0.096156985 -0.08992836 -0.21428367 -0.0031268375 0.041880768 0.038445715
-0.18069468 0.117900595 0.14533685 0.10068541 0.0729428 -0.06268828 0.028076736 0.18323372
-0.041306548 0.0058806865 0.09616413 0.106442414 0.030840779 -4.9685346e-05 0.0017064825 -0.016450478
0.08297803 -0.076529205 -0.05765806 -0.122522555 -0.11024427 -0.123628266 -0.02250746 0.07973995
0.0015689121 -0.03723649 0.03258414 0.025901467 -0.009638152 0.05282502 -0.13086827 -0.096394256
0.012087605 0.036729142 0.011275568 -0.11562225 -0.027206067 0.09860005 0.057809874 0.13532105
-0.035122298 0.15291385 0.019470885 -0.0070108273 -0.08439706 -0.01794156 0.17163283 -0.004358191
0.13970613 0.031610567 0.082422785 -0.109479055 -0.064446 -0.051880892 -0.029385937 -0.09108875
0.12650211 0.011841543 -0.0070483396 0.0913615 0.061650947 -0.13284351 0.01659313 0.0021701658
0.04659326 -0.101004094 -0.09419709 0.05994796 -0.08376592 0.08354051 -0.028383318 -0.04613359
0.01806104 0.032747842 -0.24177162 -0.016031008 0.13817152 0.12566093 -0.20262593 0.13932241
0.06865178 -0.0057685357 0.20237128 -0.01836984 -0.03207394 0.08772836 0.13331477 0.1295473
-0.004750311 -0.12066462 -0.0041972073 -0.13065659 -0.17972158 0.04116981 0.04947945 -0.014494761
-0.19503695 -0.14284952 -0.012146607 0.097010985 0.049044997 -0.029114962 0.13513197 -0.0049464535
-0.12516382 0.103164285 -0.046742342 0.020900566 -0.12434239 -0.056939665 0.12488621 0.1124854
0.04175625 -0.024108473 0.066337235 0.02015965 0.22451186 -0.111903355 0.081304654 0.061608292
-0.108589485 -0.13787466 0.17178388 0.06374987 0.006003869 0.103464864 0.048851628 0.14486209
0.116012156 -0.042310417 0.07286393 0.11691659 -0.015437151 0.088710606 0.10193894 -0.0076012355
0.008190742 0.11014082 -0.10621202 0.15059488 0.026880091 0.07001752 0.010155484 0.12121853
-0.15620607 -0.013595001 0.12276768 0.15069015 0.056789942 -0.0045349 0.073423326 0.035229098
-0.081691734 -0.022972466 0.018429872 0.06165741 -0.07410851 -0.037196584 -0.07711763 -0.045547877
0.119261816 0.024819702 -0.066283494 0.113957696 -0.049313433 -0.12498862 -0.08065637 -0.10784804
0.13571872 -0.052063014 -0.09655147 -0.11710748 0.052541435 -0.097787276 -0.04305649 -0.10864314
-0.03675902 0.12005398 0.050842103 0.09593418 -0.0719034 0.121703684 -0.0013480657 0.046560585
-0.07314525 -0.03356556 -0.12044523 -0.074258685 -0.03590325 -0.10395211 0.07493791 -0.0934443
-0.052432895 0.050241675 -0.11602705 -0.05386117 -0.106847376 -0.036556274 -0.13437934 0.08966139
0.11727286 -0.07133807 -0.15254347 -0.0059947404 -0.13192454 0.0075563947 -0.093739256 -0.08790024
0.09787547 0.13050136 -0.0010992445 0.033919845 0.07275606 0.0067754067 -0.038969494 0.03310515
-0.086034656 0.11301573 0.13596769 -0.06567964 0.0063043004 -0.11532718 -0.0072673997 -0.08838572
00000000: 4bab 74be 4090 d03d fc20 423d 6ada 9f3d
00000010: a0e0 4cbd 90a2 9bbd c423 12be b702 553e
00000020: c6b3 cd3d 746f 8bbd dfd4 21be 838e 173e
00000030: b5a7 073e 05da 893d 4649 3d3e 25a3 93bd
00000040: 046e 16be a073 813d be43 173e db12 6abd
00000050: 5b4c 95bc 7bd7 50be 4105 bf3c 2a78 48be
00000060: 4760 5abe f1c4 a33b f4ed c43d 5c2c b8bd
00000070: 2e6d 5bbe a1eb 4cbb 2b8b 2b3d 4179 1d3d
00000080: 0708 39be de75 f13d 2fd3 143e 2734 ce3d
00000090: 0963 953d b762 80bd 2f01 e63c 9fa1 3b3e
000000a0: 0e31 29bd c6b2 c03b b3f1 c43d 7bfe d93d
000000b0: cda5 fc3c 3c65 50b8 0dac df3a 27c3 86bc
000000c0: 63f0 a93d 58bb 9cbd dc2a 6cbd 1bed fabd
000000d0: bfc7 e1bd d130 fdbd 9161 b8bc b34e a33d
000000e0: f4a3 cd3a 4a85 18bd f276 053d 502f d43c
000000f0: 57e9 1dbc 0c5f 583d 5502 06be 5a6a c5bd
00000100: 170b 463c 4c71 163d 29bd 383c 5ccb ecbd
00000110: 42df debc d3ee c93d 0cca 6c3d 9a91 0a3e
00000120: 66dc 0fbd 7395 1c3e 6881 9f3c 15bb e5bb
00000130: 5ed8 acbd 2efa 92bc 84c0 2f3e 28cf 8ebb
00000140: 200f 0f3e 157a 013d 47cd a83d 8e36 e0bd
00000150: 44fc 83bd 0f81 54bd c7ba f0bc bd8c babd
00000160: c589 013e 0803 423c c2f5 e6bb bd1b bb3d
00000170: b485 7c3d 2108 08be 51ee 873c 5739 0e3b
00000180: 93d8 3e3d 3cdb cebd 67ea c0bd fe8b 753d
00000190: 778d abbd 4917 ab3d 2284 e8bc 93f6 3cbd
000001a0: bff4 933c 9a22 063d fb92 77be 7653 83bc
000001b0: d67c 0d3e 42ad 003e 2c7d 4fbe 89aa 0e3e
000001c0: 4e99 8c3d fc05 bdbb 6b3a 4f3e 597c 96bc
000001d0: f75f 03bd edaa b33d ab83 083e 0ca8 043e
000001e0: 7fa8 9bbb 031f f7bd ba88 89bb d7ca 05be
000001f0: ef08 38be ada1 283d f7aa 4a3d 6f7b 6dbc
00000200: c4b7 47be 2547 12be 9002 47bc b2ad c63d
00000210: 68e3 483d 8082 eebc 0960 0a3e dc15 a2bb
00000220: f22a 00be cc47 d33d e674 3fbd aa37 ab3c
00000230: 39a7 febd 9139 69bd 57c4 ff3d bf5e e63d
00000240: 9a08 2b3d 227f c5bc d1db 873d da25 a53c
00000250: 70e6 653e 962d e5bd 0e83 a63d fa58 7c3d
00000260: 2a64 debd 042f 0dbe 1de8 2f3e 4b8f 823d
00000270: 1bbc c43b 63e5 d33d a518 483d ba56 143e
00000280: c897 ed3d b04d 2dbd af39 953d f771 ef3d
00000290: 1bec 7cbc e8ad b53d 5dc5 d03d c913 f9bb
000002a0: 7632 063c 8391 e13d b085 d9bd 8b35 1a3e
000002b0: a333 dc3c 5865 8f3d 3063 263c 6c41 f83d
000002c0: 7cf4 1fbe 91bd 5ebc 9f6d fb3d 854e 1a3e
000002d0: 929c 683d 8099 94bb f85e 963d 634c 103d
000002e0: ff4d a7bd c130 bcbc 3efa 963c 7b8c 7c3d
000002f0: 34c6 97bd 725b 18bd d9ef 9dbd 6990 3abd
00000300: 8a3f f43d b052 cb3c a4bf 87bd a762 e93d
00000310: e2fc 49bd 09fa ffbd 2b2f a5bd 6fdf dcbd
00000320: d9f9 0a3e 0740 55bd c7bc c5bd 0cd6 efbd
00000330: b035 573d b244 c8bd 015c 30bd 4b80 debd
00000340: a090 16bd dcde f53d cf3f 503d 2479 c43d
00000350: 1742 93bd c83f f93d 94b1 b0ba 50b6 3e3d
00000360: 2dcd 95bd 0a7c 09bd fdab f6bd f014 98bd
00000370: 490f 13bd d8e4 d4bd 0c79 993d ba5f bfbd
00000380: e0c3 56bd 37ca 4d3d 979f edbd 889d 5cbd
00000390: ccd2 dabd 08bc 15bd bd9a 09be 64a0 b73d
000003a0: c12c f03d b219 92bd 5b34 1cbe 876f c4bb
000003b0: 3a17 07be a29b f73b 5efa bfbd 0b05 b4bd
000003c0: ef72 c83d 26a2 053e 8614 90ba 89ef 0a3d
000003d0: 2101 953d 3b04 de3b 7a9e 1fbd 4499 073d
000003e0: f032 b0bd cb74 e73d 1d3b 0b3e 0c83 86bd
000003f0: 4e94 ce3b a830 ecbd 5e23 eebb 9303 b5bd

gru.weight_hh_l1 f4 [150, 50]
0.08833736 0.08270907 -0.08871448 0.014959224 0.1400846 -0.1348068 0.11448705 0.07984174
-0.11567521 -0.12909915 0.14475852 0.01812558 0.07525933 0.08766702 -0.1110096 0.00651513
-0.013523665 -0.009341978 -0.024312554 0.003963956 -0.13341215 -0.13548827 0.030897582 -0.13084742
-0.1407216 -0.15846549 0.119098835 0.10832332 -0.14647497 0.06958761 -0.068295665 -0.1098125
0.0009753817 0.12707165 -0.16144072 0.090564266 0.06574205 0.041479778 -0.111724965 -0.11883636
-0.056781646 0.024703117 0.011139374 0.06796509 -0.09804973 0.06523966 -0.06232187 -0.12907131
-0.09667216 -0.04935574 -0.10610329 -0.13821828 -0.04136622 -0.10466671 -0.0076020067 -0.023570077
0.11669094 -0.0597237 0.07647199 0.029569728 -0.039665345 0.053220548 -0.09725503 0.13764139
-0.11473609 -0.008215422 -0.15387315 0.11010232 0.00010950904 -0.044432476 -0.0940506 0.1377565
-0.10887874 -0.07895055 -0.098040186 -0.14551322 0.042154193 0.07523572 -0.13956684 0.0068875067
-0.030809507 -0.09980911 -0.062073022 0.027077204 0.012434966 0.07283619 -0.1288144 0.034597255
-0.111401096 0.060106054 -0.111499 0.019103281 -0.12335081 -0.063782066 -0.107337065 0.1065075
-0.0021977292 0.026599905 -0.08151316 -0.006315964 -0.057151783 0.06188249 0.04053117 -0.12601383
-0.008507604 0.07992188 0.108978234 -0.045898236 -0.100159876 -0.11214497 -0.038563713 -0.116491936
0.1529834 0.083482504 -0.04754269 -0.0062401523 0.033706386 0.1613879 -0.11420713 -0.008494309
-0.038047712 -0.07303397 0.030858515 0.064306036 0.10003696 0.09760187 0.057786196 -0.15253665
0.10574098 -0.10882548 0.100834355 0.104728915 0.08784033 0.040785205 -0.1346205 0.114837795
-0.058502257 0.098627135 -0.12692155 0.11476815 0.08353621 0.04704361 -0.078466095 0.05240376
-0.13644531 -0.023166636 0.034882065 0.11607244 -0.015833743 0.03397898 0.015971305 -0.1349326
-0.0027222838 0.008241637 -0.051349062 0.011394931 -0.037482765 0.057266485 0.14673811 0.11660926
-0.12290607 0.104433656 -0.06201988 -0.029595405 0.13161366 0.1273248 -0.08766629 0.016923549
0.07917689 0.13414992 -0.048865 0.029659083 -0.13877122 -0.072282575 0.075506166 0.044014543
-0.009837809 -0.112445086 -0.12390082 0.009262873 -0.032855906 -0.009367865 0.0012915088 -0.057922296
0.12184438 -0.0025808571 -0.046039328 0.018751806 -0.13888694 0.13292708 -0.06689405 0.011155374
-0.09762277 0.068168335 -0.11631384 -0.042892154 -0.06053099 -0.041297298 -0.13249974 -0.11706918
0.13270135 0.04061403 0.0031656593 7.768018e-06 0.06908153 0.03510198 -0.070417084 0.10328389
-0.025113354 -0.07573154 0.13480163 0.10335716 0.08471897 -0.039651584 0.10782997 0.002868417
-0.1201813 -0.117730215 -0.12429537 0.051156543 0.0606514 -0.08914089 -0.06984894 -0.10694617
-0.015424702 0.0230775 -0.08791626 0.038013205 -0.1081204 0.033089608 -0.01945009 -0.055451766
0.04523209 -0.1113192 -0.0152175445 -0.048890006 -0.04476476 0.100448325 0.025182677 0.13103203
-0.063131966 -0.10094836 -0.040392604 -0.13254534 -0.026475929 -0.06944379 -0.13080405 0.109963164
0.10215318 0.008473192 -0.000673036 -0.04331528 -0.11286931 -0.030920489 0.008257554 0.1046367
00000000: 38ea b43d 5f63 a93d f0af b5bd 8817 753c
00000010: 5672 0f3e cb0a 0abe 3078 ea3d 1184 a33d
00000020: 20e7 ecbd 9132 04be 943b 143e 197c 943c
00000030: 9021 9a3d c48a b33d 0059 e3bd df7c d53b
00000040: 5d92 5dbc 180f 19bc 1f2b c7bc 13e4 813b
00000050: 329d 08be 70bd 0abe ed1c fd3c defc 05be
00000060: 5319 10be c744 22be 17ea f33d 9ed8 dd3d
00000070: 89fd 15be f383 8e3d 99de 8bbd 60e5 e0bd
00000080: c2b0 7f3a 121f 023e b750 25be c279 b93d
00000090: c5a3 863d b3e6 293d 0fd0 e4bd 7a60 f3bd
000000a0: df93 68bd 315e ca3c ec81 363c 4831 8b3d
000000b0: 4cce c8bd 5f9c 853d 3845 7fbd 452b 04be
000000c0: 0efc c5bd 3f29 4abd af4c d9bd 1889 0dbe
000000d0: a06f 29bd 805b d6bd 411a f9bb 0916 c1bc
000000e0: a9fb ee3d d7a0 74bd 599d 9c3d 373c f23c
000000f0: 2178 22bd cafd 593d a52d c7bd ddf1 0c3e
00000100: c1fa eabd fa99 06bc ec90 1dbe 537d e13d
00000110: 38a8 e538 d4fe 35bd 9a9d c0bd 0a10 0d3e
00000120: d1fb debd d3b0 a1bd 4bc9 c8bd 6b01 15be
00000130: e0a9 2c3d 2f15 9a3d 9cea 0ebe 98b0 e13b
00000140: 3864 fcbc b868 ccbd 4840 7ebd 03d1 dd3c
00000150: 07bc 4b3c 242b 953d ece7 03be dab5 0d3d
00000160: 4226 e4bd c431 763d 9659 e4bd 7c7e 9c3c
00000170: 599f fcbd 2ca0 82bd 89d3 dbbd 9b20 da3d
00000180: c707 10bb 0be8 d93c 5ff0 a6bd 25f6 cebb
00000190: fd17 6abd 7e78 7d3d 0304 263d c509 01be
000001a0: 7a63 0bbc 15ae a33d fb2f df3d caff 3bbd
000001b0: 9f20 cdbd 43ac e5bd fcf4 1dbd 5393 eebd
000001c0: aea7 1c3e e0f8 aa3d 20bc 42bd 317a ccbb
000001d0: b50f 0a3d df42 253e 6ee5 e9bd b72b 0bbc
000001e0: ebd7 1bbd d692 95bd ffca fc3c e2b2 833d
000001f0: 2de0 cc3d 7de3 c73d 38b1 6c3d 9132 1cbe
00000200: ba8e d83d e5df debd 3e82 ce3d 1d7c d63d
00000210: a2e5 b33d 630e 273d f5d9 09be 1430 eb3d
00000220: 10a0 6fbd 06fd c93d b9f7 01be 900b eb3d
00000230: 0815 ab3d cdb0 403d d5b2 a0bd 53a5 563d
00000240: 52b8 0bbe f5c7 bdbc 7fe0 0e3d 63b7 ed3d
00000250: c4b5 81bc 8b2d 0b3d 41d6 823c c62b 0abe
00000260: 5868 32bb ee07 073c 6553 52bd ceb1 3a3c
00000270: 8787 19bd 4390 6a3d 8442 163e d6d0 ee3d
00000280: 2db6 fbbd 50e1 d53d 8f08 7ebd 1072 f2bc
00000290: bbc5 063e 6f61 023e 628a b3bd 41a3 8a3c
000002a0: 7e27 a23d 995e 093e ab26 48bd 9bf7 f23c
000002b0: 0b1a 0ebe e308 94bd faa2 9a3d 9848 343d
000002c0: c32e 21bc 9c49 e6bd b7bf fdbd 4ec3 173c
000002d0: ea93 06bd ac7b 19bc d847 a93a ee3f 6dbd
000002e0: 8c89 f93d 9923 29bb bc93 3cbd 639d 993c
000002f0: 6138 0ebe 091e 083e bfff 88bd 08c5 363c
00000300: 72ee c7bd d79b 8b3d f335 eebd afaf 2fbd
00000310: 58ef 77bd 5b27 29bd 03ae 07be f7c1 efbd
00000320: dde2 073e e65a 263d f376 4f3b 6253 0237
00000330: 9e7a 8d3d 18c7 0f3d d536 90bd 8186 d33d
00000340: 85ba cdbc 2319 9bbd 7009 0a3e ebac d33d
00000350: 2481 ad3d b369 22bd f6d5 dc3d 0dfc 3b3b
00000360: 9d21 f6bd 8a1c f1bd 928e febd 8689 513d
00000370: 9a6d 783d 808f b6bd f60c 8fbd 9806 dbbd
00000380: e4b7 7cbc 060d bd3c 710d b4bd bcb3 1b3d
00000390: 3a6e ddbd f888 073d cc55 9fbc 6421 63bd
000003a0: 4945 393d 52fb e3bd 0253 79bc e340 48bd
000003b0: 415b 37bd dab7 cd3d e74b ce3c 432d 063e
000003c0: 554b 81bd 04be cebd b772 25bd f7b9 07be
000003d0: 0ce4 d8bc 8c38 8ebd 7ff1 05be 5e34 e13d
000003e0: b035 d13d 25d3 0a3c ae6e 30ba 5d6b 31bd
000003f0: 0628 e7bd f74c fdbc b14a 073c c44b d63d

gru.bias_ih_l1 f4 [150]
0.031064892 -0.052250568 0.118300006 -0.04764857 0.0052098096 0.026596237 -0.06407477 -0.081793755
-0.0067766644 0.052768733 0.023138493 0.027596973 0.00029925973 0.14714006 -0.09641451 -0.003985713
-0.104452446 -0.16723025 -0.11556137 0.06518267 -0.02297542 -0.09811186 0.055107284 0.038946357
-0.08854263 -0.032630462 -0.045906145 -0.015498901 0.07555514 0.012878665 -0.032595072 -0.03581427
-0.07680136 -0.10556714 -0.035177823 -0.08903697 -0.049187742 -0.1389173 0.017230837 0.06315495
0.062158484 -0.0676448 0.07804577 -0.053647008 0.093524836 -0.1491391 0.100574106 -0.05255911
0.061428066 -0.051802356 -0.25159165 -0.013216188 -0.26195446 -0.33798608 0.07095259 -0.31747895
-0.24267748 -0.14835657 -0.17459774 -0.20528887 -0.3193899 -0.1613371 -0.1997488 -0.18438835
-0.3253563 -0.18631373 -0.39221773 -0.057064503 -0.30403352 -0.15402329 -0.3212556 -0.16095637
-0.073451 -0.25346652 -0.2354907 -0.33892477 -0.17809136 -0.0675066 -0.32022685 -0.27140597
-0.12410171 -0.07193159 -0.14994177 -0.20743005 -0.30976513 -0.3750727 -0.32902747 -0.10683597
-0.029657438 -0.2890428 -0.18680172 -0.27826792 -0.331779 -0.30578414 -0.17548335 -0.27939492
-0.034557786 -0.24545427 -0.3525437 -0.21653205 -0.04446118 -0.024058908 -0.11151098 -0.064746596
-0.10690254 -0.028668433 0.0013395753 -0.00015932521 0.03993146 0.08116279 0.10175723 -0.021199694
-0.0138720665 0.06628372 0.11275572 -0.12971851 -0.07875696 -0.1094261 0.021303955 -0.08606667
0.13771626 0.0155629115 -0.018209588 0.00720802 0.0864441 0.07194224 0.066146225 0.10417972
-0.09366499 -0.047038138 0.1249841 0.10943483 -0.088691756 -0.07165288 0.07371751 -0.06132405
0.052351817 0.014947629 -0.038920667 -0.0017911398 0.096119 0.013314776 -0.018241972 0.044423327
-0.09876609 -0.018005388 0.10287087 -0.058039453 -0.14589028 0.0056093987
00000000: cd7b fe3c b104 56bd 4647 f23d 262b 43bd
00000010: 0db7 aa3b 5ae0 d93c a239 83bd 7c83 a7bd
00000020: c80e debb 0724 583d f08c bd3c 0c13 e23c
00000030: f6e5 9c39 e2ab 163e f874 c5bd 959a 82bb
00000040: 2aeb d5bd 683e 2bbe 71ab ecbd 7e7e 853d
00000050: f336 bcbc dfee c8bd 2db8 613d 3786 1f3d
00000060: d755 b5bd 85a7 05bd 1508 3cbd 1aef 7dbc
00000070: a7bc 9a3d 0901 533c 6982 05bd fcb1 12bd
00000080: 084a 9dbd 9633 d8bd 9f16 10bd 0459 b6bd
00000090: 1679 49bd 5640 0ebe af27 8d3c 6257 813d
000000a0: e599 7e3d 5b89 8abd 76d6 9f3d f7bc 5bbd
000000b0: f389 bf3d ecb7 18be ccf9 cd3d 3948 57bd
000000c0: ff9b 7b3d b52e 54bd 9fd0 80be b688 58bc
000000d0: e51e 86be 830c adbe 974f 913d 9a8c a2be
000000e0: 7280 78be c9ea 17be c0c9 32be 3f37 52be
000000f0: 1387 a3be 8e35 25be f38a 4cbe 4dd0 3cbe
00000100: 1a95 a6be 07c9 3ebe c3d0 c8be 78bc 69bd
00000110: 48aa 9bbe 48b8 1dbe 9d7b a4be bfd1 24be
00000120: 7a6d 96bd 5dc6 81be 7924 71be 8c87 adbe
00000130: 955d 36be e640 8abd c6f4 a3be b9f5 8abe
00000140: 0a29 febd df50 93bd 568a 19be 8b68 54be
00000150: 8999 9ebe 8709 c0be 4a76 a8be d1cc dabd
00000160: 28f4 f2bc 6bfd 93be f348 3fbe 2279 8ebe
00000170: f0de a9be bd8f 9cbe e8b1 33be da0c 8fbe
00000180: 778c 0dbd 5d58 7bbe 9c80 b4be 94ba 5dbe
00000190: ed1c 36bd 3017 c5bc de5f e4bd dd99 84bd
000001a0: b8ef dabd 10da eabc b094 af3a 8910 27b9
000001b0: 2c8f 233d ad38 a63d 1866 d03d fbaa adbc
000001c0: aa47 63bc c2bf 873d 79ec e63d eed4 04be
000001d0: 544b a1bd cb1a e0bd a285 ae3c b943 b0bd
000001e0: 7e05 0d3e 95fb 7e3c 462c 95bc 4131 ec3b
000001f0: 9b09 b13d 7456 933d ac77 873d 2d5c d53d
00000200: 6ed3 bfbd 10ab 40bd aaf7 ff3d 5e1f e03d
00000210: 06a4 b5bd bfbe 92bd 35f9 963d ed2e 7bbd
00000220: dc6e 563d e6e6 743c 476b 1fbd aec4 eaba
00000230: 0ada c43d 3826 5a3c 3070 95bc 3cf5 353d
00000240: e045 cabd 0980 93bc f6ad d23d c7ba 6dbd
00000250: 4364 15be 0ccf b73b

gru.bias_hh_l1 f4 [150]
-0.07753424 -0.025458485 -0.14313602 -0.11185351 0.045747872 -0.053324096 0.128323 -0.11050999
0.0856227 0.103695236 0.0052998005 -0.0075375014 0.102811515 -0.029412813 -0.02942197 -0.09133239
-0.042447537 -0.10452886 0.04429902 0.009432552 -0.06916142 0.12099268 -0.042114872 -0.08059891
-0.022007294 0.08666799 0.06995677 -0.024178393 0.05963993 -0.082979575 0.12363158 -0.13032846
-0.041780993 -0.011200446 -0.047575325 -0.013496032 0.09020469 -0.12065493 0.023671266 0.030467859
0.0141588105 -0.13223204 -0.10967565 0.1437248 0.08184982 0.031308204 0.00923812 0.05000081
0.08412276 -0.05015119 -0.25671825 -0.22232303 -0.4221446 -0.15612376 0.15974061 -0.27524456
-0.25558367 -0.02603591 -0.38096654 -0.21791163 -0.26975122 -0.20229357 -0.29984695 -0.16833049
-0.32524544 -0.31873342 -0.5015228 -0.294506 -0.3351372 -0.11665128 -0.1745856 -0.29093575
-0.26841867 -0.26552865 -0.505192 -0.20387578 -0.23402958 -0.24507539 -0.29364905 -0.19669886
-0.34279862 -0.04298895 -0.18373664 -0.3203847 -0.2688403 -0.13391234 -0.22088924 -0.19314915
0.12365184 -0.111918636 -0.1999555 -0.05757243 -0.38726288 -0.2891319 -0.13819562 -0.17138933
-0.15367779 -0.18839335 -0.17790116 -0.3491633 -0.03814567 0.13581665 0.087699085 -0.03739045
-0.009904057 -0.066505596 -0.09074385 0.065889955 0.09182638 -0.03155835 0.102521606 0.017723551
-0.11373703 0.009659567 -0.025599975 0.09667264 0.0930987 -0.04666528 -0.07073596 0.054797553
-0.111351356 0.13851905 0.06314282 -0.06452906 0.051581994 0.00473409 -0.024656927 -0.10544395
0.040273864 0.08023359 -0.047922436 0.05395787 -0.09773412 -0.07391164 0.13615413 -0.12971961
-0.03418597 -0.06704901 0.1190975 0.0965542 -0.09610254 0.12810957 0.1391072 0.12235562
0.10951689 0.12675653 0.0384954 0.07686865 0.04779431 -0.08234278
00000000: 46ca 9ebd 508e d0bc 4092 12be 7413 e5bd
00000010: 1f62 3b3d 5e6a 5abd 1b67 033e 1053 e2bd
00000020: f45a af3d 2b5e d43d f3a9 ad3b 25fd f6bb
00000030: d88e d23d 24f3 f0bc 5806 f1bc 7a0c bbbd
00000040: 78dd 2dbd 3a13 d6bd e472 353d fe8a 1a3c
00000050: 81a4 8dbd 03cb f73d a580 2cbd 0b11 a5bd
00000060: a448 b4bc fd7e b13d 7f45 8f3d c411 c6bc
00000070: 0049 743d 32f1 a9bd 8e32 fd3d d374 05be
00000080: 8c22 2bbd 1382 37bc 58de 42bd 761e 5dbc
00000090: 3dbd b83d ef19 f7bd 3eea c13c bb97 f93c
000000a0: 5bfa 673c d667 07be a19d e0bd 982c 133e
000000b0: e1a0 a73d 083d 003d 7c5b 173c a6cd 4c3d
000000c0: 8e48 ac3d 566b 4dbd 9370 83be a6a8 63be
000000d0: 5623 d8be e8de 1fbe 0b93 233e dbec 8cbe
000000e0: dddb 82be 4349 d5bc 0c0e c3be 3a24 5fbe
000000f0: d51c 8abe 0c26 4fbe 8a85 99be d45e 2cbe
00000100: 9286 a6be 0731 a3be cc63 00bf 7ec9 96be
00000110: 1a97 abbe dee6 eebd 91c6 32be 88f5 94be
00000120: 2c6e 89be 5ff3 87be 4354 01bf d0c4 50be
00000130: 73a5 6fbe 0bf5 7abe 2b59 96be 6d6b 49be
00000140: 4d83 afbe 2e15 30bd 7525 3cbe 7709 a4be
00000150: 70a5 89be 5120 09be ca30 62be e4c8 45be
00000160: 2d3d fd3d 9935 e5bd 22c1 4cbe 12d1 6bbd
00000170: 5247 c6be 1909 94be 2783 0dbe af80 2fbe
00000180: b65d 1dbe 30ea 40be b92b 36be 88c5 b2be
00000190: a23e 1cbd 8513 0b3e 949b b33d ba26 19bd
000001a0: a044 22bc 1634 88bd e9d7 b9bd 50f1 863d
000001b0: 780f bc3d 5443 01bd d9f6 d13d fb30 913c
000001c0: f6ee e8bd 2943 1e3c 0ab7 d1bc 4efc c53d
000001d0: 88aa be3d 1824 3fbd 04de 90bd 6673 603d
000001e0: 2e0c e4bd f0d7 0d3e 0651 813d d027 84bd
000001f0: a447 533d 6d20 9b3b 53fd c9bc fff2 d7bd
00000200: 35f6 243d 8251 a43d 514a 44bd ed02 5d3d
00000210: d428 c8bd fc5e 97bd fd6b 0b3e 38d5 04be
00000220: 9606 0cbd fe50 89bd 64e9 f33d 35be c53d
00000230: 69d1 c4bd 282f 033e 1e72 0e3e 9595 fa3d
00000240: 644a e03d 77cc 013e 5aad 1d3d 506d 9d3d
00000250: f7c3 433d 55a3 a8bd

fc.weight f4 [1, 50]
-0.046405558 0.00760775 -0.14412369 -0.04043696 0.015383047 0.07049783 -0.11972568 0.03140955
-0.13013235 0.062355086 -0.1643703 -0.019469045 -0.18415155 -0.14256187 -0.09678835 -0.13947207
0.10889549 0.10780635 -0.15968621 -0.03812955 0.02515436 0.03859443 -0.016373426 0.043595307
0.043150507 0.08234818 0.095774986 -0.08732334 0.15841575 -0.050785773 0.012948783 -0.021808041
-0.10836451 0.102522545 0.07499837 -0.07268476 0.130987 -0.071341515 0.08793635 0.15371998
0.11866781 0.04744567 0.09406153 0.16693893 -0.058957823 -0.024704102 -0.004317875 0.071620196
-0.093076676 0.10763685
00000000: c113 3ebd 6f4a f93b 2995 13be 3aa1 25bd
00000010: 2d09 7c3c 2b61 903d bd32 f5bd 4da7 003d
00000020: 6a41 05be 0c68 7f3d b050 28be 8c7d 9fbc
00000030: 3992 3cbe bdfb 11be f838 c6bd c4d1 0ebe
00000040: 9904 df3d 93c9 dc3d c884 23be bb2d 1cbd
00000050: 8410 ce3c 3115 1e3d 9021 86bc fe90 323d
00000060: 96be 303d 2aa6 a83d ad25 c43d 94d6 b2bd
00000070: bd37 223e be04 50bd 2227 543c c7a6 b2bc
00000080: 36ee ddbd 57f7 d13d bf98 993d bfdb 94bd
00000090: 7521 063e 801b 92bd f917 b43d c568 1d3e
000000a0: 1c08 f33d 6456 423d 55a3 c03d 0af2 2a3e
000000b0: c27d 71bd 4260 cabc f67c 8dbb 9cad 923d
000000c0: fc9e bebd b570 dc3d
