models/gru_model.pth (torch, 97954 bytes, 9 tensors)

gru.weight_ih_l0 f4 [150, 5]
0	0x3d4326c5	0.047644395
1	0x3d8a7cb3	0.06762066
2	0x3e6f3174	0.23358709
3	0x3e0556d8	0.1302141
4	0x3d7ec2ad	0.062197376
5	0x3b8d2747	0.0043076607
6	0xbd2af8ca	-0.04174117
7	0x3d8ef981	0.06981183
8	0x3e229fb8	0.1588124
9	0xbe367a61	-0.17820121
10	0xbe543e92	-0.20726994
11	0xbd8765ac	-0.06611189
12	0xbe39e2cd	-0.18152924
13	0xbd3ad162	-0.04560984
14	0xbcb9fda6	-0.022703957
15	0xbb53737f	-0.0032264886
16	0x3df2e81e	0.11860679
17	0x3caa10e5	0.020760009
18	0xbdaad4b7	-0.083413534
19	0x3e9459bd	0.28974715
20	0xbe14d33b	-0.14533703
21	0x3bd1f625	0.0064075165
22	0xbdc9cccd	-0.09853516
23	0xbd532fd5	-0.051559288
24	0xbd99022b	-0.07471117
25	0xbdde5389	-0.10855777
26	0x3c8b8961	0.01703328
27	0xbe271cd5	-0.16319592
28	0x3d1e2cf0	0.038617074
29	0xbe053914	-0.13010055
30	0xbd8172e9	-0.063207455
31	0xbbe02d41	-0.006841332
32	0xbe6a4bee	-0.22880527
33	0xbdb87d40	-0.090082645
34	0xbe5db30f	-0.21650337
35	0xbd1bcc3c	-0.03803657
36	0xbe82443e	-0.2544269
37	0xbe8a9d6e	-0.27073234
38	0xbb92f2b2	-0.004484498
39	0xbe87f88e	-0.2655682
40	0xbe48c63f	-0.19606875
41	0xbe3a7ce0	-0.18211699
42	0xbd6dc3d1	-0.058048073
43	0x3e53f9ac	0.20700711
44	0xbde24b82	-0.11049558
45	0x3d345eb0	0.044035614
46	0xbcd31f0d	-0.025771642
47	0xbcc8670b	-0.024463197
48	0x3d1ca7db	0.038246017
49	0x3d470a95	0.048594076
50	0x3e634def	0.22197698
51	0x3dc8aa92	0.09798159
52	0x3df51b37	0.119680814
53	0x3e70000d	0.2343752
54	0xbc532b17	-0.012888691
55	0x3d1173ca	0.035510816
56	0xbdedc3dd	-0.116096236
57	0xbcf69f9b	-0.030105403
58	0xbe756aff	-0.23966597
59	0x3d20f387	0.039294746
60	0x3d2408a0	0.040047288
61	0xbd6cd488	-0.057819873
62	0x3d379eff	0.044829365
63	0xbccd07f7	-0.025028212
64	0x3d88f940	0.06688166
65	0x3e3704f7	0.17872988
66	0x3e596e85	0.21233566
67	0x3d097841	0.03356195
68	0x3d869aa2	0.065724626
69	0x3d26ac01	0.04069138
70	0xbd29c5d0	-0.041448414
71	0xbde0012c	-0.109377235
72	0xbe9d6695	-0.30742326
73	0xbe9d3ad8	-0.30708957
74	0xbe933eae	-0.28758758
75	0x3d86e6cd	0.065869905
76	0x3e41c8d3	0.18924265
77	0x3c8ab1f4	0.016930558
78	0x3e613638	0.21993339
79	0x3da62efc	0.0811443
80	0xbd8e55c9	-0.06949956
81	0xbe0974d1	-0.13423468
82	0x3b3abd8a	0.0028494322
83	0xbdd88e4f	-0.10574018
84	0x3d8e5b9c	0.06951067
85	0x3dc32994	0.09529415
86	0x3e55f321	0.20893528
87	0x3d403978	0.046929806
88	0xb987e94f	-0.00025923035
89	0xbf277d67	-0.65425724
90	0x3d374981	0.044747833
91	0xbd18d407	-0.03731158
92	0xbd780e13	-0.060560297
93	0xbdc5a5d7	-0.09650772
94	0x3e363418	0.1779331
95	0xbe37ebc0	-0.17961025
96	0xbdc9e8d8	-0.098588645
97	0xbe10a102	-0.1412392
98	0x3db409f5	0.08790962
99	0x3e22ed09	0.15910734
100	0xbe12d424	-0.14338738
101	0x3d571a1a	0.052515127
102	0xbea4ccce	-0.32187504
103	0xbe68c5c1	-0.22731687
104	0x3e65c411	0.22438075
105	0xbe614a07	-0.22000895
106	0xbdaecc28	-0.085350335
107	0xbe49ce65	-0.1970764
108	0xbe9d4814	-0.30719054
109	0x3eec31c8	0.4613173
110	0xbd9e1e0f	-0.07720577
111	0x3cca93a9	0.024728613
112	0x3de88244	0.11352971
113	0x3e2bc63b	0.16774838
114	0xbe8b99e0	-0.27265835
115	0xbdd331b1	-0.10312212
116	0xbe0e95e7	-0.1392437
117	0xbe74fdc3	-0.23924927
118	0xbdb5dd30	-0.08880079
119	0x3e7dda72	0.24790362
120	0x3d33b825	0.043876786
121	0x3d187a2e	0.037225895
122	0x3dc427e7	0.09577923
123	0xbdd8264f	-0.10554182
124	0x3c7e3749	0.015516111
125	0xbe9a3a04	-0.30122387
126	0xbe2db32d	-0.16962881
127	0xbe69199c	-0.22763675
128	0xbe51ce9b	-0.2048897
129	0xbdd1d660	-0.10245967
130	0x3d92bc0e	0.07164775
131	0x3e46e445	0.19423015
132	0x3e32c5f3	0.17458324
133	0x3ed2b46e	0.41153282
134	0xbe114fca	-0.14190593
135	0x3d0a2974	0.03373094
136	0x3e391fed	0.18078585
137	0x3de38340	0.11109018
138	0x3de9407f	0.11389255
139	0xbc95d087	-0.01828791
140	0xbd657da8	-0.05602804
141	0x3cf816c9	0.030284302
142	0x3bb40102	0.005493284
143	0x3d33db53	0.043910336
144	0x3dec32de	0.1153314
145	0xbda99dc4	-0.082820445
146	0xbd95d735	-0.07316438
147	0x3cdf988a	0.027294416
148	0xbe6dadeb	-0.23210876
149	0x3d8a6cf0	0.067590594
150	0xbde01b11	-0.109426625
151	0x3cdff1b6	0.027336936
152	0x3d7ef30d	0.06224351
153	0x3b14ee76	0.0022725142
154	0x3e171c3f	0.14756869
155	0x3e22f297	0.15912853
156	0xbb1d31f0	-0.0023986064
157	0x3e0f92ff	0.14020918
158	0x3d9a32c0	0.07529211
159	0x3de76bc4	0.112998515
160	0xbe1298a2	-0.14316037
161	0xbbdf3d9b	-0.006812764
162	0xbd363f95	-0.04449423
163	0x3e42119a	0.18952027
164	0xbec72bc3	-0.38900575
165	0xbe3aeed7	-0.18255173
166	0xbe3d0209	-0.18457808
167	0x3d9571b3	0.07297077
168	0x3d1540c1	0.036438707
169	0xbd9c487f	-0.07631015
170	0xbe521c37	-0.20518576
171	0xbd2e9d46	-0.042630456
172	0xbe05a4f6	-0.13051209
173	0x3d8e84bd	0.069589116
174	0xbe034045	-0.12817486
175	0xbe26dce7	-0.16295205
176	0x3dcbe779	0.09956259
177	0xbe010dc0	-0.12602901
178	0x3e3c1d0f	0.1837046
179	0x3e25137a	0.16120711
180	0xbcba0a4b	-0.022709986
181	0x3d0d8da8	0.034558922
182	0x3d5c7ec2	0.053831823
183	0x3d11811f	0.03552353
184	0x3e97e00b	0.2966312
185	0xbc0075b8	-0.007840566
186	0xbd337b2b	-0.043818634
187	0xbc9bb16a	-0.019005496
188	0x3df0b913	0.1175405
189	0x3dba3700	0.09092522
190	0x3d9398ec	0.07206902
191	0x3c8a7749	0.016902583
192	0xbbbede4b	-0.005824839
193	0x3d273fed	0.04083245
194	0x3e906a63	0.28206167
195	0x3ccaa9a3	0.024739092
196	0x3bc9bbf7	0.0061564404
197	0x3b9008dd	0.004395588
198	0x3d6d8fbe	0.05799841
199	0x3d549dce	0.051908307
200	0x3d1b6687	0.037939575
201	0xbcd45d58	-0.025923416
202	0xbda6e415	-0.08148972
203	0xbe1a6e87	-0.15081225
204	0xbdd63f60	-0.104613066
205	0x3bbe4ed2	0.005807736
206	0xbd9da32f	-0.076971404
207	0xbbf0fef9	-0.007354614
208	0xbd958947	-0.07301574
209	0xbcfce3c1	-0.03087032
210	0x3e2137ad	0.15743895
211	0x3dfb53cf	0.122718446
212	0x3e2a762d	0.16646643
213	0x3e7320e8	0.23743021
214	0x3c82bb19	0.015958356
215	0xbdcf19b9	-0.10112328
216	0xbe2c7348	-0.16840851
217	0xbdbc0be7	-0.09181958
218	0xbe7793ca	-0.24177471
219	0x3df720b2	0.12066783
220	0xbc8b15f7	-0.016978247
221	0xbc610666	-0.013734436
222	0xbe528b9d	-0.2056107
223	0xbdfd5736	-0.1237015
224	0x3dac5349	0.08414323
225	0x3dc790f2	0.09744443
226	0xbe1ed3a6	-0.15510425
227	0x3aff61b7	0.0019484077
228	0xbdef77f8	-0.11692804
229	0xbdef0639	-0.11671109
230	0xbd6f938f	-0.058490332
231	0xbd2fbc1b	-0.042904
232	0xbe33969e	-0.17537925
233	0x3e3fa1be	0.18714043
234	0x3cb0b1d4	0.02156917
235	0xbdda0299	-0.10645027
236	0x3dbaa6de	0.09113859
237	0xbc18da8f	-0.009329452
238	0x3cf75e32	0.030196283
239	0x3d5218b4	0.05129309
240	0x3e2c8e47	0.1685115
241	0x3e9ce074	0.30639994
242	0x3e944cfe	0.2896499
243	0x3e3cda39	0.1844262
244	0x3ea773ab	0.32705435
245	0xbc892bb9	-0.016744481
246	0x3cf2acc0	0.02962339
247	0x3e0e6ed4	0.13909465
248	0x3e9f997b	0.31171784
249	0x3c06a47d	0.008217928
250	0xbe05fdda	-0.13085118
251	0xbc9167cc	-0.01774969
252	0xbcaa31dc	-0.020775728
253	0xbe5133f8	-0.20429981
254	0x3f7f494b	0.9972121
255	0xbe086540	-0.13319874

gru.weight_hh_l0 f4 [150, 50]
0	0x3dae158f	0.08500206
1	0xbe6dbc9c	-0.2321648
2	0xbe02a466	-0.12758026
3	0xbda52ab4	-0.080647856
4	0x3d5ac9e0	0.05341518
5	0x3e0729d9	0.13199557
6	0x3e4af06f	0.1981828
7	0x3e510f85	0.20416076
8	0x3e79f694	0.24410468
9	0xbe5ee19d	-0.21765752
10	0x3babcfa1	0.005243257
11	0xbe1eb381	-0.15498163
12	0x3e15fd4d	0.14647408
13	0x3d03913b	0.032120924
14	0x3e94486c	0.28961504
15	0xbd44bf76	-0.048034154
16	0x3d413509	0.04716972
17	0x3e68a877	0.22720514
18	0x3d31e8cf	0.043434914
19	0x3d6f97a8	0.05849424
20	0xbdc3b956	-0.095568344
21	0xbea13aee	-0.31490272
22	0x3d8ccc8f	0.06874954
23	0xbdf06cd5	-0.11739508
24	0x3c9cd0da	0.019142557
25	0x3dd3ffd4	0.1035153
26	0x3e774a4b	0.24149434
27	0x3d029ff9	0.031890843
28	0xbcf45675	-0.029826382
29	0xbd50df88	-0.050994426
30	0x3e784417	0.24244724
31	0x3dbb8ffe	0.09158324
32	0xbe8204f0	-0.25394392
33	0x3cb4f134	0.02208767
34	0xbed0be30	-0.40770102
35	0xbd936911	-0.07197774
36	0xbd89fe6b	-0.067379795
37	0xbe84658b	-0.2585872
38	0xbd06ee0b	-0.03294186
39	0xbcf2a041	-0.02961743
40	0xbeb7e49c	-0.35916603
41	0xbe89e73b	-0.26934227
42	0x3c701bdf	0.0146550825
43	0x3e211477	0.15730463
44	0x3e455481	0.19270517
45	0x3e5de6b2	0.21670035
46	0x3e8cf93f	0.2753391
47	0x3e078387	0.13233767
48	0xbd3ca0d4	-0.046051815
49	0x3e4662f5	0.19373687
50	0x3d22dc98	0.039761156
51	0x3d98e48c	0.07465467
52	0xbd55a341	-0.052157644
53	0x3cf7ffed	0.030273402
54	0xbc671b4f	-0.014105632
55	0x3d4cc9fe	0.049997322
56	0xbe02e187	-0.12781344
57	0x3b0bac75	0.002131251
58	0xbd9087d8	-0.0705716
59	0xbc9e1b65	-0.019300172
60	0xbbaad794	-0.005213687
61	0x3c5f18de	0.013616769
62	0x3dbaeaac	0.09126791
63	0xbd74a352	-0.059726067
64	0x3db495ef	0.0881766
65	0x3d12a71f	0.03580391
66	0xbe23129a	-0.15925065
67	0xbe1cb462	-0.15303186
68	0x3d9262a9	0.07147724
69	0x3dc33b45	0.09532789
70	0xbd769218	-0.06019792
71	0xbcc08140	-0.023499131
72	0xbd3fb63c	-0.04680465
73	0x3da45d1e	0.08025573
74	0xbc65120a	-0.013981352
75	0x3d276348	0.040866166
76	0xbe12dedb	-0.14342825
77	0xbe03750a	-0.12837616
78	0x3c6e94c3	0.014561835
79	0xbdbcba62	-0.09215237
80	0xbce0dcb0	-0.027448982
81	0xbe24eef2	-0.16106775
82	0xbc9abde5	-0.018889377
83	0x3c03ecbc	0.008052047
84	0x3d045dfe	0.0323162
85	0xbda2d62a	-0.07951005
86	0xbd769889	-0.060204063
87	0x3dbf4b54	0.093405396
88	0xbd7b803c	-0.06140159
89	0xbcd32f59	-0.025779413
90	0x3d1bd503	0.03804494
91	0xbd7092de	-0.058733813
92	0x3d01036b	0.0314974
93	0x3dd93bf8	0.10607141
94	0x3e095294	0.13410407
95	0x3dcb913b	0.0993981
96	0x3bcb8af0	0.006211631
97	0xbb13ff16	-0.0022582463
98	0x3e1d6e24	0.15374047
99	0xbde90430	-0.11377752
100	0xbe124806	-0.14285287
101	0x3e546d91	0.20744921
102	0x3cb51e3b	0.022109142
103	0xbd168f44	-0.036757722
104	0xbdae0fd4	-0.08499113
105	0xbdd690c4	-0.104768306
106	0x3dd28310	0.102789044
107	0xbcddb019	-0.027061509
108	0xbe30b10b	-0.17255037
109	0x3d4c1559	0.049825046
110	0x3d32ab9d	0.043620694
111	0x3d700a9f	0.05860388
112	0xbd507259	-0.0508903
113	0x3d103c77	0.035213914
114	0xbd5876d0	-0.052847683
115	0xbdd4701b	-0.10372945
116	0xbb94acc7	-0.004537198
117	0xbba77836	-0.005110766
118	0x3e4c0d66	0.19926986
119	0xbdb8080c	-0.0898591
120	0xbd9a7035	-0.07540933
121	0xbe24bbe6	-0.16087303
122	0x3cd6123f	0.026131747
123	0xbd0f1806	-0.03493502
124	0x3ab61f18	0.0013894765
125	0xbdddaa97	-0.10823553
126	0x3cace5c1	0.021105649
127	0xbd971c25	-0.07378415
128	0xbb3b4ae8	-0.0028578583
129	0x3c071708	0.008245237
130	0xbe2705a2	-0.16310742
131	0x3d882bd9	0.06648988
132	0x3e164f1f	0.1467862
133	0xbdee8cec	-0.116479725
134	0x3d99b488	0.07505137
135	0xbd4d108b	-0.050064605
136	0x3e6a2f04	0.22869498
137	0xbe65e1b4	-0.2244938
138	0x3da819b8	0.082080305
139	0x3db3d180	0.08780193
140	0x3d6b9d6e	0.057523184
141	0x3c7aba8d	0.015303266
142	0x3bfe99eb	0.0077698133
143	0xbd07a91e	-0.033120267
144	0x3d8f042f	0.0698322
145	0x3e10ff72	0.14159945
146	0x3d0f6823	0.035011422
147	0xbd698ffc	-0.05702208
148	0x3d3d4665	0.04620971
149	0x3dab3372	0.08359422
150	0x3d7a00ae	0.061035804
151	0x3dabd547	0.08390289
152	0xbe304f4a	-0.17217746
153	0xbeee44ea	-0.46536952
154	0xbdba44ea	-0.090951756
155	0x3df81584	0.12113479
156	0xbd6d943f	-0.058002707
157	0xbd135b0b	-0.035975497
158	0x3c9a092a	0.018803198
159	0xbe119284	-0.14216048
160	0x3d81f945	0.063463725
161	0x3c3738cf	0.011182978
162	0x3d39472f	0.0452339
163	0xbd27853b	-0.040898543
164	0xbe09eab1	-0.13468434
165	0x3e7ba012	0.2457278
166	0x3d8b04ea	0.06788047
167	0xbd2f82ab	-0.042849224
168	0xbd20c007	-0.03924563
169	0xbd607426	-0.054798268
170	0x3e943c51	0.28952268
171	0xbf1d4881	-0.6143876
172	0xbe139aeb	-0.14414565
173	0x3d2c7614	0.042104796
174	0x3ca5d2c2	0.020242099
175	0xbc89a354	-0.016801514
176	0xbe347df7	-0.17626177
177	0x3d84e599	0.06489105
178	0xbc976b7f	-0.018483875
179	0x3e0436b2	0.1291149
180	0x3e405fe0	0.18786573
181	0x3dba1031	0.090851195
182	0xbdc48eab	-0.09597524
183	0x3ccffc32	0.02538881
184	0x3dca3c00	0.09874725
185	0x3dc7b83e	0.09751938
186	0xbd6bd0d0	-0.057572186
187	0x3d99aff6	0.07504265
188	0xbec39861	-0.38202193
189	0x3e1b2fe6	0.1515499
190	0xbd356c7b	-0.04429291
191	0x3d8d2bc7	0.068931155
192	0xbde1db6e	-0.11028181
193	0xbcd5f5e9	-0.026118236
194	0x3d63fdc0	0.055661917
195	0x3dc106b6	0.09425108
196	0xbcd48b26	-0.025945257
197	0xbd06b3ab	-0.03288619
198	0xbee076a0	-0.43840504
199	0xbe55376d	-0.20821925
200	0x3d71c703	0.059027683
201	0x3d91c1dd	0.071170546
202	0xbdc41a65	-0.09575347
203	0xbdd48f90	-0.10378945
204	0x3db97938	0.09056324
205	0xbd7c2646	-0.061559938
206	0xbddbf533	-0.107401274
207	0xbda28300	-0.079351425
208	0x3dc1d645	0.09464697
209	0xbd90a895	-0.070634045
210	0xbe181606	-0.14852151
211	0x3d83812a	0.064211205
212	0xbe125383	-0.1428967
213	0x3de32a61	0.110920675
214	0xbdeea7b0	-0.116530776
215	0x3d323c12	0.04351432
216	0xbdeb13fc	-0.11478421
217	0xbdf9c3a7	-0.12195521
218	0xbd2429a9	-0.040078793
219	0xbe35d23f	-0.17755984
220	0x3e1d6555	0.15370686
221	0x3d09f4b4	0.033680633
222	0xbd6291e9	-0.055314932
223	0x3d530084	0.051514164
224	0x3dd491b5	0.10379354
225	0x3b7ea15e	0.0038853507
226	0x3ece4a77	0.40291187
227	0xbdae3883	-0.085068725
228	0x3d24fbfd	0.040279377
229	0x3b43c81b	0.002987391
230	0x3e0f8bc2	0.14018157
231	0x3ce3a197	0.027787013
232	0xbdaf6354	-0.08563867
233	0x3d6c3268	0.05766526
234	0x3d423a06	0.047418617
235	0x3e174092	0.14770725
236	0x3cf6b07e	0.030113455
237	0xbd4b63b6	-0.04965564
238	0xbe264491	-0.16237094
239	0xbbdb62a0	-0.0066951066
240	0x3deab7b8	0.11460823
241	0x3d8a202c	0.067444175
242	0x3e3f4e60	0.18682241
243	0xbde62ef8	-0.11239427
244	0x3cf82c27	0.030294491
245	0xbda4f70f	-0.08054935
246	0x3dd398a9	0.10331852
247	0x3d901484	0.07035163
248	0xbe317f92	-0.1733382
249	0x3cdc94fe	0.026926514
250	0xbca57859	-0.020198988
251	0x3de10077	0.10986417
252	0xbd8eedc7	-0.06978946
253	0xbda7e039	-0.08197064
254	0xbe635681	-0.22200967
255	0x3d21f912	0.039544173

gru.bias_ih_l0 f4 [150]
0	0xbd9ca282	-0.076481834
1	0x3d35e0d7	0.044403877
2	0xbe9e2af8	-0.30892158
3	0xbcd88fca	-0.026435751
4	0xbdeb1bad	-0.11479888
5	0xbd97399d	-0.07384036
6	0xbe3dfe95	-0.18554147
7	0xbdf46cc2	-0.119348064
8	0x3bbf778e	0.0058431095
9	0xbdd5c398	-0.10437697
10	0x3c3d3a7c	0.011549588
11	0xbd7f3f62	-0.062316306
12	0xbe4c447a	-0.19947997
13	0x3e21d642	0.15804389
14	0x3debbeec	0.11511025
15	0x3e0086e0	0.1255145
16	0x3d30f040	0.04319787
17	0x3e5cef22	0.21575597
18	0xbe503d14	-0.203358
19	0xbe33f415	-0.17573579
20	0xbd62df03	-0.05538846
21	0x3de086ba	0.10963197
22	0xbe430d18	-0.19047964
23	0xbd241a34	-0.04006405
24	0x3d79e37b	0.061007958
25	0xbea41dec	-0.3205408
26	0xbd3ca52d	-0.04605596
27	0xbdf9ff35	-0.1220688
28	0x3da9cf7b	0.08291527
29	0x3d5af29f	0.053454038
30	0xbd84c1bf	-0.06482267
31	0x3e00b13c	0.1256761
32	0xbd52cd75	-0.05146547
33	0xbd0848da	-0.0332726
34	0xbd675217	-0.05647477
35	0xbd9a45c6	-0.075328395
36	0xbdf86ba9	-0.121299095
37	0xbd2816d3	-0.041037392
38	0xbd81c5d8	-0.06336564
39	0xbe2189e9	-0.15775265
40	0xbdd250b7	-0.102693014
41	0xbdfc422a	-0.12317307
42	0x3cb3e8b3	0.021961546
43	0xbd26be64	-0.040708914
44	0xbe3f21f8	-0.18665302
45	0xbdd2b38e	-0.102881536
46	0xbe7a31b1	-0.24433018
47	0xbd8671d9	-0.065646835
48	0x3e3eeb74	0.18644506
49	0xbccbadd5	-0.024863163
50	0xbeb08235	-0.3447434
51	0xbd54b834	-0.051933482
52	0xbe8683a3	-0.26272306
53	0xbe073e54	-0.1320737
54	0xbec73ab0	-0.38911963
55	0xbd624627	-0.055242684
56	0xbe823f06	-0.25438708
57	0xbe608260	-0.21924734
58	0xbe8ed05c	-0.2789334
59	0xbee68a8c	-0.45027578
60	0x3e772f7e	0.2413921
61	0xbebb850d	-0.36624947
62	0xbe428a13	-0.18997984
63	0xbda3e239	-0.08002133
64	0xbf139dd8	-0.57662725
65	0xbeb54d7c	-0.35410678
66	0x3e124384	0.14283568
67	0xbeddc75b	-0.4331616
68	0x3daed41c	0.085365504
69	0xbef2340a	-0.47305328
70	0xbed3b2ad	-0.41347256
71	0xbee005cd	-0.43754426
72	0xbd3b2744	-0.045691743
73	0xbe8f918b	-0.28040728
74	0xbeab3f24	-0.3344661
75	0xbe959d35	-0.29221502
76	0xbd8d125d	-0.06888268
77	0x3dde1ace	0.10844956
78	0xbeea7061	-0.45788863
79	0x3e2aff28	0.16698897
80	0xbe3a8328	-0.18214095
81	0x3d727174	0.05919023
82	0xbf24e906	-0.64418066
83	0x3d156f78	0.036483258
84	0xbe81a15e	-0.25318426
85	0xbda52f25	-0.08065633
86	0x3e0198b5	0.1265591
87	0xbd520831	-0.051277343
88	0x3e8e5fbc	0.27807415
89	0xbe9a4fac	-0.3013891
90	0xbeed0611	-0.4629369
91	0xbe25aae6	-0.16178474
92	0xbde48dc9	-0.11159856
93	0xbe8cb93c	-0.27485073
94	0xbe90e174	-0.28297007
95	0xbe853aa1	-0.26021293
96	0xbf12a47a	-0.5728222
97	0xbdefcb1b	-0.11708661
98	0xbeaf7e91	-0.3427625
99	0xbf0c8932	-0.54896843
100	0xbdff34df	-0.12461256
101	0xbdc80820	-0.09767175
102	0x3bc8449a	0.0061116936
103	0xbd0b5594	-0.03401716
104	0xbcf42c23	-0.029806202
105	0x3d8359f5	0.06413642
106	0xbcfd5fe5	-0.030929515
107	0xbd91a8ab	-0.07112249
108	0xbbce08bd	-0.006287663
109	0x3d992da5	0.07479409
110	0xbdaf613e	-0.08563469
111	0xbdd324d7	-0.10309761
112	0xbd2501a9	-0.040284786
113	0x3cd74480	0.02627778
114	0xbd652d96	-0.055951677
115	0x3d400c20	0.046886563
116	0x3d41651e	0.047215573
117	0x3c549eb5	0.012977292
118	0xbd2b93a6	-0.041888855
119	0xbe05a761	-0.13052131
120	0x3ddba853	0.10725465
121	0xbdb3cde6	-0.087795064
122	0xbdb7d8f2	-0.08976926
123	0x3d7eda3c	0.062219843
124	0x3db0227b	0.08600327
125	0x3c3af041	0.01140982
126	0x3d62bcde	0.0553559
127	0x3cba4a96	0.022740643
128	0x3da35e84	0.07977012
129	0x3b27f0a4	0.002562561
130	0x3d537042	0.05162073
131	0x3d2354f5	0.039875943
132	0x3d9995db	0.07499286
133	0x3d30eceb	0.043194693
134	0x3c88750c	0.016657375
135	0x3d305cb4	0.04305716
136	0xbd2fc3ba	-0.04291127
137	0x3dfe11fe	0.124057755
138	0x3cd3986c	0.025829516
139	0x3ce6b55f	0.028162656
140	0x3d84d3b4	0.06485692
141	0x3ce054fd	0.027384276
142	0xbbe2283f	-0.0069017704
143	0x3ba88865	0.0051432126
144	0xbd91e061	-0.07122875
145	0x3cc04acb	0.023473164
146	0xbddad6d6	-0.10685508
147	0x3d5c76eb	0.053824347
148	0xbd4e4f6a	-0.050368704
149	0x3d2274dc	0.039662227

gru.bias_hh_l0 f4 [150]
0	0x3e0d2312	0.1378291
1	0x3d542d9b	0.051801305
2	0xbea1df90	-0.31615877
3	0x3e047365	0.12934645
4	0x3c37a274	0.011208165
5	0xbde5e6b8	-0.11225647
6	0xbd711062	-0.058853514
7	0xbe3e3d49	-0.18578066
8	0xbe31246f	-0.17299055
9	0xbe24cd09	-0.1609384
10	0xbe0d6b07	-0.13810359
11	0x3c4dc1a9	0.012558379
12	0xbd4cec70	-0.050030172
13	0xbd376cc1	-0.04478145
14	0xbc8c426b	-0.017121514
15	0x3e1d5848	0.15365708
16	0x3ba6434d	0.005073941
17	0x3d585f6a	0.05282537
18	0x3d082120	0.033234715
19	0x3d169173	0.036759805
20	0xbe13eba2	-0.14445356
21	0x3cb5e2e7	0.022202922
22	0xbe64ace6	-0.2233158
23	0xbd4f2eed	-0.05058186
24	0x3e078843	0.13235573
25	0xbe58dd7f	-0.21178244
26	0x3dd136a5	0.10215501
27	0x3d9085d2	0.07056774
28	0x3d80a349	0.06281144
29	0x3dc25680	0.09489155
30	0xbd649ef6	-0.05581566
31	0x3e20ac1e	0.15690657
32	0xbe32e221	-0.17469074
33	0xbe3ce21a	-0.18445626
34	0xbe0af3f8	-0.13569629
35	0xbdc334d1	-0.09531558
36	0xbd411102	-0.04713536
37	0x3d8c6a77	0.06856244
38	0x3d1ce6e2	0.038306125
39	0xbe171f4b	-0.14758031
40	0xbe2fa3d9	-0.17152347
41	0xbe044058	-0.1291517
42	0x3d5d6b20	0.05405724
43	0x3d9bc66c	0.07606205
44	0xbdfeffd3	-0.12451138
45	0xbde446a5	-0.11146287
46	0xbc6b4470	-0.0143595785
47	0xbdfb1fa3	-0.122618936
48	0x3e11e1a5	0.14246233
49	0xbe41f12e	-0.18939659
50	0xbe1a1e0b	-0.15050523
51	0xbe03b2d7	-0.1286119
52	0xbe512afd	-0.20426555
53	0xbda3c569	-0.079966374
54	0xbedb2821	-0.42804053
55	0xbe36ebb0	-0.17863345
56	0xbebcd43d	-0.36880675
57	0xbe743e01	-0.23851778
58	0xbed1caf3	-0.4097515
59	0xbf0a6422	-0.5405904
60	0x3e600e95	0.21880563
61	0xbec8affb	-0.39196762
62	0xbe3e9839	-0.18612756
63	0xbe4cc48c	-0.19996852
64	0xbf23225a	-0.6372429
65	0xbec41e73	-0.3830448
66	0x3de9618e	0.1139556
67	0xbe8d2520	-0.27567387
68	0xbd8b4663	-0.068005346
69	0xbe8718f9	-0.2638624
70	0xbf087ca5	-0.5331519
71	0xbed46917	-0.41486427
72	0xbd104ada	-0.035227634
73	0xbec6bc94	-0.3881575
74	0xbf0edcad	-0.55805475
75	0xbe918aa7	-0.28426096
76	0x3c106754	0.008813698
77	0x3e13b905	0.14426048
78	0xbeb90c6d	-0.36142293
79	0x3e6b0431	0.22950818
80	0xbdaf7954	-0.085680634
81	0x3e013dcd	0.12621231
82	0xbecd4ae3	-0.40096197
83	0xbd59ad6e	-0.05314391
84	0xbecdbf88	-0.4018519
85	0xbbf2dfc7	-0.0074119302
86	0x3e882c82	0.26596457
87	0xbe82b5d4	-0.2552935
88	0x3e9f3b3b	0.31099877
89	0xbe98a7d2	-0.29815537
90	0xbed117d8	-0.40838504
91	0xbdc30558	-0.095225036
92	0xbdecc318	-0.11560649
93	0xbed7a1db	-0.42115673
94	0xbecadc50	-0.3962121
95	0xbe8af91b	-0.27143177
96	0xbf1b18c4	-0.60584664
97	0xbe0e2694	-0.13881904
98	0xbe537ac1	-0.20652296
99	0xbef17b62	-0.47164446
100	0x3d074eb6	0.03303405
101	0xbdb00054	-0.085938126
102	0x3b1b1e19	0.0023669063
103	0xbdffc0a9	-0.12487919
104	0x3e180b0d	0.14847966
105	0xbcdcd026	-0.026954722
106	0xbdd5b250	-0.10434401
107	0x3ddba3c1	0.10724593
108	0xbcbe7506	-0.02324916
109	0xbc8018e4	-0.015636869
110	0xbd427c7a	-0.04748199
111	0x3e07d8f6	0.13266358
112	0x3da07a9d	0.078358866
113	0xbc44ae87	-0.012004501
114	0xbdb14d82	-0.086573616
115	0x3d016a28	0.03159538
116	0xbd8ec032	-0.06970252
117	0xbcef40e3	-0.029205745
118	0x3d723c3f	0.059139486
119	0x3e09c862	0.13455346
120	0xbd916aa1	-0.07100416
121	0x3d5a16a0	0.053244233
122	0xbc695944	-0.014242474
123	0x3db7306b	0.08944782
124	0xbc63a917	-0.013895295
125	0x3da30d06	0.079614684
126	0xbd912ad5	-0.07088248
127	0x3b882567	0.0041548493
128	0xbde526a8	-0.11189014
129	0x3dbb9bb4	0.091605574
130	0xbccf3abd	-0.025296563
131	0xbda762de	-0.08173154
132	0xbd783e6b	-0.0606064
133	0x3da7a542	0.08185817
134	0x3c243405	0.010022168
135	0x3ba97ed2	0.005172589
136	0x3d7ad34d	0.06123667
137	0xbd4589bf	-0.048227068
138	0xbe2a2f5f	-0.16619633
139	0xbdc95544	-0.09830716
140	0x3d5da0d6	0.054108463
141	0x3a5549e8	0.0008136318
142	0x3d262061	0.040558223
143	0xbb566240	-0.003271237
144	0xbdd5c785	-0.10438446
145	0xbd8b529d	-0.068028666
146	0xbbdfffe9	-0.006835927
147	0xbdb989da	-0.09059496
148	0x3cb95050	0.022621304
149	0xbe2df88c	-0.16989344

gru.weight_ih_l1 f4 [150, 50]
0	0xbc940c39	-0.018072234
1	0x3e48c519	0.19606437
2	0x3de47bdf	0.11156439
3	0x3cfbcd15	0.03073744
4	0x3cfab5a2	0.030604187
5	0x3d1a4e8c	0.037672564
6	0xbe048219	-0.12940253
7	0x3de37544	0.11106351
8	0x3b8a6778	0.00422376
9	0x3dae4f84	0.0851126
10	0x3e87df1c	0.26537406
11	0x3d5361e8	0.051607043
12	0xbd531a53	-0.051538777
13	0xbe141d4a	-0.14464298
14	0x3c90a7f9	0.01765822
15	0x3cb8f4ba	0.022577632
16	0x3d3bd137	0.04585382
17	0xbe39a562	-0.18129495
18	0x3cfe916e	0.031075206
19	0x3ca0af07	0.01961471
20	0x3e9593e7	0.29214403
21	0xbea7061b	-0.32621846
22	0x3daf77d4	0.08567777
23	0xbd54e3ad	-0.05197494
24	0xbcb887bc	-0.02252566
25	0xbe2db853	-0.16964845
26	0xbd15d96e	-0.03658431
27	0xbdfb4194	-0.122683674
28	0x3e49ff43	0.19726281
29	0xbbdb156a	-0.0066859024
30	0xbe15dd06	-0.14635095
31	0x3cb3c325	0.021943638
32	0xbcccb22b	-0.0249873
33	0x3bc2549a	0.0059304954
34	0xbd98cf31	-0.074613936
35	0x3d639660	0.05556333
36	0x3e444e8f	0.19170593
37	0x3d08e996	0.03342589
38	0xbda9f7fd	-0.08299253
39	0x3de4340d	0.111427404
40	0x3d367f40	0.04455495
41	0xbcc40705	-0.023929128
42	0x3d8dd4b8	0.069253385
43	0x3de27ade	0.11058591
44	0xbda9470d	-0.08265505
45	0x3d846a1b	0.064655505
46	0x3db44763	0.088026784
47	0x3cd3c73f	0.025851844
48	0x3cc8568c	0.024455331
49	0xbd9bf8e1	-0.07615829
50	0x3c294194	0.010330576
51	0x3e347a03	0.17624669
52	0xbc41e932	-0.011835383
53	0x3daf3c9a	0.08556481
54	0x3d4d0897	0.05005702
55	0xbdd94c7c	-0.10610291
56	0xbe5e8cf4	-0.21733457
57	0xbe5e170d	-0.2168848
58	0x3cc791e7	0.024361564
59	0x3e355b70	0.17710662
60	0xbba801c5	-0.005127164
61	0x3d9608c3	0.0732589
62	0xbd002337	-0.031283583
63	0x3e0cc4df	0.13746975
64	0xb9d5404d	-0.00040674434
65	0xbc075b20	-0.008261472
66	0xbe126764	-0.14297253
67	0x3df4ad41	0.11947108
68	0xbea42933	-0.32062683
69	0xbe028210	-0.12744927
70	0x3eb4caad	0.3531088
71	0xbe572490	-0.21010041
72	0xbea69385	-0.32534423
73	0x3dcedd9a	0.10100861
74	0x3e2b7e7f	0.16747473
75	0xbc773a8e	-0.015089644
76	0x3de56843	0.11201527
77	0x3d8b921d	0.06814978
78	0xbc3d42db	-0.011551584
79	0x3e4fa5e6	0.20278129
80	0x3d47d87d	0.048790444
81	0xbd57fa50	-0.05272895
82	0xbbb1b84b	-0.0054235808
83	0xbddac4ff	-0.10682105
84	0x3e39f523	0.18159918
85	0x3d61364b	0.05498342
86	0x3e6b1702	0.22957996
87	0xbe0ac18e	-0.13550398
88	0xbeb8572e	-0.36004013
89	0x3dbd5703	0.09245112
90	0xbd63fc7e	-0.055660717
91	0x3e97812f	0.29590747
92	0x3d3bca01	0.045846943
93	0xbe3d0c05	-0.18461616
94	0xbe91924e	-0.28431934
95	0xbdbcfb6f	-0.09227645
96	0xbcbed40f	-0.023294477
97	0xb963da7d	-0.000217298
98	0x3e1116ab	0.14168803
99	0xbe56b486	-0.20967302
100	0xbd1c873a	-0.0382149
101	0x3e1260a5	0.1429468
102	0xbc625e20	-0.013816386
103	0x3dbc8a97	0.092061214
104	0x3de86f7d	0.1134939
105	0xbd621ac5	-0.05520131
106	0xbde0ecbe	-0.10982655
107	0xbdb5fe3a	-0.088863805
108	0xbe1bf943	-0.15231805
109	0xbe00eac2	-0.12589553
110	0x3e84f9b7	0.25971767
111	0x3c69051f	0.014222412
112	0xbe0d1f07	-0.13781367
113	0xbe3f47c0	-0.18679714
114	0xbe29f421	-0.16597034
115	0xbdb6a1b1	-0.08917559
116	0x3dae6471	0.085152514
117	0xbd9e21cf	-0.07721292
118	0xbe9c25be	-0.30497545
119	0xbe841c7a	-0.25802976
120	0x3e73ae4c	0.23796958
121	0xbd60635e	-0.054782264
122	0xbd8faf05	-0.07015804
123	0x3e243f45	0.1603976
124	0xbcc92cc4	-0.024557479
125	0x3d91147a	0.07083984
126	0x3d5b48d4	0.05353625
127	0x3dd860b0	0.10565317
128	0x3decd115	0.11563317
129	0x3dfebf00	0.12438774
130	0x3d68848c	0.05676703
131	0x3e38c15b	0.1804251
132	0xbd730b37	-0.059336867
133	0x3d471afe	0.048609726
134	0x3d89868f	0.06715118
135	0x3d4abc55	0.049496014
136	0xbcab15b1	-0.020884367
137	0xbe155299	-0.1458229
138	0xbe56026f	-0.20899366
139	0x3e3599ba	0.17734423
140	0xbd834ce2	-0.064111486
141	0xbd57cbdf	-0.05268466
142	0xbda9a379	-0.08283133
143	0x3ca760b4	0.020431854
144	0xbe403c88	-0.18773091
145	0xbe4b470b	-0.1985132
146	0xbddd9f52	-0.108214036
147	0xbdabfb9c	-0.083976
148	0xbe167f32	-0.14696959
149	0xb964f462	-0.00021834814
150	0xbd870977	-0.06593602
151	0xbcb8bdd0	-0.022551447
152	0xbdb59e9b	-0.08868142
153	0x3c10f35b	0.008847083
154	0xbd013d8e	-0.031552844
155	0xbd6804cc	-0.0566452
156	0xbe2b97ae	-0.1675708
157	0xbb9d9af8	-0.0048097335
158	0x3de49855	0.111618675
159	0xbdd80a3b	-0.10548826
160	0x3c767bd3	0.01504417
161	0xbdfb5603	-0.12272265
162	0xbc4fa44e	-0.012673451
163	0xbd282902	-0.041054733
164	0xbdd748b1	-0.10511912
165	0xbb9aa9fc	-0.0047199707
166	0xbcd68edc	-0.026191168
167	0xbd9b333a	-0.0757813
168	0x3d10e851	0.035377804
169	0xbe1dbb53	-0.1540349
170	0x3e345b79	0.17613019
171	0xbe4f99c9	-0.20273508
172	0xbd75f17a	-0.060044743
173	0x3e7b7216	0.24555239
174	0x3db551b6	0.08853476
175	0x3d299c99	0.04140911
176	0x3c7de439	0.015496307
177	0x3d896829	0.0670932
178	0x3db4cfdf	0.08828711
179	0x3e06b1ed	0.13153811
180	0xbe093c0f	-0.13401817
181	0x3e4f728b	0.20258538
182	0x3cf92e6c	0.030417643
183	0xbe03eab7	-0.12882505
184	0x3dca43ae	0.0987619
185	0xbdd829d7	-0.10554855
186	0x3de58885	0.1120768
187	0xbd293078	-0.04130599
188	0xbdd73ebe	-0.10510014
189	0x3e03cc10	0.12870812
190	0x3df27f20	0.118406534
191	0x3c232813	0.009958285
192	0xbd9b3751	-0.0757891
193	0x3dcb9dc4	0.09942201
194	0xbe07847d	-0.13234134
195	0x3db5b4e9	0.088723965
196	0xbda6933d	-0.08133552
197	0xbe19f2f1	-0.15034081
198	0xbd12bc53	-0.03582413
199	0xbd5994ea	-0.05312053
200	0xbcc07002	-0.02349091
201	0x3e1db9a1	0.15402843
202	0xbcd5f1f1	-0.026116343
203	0x3ea54e5f	0.32286355
204	0xbe98307a	-0.29724485
205	0x3db037d8	0.08604401
206	0x3c1dbc57	0.009627423
207	0x3bd3602f	0.006450675
208	0x3c82fe89	0.015990512
209	0xbdd5d388	-0.10440737
210	0x3dfecbb8	0.124412
211	0xbe56e73b	-0.20986645
212	0x3d255040	0.040359735
213	0xbd0c3f21	-0.034239892
214	0xbd9904ce	-0.074716195
215	0x3da2e120	0.079530954
216	0xbdcc4372	-0.09973802
217	0x3e857926	0.2606899
218	0xbe674e5f	-0.2258849
219	0x3ba0d45a	0.004908127
220	0x3edf1a82	0.4357491
221	0xbebfb8a8	-0.3744557
222	0xbdc2484f	-0.09486448
223	0x3e818b88	0.25301766
224	0x3e2ca330	0.16859126
225	0xbd535490	-0.051594317
226	0xbe2084a1	-0.15675594
227	0x3dbabedf	0.09118437
228	0x3dc9de3f	0.09856843
229	0x3e4006b6	0.1875256
230	0x3e326f40	0.17425251
231	0x3eb08d5c	0.3448285
232	0x3d2a41df	0.041566726
233	0x3b887bbc	0.004165141
234	0xbe81f6e3	-0.25383672
235	0x3e8784f5	0.26468626
236	0x3e498bd6	0.1968225
237	0xbcf02a3a	-0.02931701
238	0xbec61af9	-0.38692454
239	0x3e17f7bf	0.14840601
240	0xbcb70759	-0.02234237
241	0xbd15e2e8	-0.036593348
242	0xbd981b22	-0.0742705
243	0x3c9f1523	0.019419258
244	0x3dda2fe1	0.106536634
245	0x3e4aed17	0.19817005
246	0x3c399dec	0.011329155
247	0x3d9a0651	0.07520736
248	0xbd8adfc7	-0.067809634
249	0xbe08d044	-0.13360697
250	0x3e1ed709	0.15511717
251	0x3dfe3aff	0.12413596
252	0x3e0c7798	0.13717496
253	0x3df28866	0.11842422
254	0xbc9da680	-0.019244432
255	0xbe07b010	-0.13250756

gru.weight_hh_l1 f4 [150, 50]
0	0x3cc4ee39	0.024039375
1	0xbd7a7d80	-0.061154842
2	0x3d6bd564	0.057576552
3	0xbde15324	-0.11002186
4	0xbcc2e93b	-0.023792854
5	0x3dd788ce	0.1052414
6	0x3ddcc527	0.10779791
7	0x3dc1f128	0.09469825
8	0x3d07cfa5	0.03315701
9	0x3d163fad	0.03668182
10	0xbcbd9315	-0.023141423
11	0xbcc71c72	-0.024305556
12	0x3e6a5f60	0.22887945
13	0xbda2aa55	-0.079426445
14	0x3d860976	0.06544773
15	0x3d9459b9	0.07243676
16	0x3dedf4b3	0.11618938
17	0x3dedc78c	0.11610326
18	0x3d056d50	0.03257495
19	0x3da1cc11	0.07900251
20	0x3e072de0	0.13201094
21	0x3e67e659	0.22646464
22	0xbe1683da	-0.14698735
23	0x3d1ce5ac	0.03830497
24	0xbd27a2f0	-0.040926874
25	0xbba862d3	-0.005138734
26	0x3dd0f0a7	0.10202151
27	0x3cf492e0	0.029855192
28	0x3e8bf761	0.27337173
29	0x3e52e177	0.2059382
30	0x3da5f8ad	0.08104072
31	0x3c1bf07a	0.009517783
32	0x3c229469	0.009923079
33	0xbd3487a0	-0.044074655
34	0x3dd04e43	0.10171177
35	0x3e27ad21	0.16374637
36	0x3d25d2bc	0.040484175
37	0xbde4f4c7	-0.111795
38	0x3e55b76d	0.20870753
39	0xbe13a5c8	-0.1441871
40	0x3e5a38bf	0.2131071
41	0x3e346fc8	0.17620766
42	0x3de76282	0.11298086
43	0xbe6a3959	-0.22873439
44	0xbce0f4fe	-0.027460571
45	0xbc4ef6d0	-0.012632087
46	0x3dddaa62	0.108235136
47	0x3e1768ec	0.14786118
48	0xbe553272	-0.20820025
49	0x3e95b392	0.29238564
50	0x3d920114	0.07129112
51	0xbd159509	-0.036519084
52	0xbd40a4dc	-0.047032222
53	0x3c98c519	0.018648671
54	0xbc8be24a	-0.017075676
55	0x3deb6c9c	0.11495325
56	0x3d7def06	0.06199553
57	0xbd7f562e	-0.062338047
58	0xbe03386a	-0.12814489
59	0x3d94ce16	0.0726587
60	0xbd49f35e	-0.04930436
61	0xbd8679e4	-0.065662175
62	0x3b8521cd	0.0040628673
63	0xbe1d13dd	-0.15339608
64	0xbdce77bf	-0.100814335
65	0xbbea7705	-0.0071553015
66	0x3d8c96b0	0.06864679
67	0xbe77becb	-0.24193875
68	0xbd94946b	-0.07254871
69	0xbdc19ef1	-0.09454144
70	0xbe11bdc9	-0.14232554
71	0xbcdfaa20	-0.027302802
72	0x3df1cacf	0.11806261
73	0xbc01a220	-0.007912189
74	0x3e74c1da	0.23902074
75	0xbdae4806	-0.08509831
76	0xbd4a5550	-0.049397767
77	0x3c20b62b	0.009809057
78	0x3e6594bd	0.2242002
79	0xbd63e6ac	-0.055639908
80	0x3e429867	0.1900345
81	0x3d642e85	0.055708427
82	0xbda78ee8	-0.08181554
83	0x3e23ff82	0.16015437
84	0xbcac4b3c	-0.021031968
85	0x3d44b932	0.04802818
86	0xbe0e48c1	-0.13894941
87	0xbd95f39b	-0.07321855
88	0x3dd6ad82	0.10482313
89	0x3da115af	0.07865464
90	0xbcad137c	-0.021127455
91	0x3d222496	0.039585672
92	0xbdc97334	-0.098364264
93	0x3d61d985	0.055139083
94	0xbd25d44e	-0.040485673
95	0xbcb44209	-0.022004144
96	0xbd3f5bb7	-0.046718325
97	0x3e3849b6	0.17996868
98	0x3c9a7442	0.018854264
99	0xbe824b15	-0.25447908
100	0xbe0dd16b	-0.13849418
101	0xbd81d155	-0.06338755
102	0x3e0606fa	0.13088599
103	0x3dc64c66	0.096825406
104	0xbe09b37a	-0.13447371
105	0xbe08dbc3	-0.13365082
106	0xbccaec08	-0.024770752
107	0x3d36c40a	0.04462055
108	0x3adc5b07	0.0016811796
109	0xbce7a719	-0.02827792
110	0x3e024157	0.12720238
111	0xbe0b0308	-0.13575375
112	0x3db6ccaa	0.08925755
113	0x3d30c312	0.043154784
114	0xbda85067	-0.082184605
115	0xbd0751ca	-0.033036985
116	0xbc865c98	-0.016401574
117	0x3ce7547b	0.028238526
118	0xbdc3d5ad	-0.0956224
119	0xbdaf2360	-0.08551669
120	0xbc415ecd	-0.011802387
121	0xbc6023b2	-0.013680385
122	0xbca2c9f9	-0.019871699
123	0xbd5127e5	-0.051063437
124	0x3b3a1acd	0.0028397322
125	0x3dbb20ba	0.091371015
126	0xbde30229	-0.110843964
127	0xbe3077e8	-0.1723324
128	0x3d3c6eb4	0.046004012
129	0x3d81aa8f	0.063313596
130	0x3dd9b05c	0.10629341
131	0xbe0f1187	-0.1397153
132	0x3e2849f8	0.16434467
133	0x3e43d9f9	0.19126119
134	0xbdb3c835	-0.08778421
135	0xbd859fd2	-0.06524624
136	0xbe16bf84	-0.14721495
137	0xbd24f364	-0.040271178
138	0x3cd5f1ae	0.026116218
139	0xbd9dc967	-0.0770443
140	0x3cd04462	0.025423232
141	0x3d24ac6b	0.040203493
142	0x3cb675fe	0.02227306
143	0xbe90158e	-0.28141445
144	0xbde9dbf4	-0.11418906
145	0x3c0aebc8	0.008479066
146	0xbdbcc2b0	-0.09216821
147	0x3e47e66d	0.19521494
148	0xbe06c7e6	-0.13162193
149	0x3da89e5f	0.08233332
150	0x3ded3020	0.11581445
151	0xbbbe85ff	-0.0058143134
152	0xbdc24625	-0.09486035
153	0x3c0d5425	0.008626019
154	0x3e147b69	0.14500202
155	0xbcad97a7	-0.021190478
156	0xbd214e26	-0.03938117
157	0xbd33a0b0	-0.043854415
158	0xbdadeab2	-0.0849203
159	0xbd4c43cd	-0.049869347
160	0x3dab5cd8	0.08367318
161	0x3cbd1d99	0.023085402
162	0x3de97595	0.1139938
163	0x3e2e9e24	0.17052513
164	0xbdccea53	-0.10005631
165	0x3cef471b	0.02920871
166	0x3cd6b44f	0.026209025
167	0x3e82b563	0.25529012
168	0x3c6f7d35	0.014617254
169	0xbddd5c0e	-0.10808574
170	0xbc797bd0	-0.015227273
171	0xbd0f0705	-0.034918804
172	0x3df546e7	0.11976414
173	0xbe0bac41	-0.13639928
174	0xbcd3fefe	-0.025878426
175	0x3d977180	0.07394695
176	0x3dc5bfaa	0.09655698
177	0xbadb2ef6	-0.001672237
178	0x3e25919b	0.16168825
179	0x3db71534	0.08939591
180	0x3d5940c7	0.053040292
181	0x3d2aaf07	0.041670825
182	0x3d6be779	0.057593796
183	0x3e3ea335	0.18616946
184	0x3d88514b	0.066561304
185	0xbdf9485f	-0.12172007
186	0x3ba41100	0.0050069094
187	0xbe0e780e	-0.13912985
188	0x3da016a5	0.07816819
189	0xbdbdfd91	-0.092768796
190	0xbbb220d6	-0.0054360433
191	0xbcabe4fc	-0.020983212
192	0x3debaf3b	0.11508032
193	0xbea9b99b	-0.33149418
194	0xbd5602b3	-0.052248668
195	0xbd574543	-0.052556287
196	0x3de2bdb6	0.11071341
197	0x3e0104e6	0.12599525
198	0xbda32b92	-0.07967295
199	0x3e581bac	0.21104306
200	0xbbe4f3e9	-0.006987084
201	0xbca8cc97	-0.020605369
202	0x3c8af80b	0.01696398
203	0x3dbb06e9	0.091321774
204	0xbdb14f38	-0.08657688
205	0x3dfd141d	0.12357352
206	0xbb9d232c	-0.0047954526
207	0xbd0831a7	-0.033250477
208	0x3d8683c3	0.065681
209	0xbe207347	-0.15668975
210	0xbe768890	-0.24075532
211	0xbd46b258	-0.048509926
212	0xbdb43e73	-0.08800974
213	0x3d553651	0.052053753
214	0xbcf88d32	-0.030340765
215	0xbdd5c3cf	-0.10437738
216	0xbe16afe1	-0.1471553
217	0x3e22e592	0.15907887
218	0xbdc199c4	-0.094531566
219	0xbdbb6538	-0.09150165
220	0xbdc01e03	-0.09380724
221	0x3e4793ec	0.19490021
222	0xbd45c211	-0.04828078
223	0x3d82cac5	0.063863315
224	0x3e2335db	0.15938513
225	0x3dceab13	0.100912236
226	0x3d8291d1	0.063754685
227	0xbe53a9fd	-0.20670314
228	0x3e52eb02	0.20597461
229	0xbd3cde31	-0.046110336
230	0x3e033c78	0.12816036
231	0xbde30daf	-0.11086594
232	0x3dd39842	0.10331775
233	0x3db1bd5c	0.086786956
234	0x3d536024	0.05160536
235	0xbd1a3222	-0.037645467
236	0x3c17806e	0.009246929
237	0xbe42d6aa	-0.190272
238	0x3d4ca1dd	0.049959052
239	0xbe1882d5	-0.14893658
240	0x3d18e9e3	0.037332427
241	0xbd9027b7	-0.07038825
242	0x3d0a68cd	0.033791352
243	0x3e6289df	0.22122906
244	0x3ddb40fe	0.10705756
245	0xbd65f0e6	-0.05613794
246	0x3d24cf03	0.040236484
247	0xbb5d8116	-0.0033798865
248	0xbe946a88	-0.28987527
249	0xbe6e3cca	-0.23265377
250	0x3e25530e	0.16144964
251	0xbdda88c7	-0.106706195
252	0x3d1e6bc1	0.03867698
253	0xbdd23050	-0.10263121
254	0xb9d0a6f9	-0.00039797256
255	0x3c588d20	0.013217241

gru.bias_ih_l1 f4 [150]
0	0xbdeff0b3	-0.117158316
1	0x3ba26663	0.004956053
2	0x3d33095f	0.04371011
3	0xbda662df	-0.08124327
4	0x3d144950	0.03620273
5	0xbd7cf736	-0.061759196
6	0xbda3e29b	-0.08002206
7	0xbd077c08	-0.03307727
8	0xbe3d5fa8	-0.18493521
9	0xbe4b6965	-0.19864424
10	0x3da82baa	0.08211453
11	0xbd2c7780	-0.04210615
12	0xbdefbb3d	-0.11705635
13	0x3db75472	0.089516535
14	0xbcd8f785	-0.026485214
15	0xbdc6c9ca	-0.09706457
16	0x3d61c2df	0.055117484
17	0x3db7b8d5	0.08970801
18	0x3b9798a3	0.00462635
19	0xbe24d7c5	-0.16097935
20	0xbdb3af52	-0.08773674
21	0xbde52e79	-0.111905046
22	0xbd6c21c8	-0.057649404
23	0xbd35f958	-0.044427246
24	0x3e3be2a0	0.1834817
25	0xbe35788b	-0.17721765
26	0xbe11c4cd	-0.1423523
27	0xbc403621	-0.011731655
28	0xbd9eb505	-0.077493705
29	0xbc68fef4	-0.014220942
30	0xbe236d24	-0.15959603
31	0x3d5039ca	0.050836362
32	0x3e03b223	0.12860923
33	0xbdc3c39e	-0.095587954
34	0xbe34a30e	-0.17640325
35	0xbe074452	-0.13209656
36	0xbe211a40	-0.1573267
37	0x3c35fab1	0.011107133
38	0xbe06686b	-0.1312577
39	0x3d886c41	0.06661273
40	0xbcf10936	-0.029423337
41	0xbd0af45c	-0.033924446
42	0xbe01a129	-0.12659134
43	0xbd53cdfa	-0.051710106
44	0x3d68a4d5	0.05679782
45	0xbd4e06ba	-0.050299384
46	0x3dd87bc8	0.105704844
47	0x3dc916a4	0.098187715
48	0xbcf7c3bf	-0.030244706
49	0x3d1ae2c9	0.037813935
50	0xbebe0544	-0.37113392
51	0xbdadf0e6	-0.08493213
52	0xbe9f63d2	-0.31130844
53	0x3e66c9a6	0.2253786
54	0x3c931e4b	0.01795878
55	0xbe0d4394	-0.1379531
56	0xbeb1cb41	-0.34725383
57	0xbbef18d3	-0.0072966604
58	0x3e4c5318	0.19953573
59	0x3ddc4cef	0.107568614
60	0xbdff1a72	-0.12456216
61	0xbe1c987f	-0.15292548
62	0xbebccb52	-0.3687387
63	0xbf27868f	-0.65439695
64	0x3dffa0a8	0.124818146
65	0x3da936c3	0.08262398
66	0xbd8b35b9	-0.06797356
67	0xbe717da3	-0.23583083
68	0xbebbb028	-0.36657834
69	0xbea5a254	-0.3235041
70	0xbe819ce4	-0.2531501
71	0x3cc74266	0.024323653
72	0x3d78d42f	0.06074923
73	0xbde7abd4	-0.113120705
74	0xbe2624cf	-0.16224979
75	0x3e36b39a	0.1784195
76	0xbe7c94c7	-0.24666129
77	0xbe4db3cf	-0.20088123
78	0xbe4e785f	-0.20163105
79	0xbe4edb28	-0.20200789
80	0xbeb5c598	-0.35502315
81	0xbe205748	-0.15658295
82	0xbd1ebfb1	-0.03875703
83	0xbd353a1a	-0.044244863
84	0xbea72bb2	-0.32650524
85	0xbe845617	-0.2584693
86	0xbe97d0c3	-0.2965146
87	0xbf0e4356	-0.55571496
88	0xbe1eb37f	-0.1549816
89	0xbe323e0c	-0.17406482
90	0xbd71a3ce	-0.058994107
91	0xbeaddac1	-0.33955958
92	0xbe6799de	-0.2261729
93	0xbe096737	-0.1341828
94	0xbe55a57f	-0.20863913
95	0xbf00253e	-0.5005683
96	0xbd982449	-0.07428796
97	0xbe8f81a1	-0.28028587
98	0xbf02b493	-0.51056784
99	0xbebb7967	-0.3661606
100	0xbe227c4d	-0.1586773
101	0x3dc9acc5	0.09847406
102	0x3de4c9a7	0.11171275
103	0x3dcd8749	0.10035569
104	0xbc3df4eb	-0.0115940375
105	0xbd53e13a	-0.051728465
106	0xbe09b653	-0.13448457
107	0xbd34fc47	-0.044185903
108	0xbdc90772	-0.09815873
109	0xbd0f5e20	-0.035001874
110	0x3de64ada	0.112447456
111	0xbc6b5025	-0.01436237
112	0xbde7b046	-0.11312918
113	0x3d14b429	0.036304627
114	0xbdf850b9	-0.121247716
115	0x3cfc56b2	0.030803058
116	0x3d4f5e7a	0.05062721
117	0xbccc6b0a	-0.024953384
118	0x3dbfddb2	0.09368457
119	0x3cc7245c	0.02430933
120	0x3d376dca	0.044782437
121	0xbd14532a	-0.036212124
122	0x3dd8b75d	0.10581849
123	0x3e15db9a	0.14634553
124	0xbc97e73b	-0.018542876
125	0xbd823235	-0.063572325
126	0xbda713ac	-0.08158049
127	0x3d2a34e0	0.04155433
128	0xbccce852	-0.025013123
129	0xbd8eb6af	-0.06968438
130	0xbd4f8e84	-0.050673023
131	0xbdd4d35f	-0.10391878
132	0xbbe98387	-0.007126275
133	0xba466df9	-0.0007569488
134	0x3c9f00b0	0.019409508
135	0x3caa3dac	0.02078136
136	0x3d0dbc52	0.034603424
137	0x3d19db2e	0.03756254
138	0xbd138bd5	-0.036022026
139	0xbddf491b	-0.10902616
140	0xbd2f5fc9	-0.042815957
141	0xba32a34e	-0.00068144954
142	0xbdcb0c39	-0.09914441
143	0x3cda2722	0.026629988
144	0xbde1cd46	-0.11025481
145	0xbd1906a6	-0.037359856
146	0x3d86454d	0.06556187
147	0xbd41d573	-0.0473227
148	0xbc511c30	-0.012763068
149	0xbd9009cc	-0.070331186

gru.bias_hh_l1 f4 [150]
0	0xbc02483f	-0.007951795
1	0x3dde8b97	0.108664684
2	0xbc6abaf1	-0.014326797
3	0xbc8e1234	-0.017342664
4	0x3cc1ad75	0.023642281
5	0xbd1ea14f	-0.038728055
6	0x3dbced5f	0.092249624
7	0x3db992b8	0.090611875
8	0xbcf2a66e	-0.029620375
9	0xbdfb0739	-0.12257237
10	0x3d24f2f8	0.040270776
11	0xbdbae8e0	-0.09126449
12	0x3d40c507	0.0470629
13	0x3b41978b	0.002953979
14	0xbe6ca11b	-0.23108332
15	0xb80911d0	-3.2679935e-05
16	0xbe262879	-0.16226377
17	0xbcb428ff	-0.021992205
18	0xbe1c4567	-0.1526085
19	0xbe2e4e7d	-0.17022128
20	0xbdc8749f	-0.09787869
21	0xbdd7236a	-0.105048016
22	0xbc8f01a9	-0.017456846
23	0xbc48634c	-0.0122307055
24	0x3de0fd2e	0.1098579
25	0xbe56f07c	-0.20990175
26	0xbdf6f7cf	-0.120589845
27	0xbdb84da4	-0.08999184
28	0xbe496a75	-0.19669516
29	0xbda14200	-0.078739166
30	0xbe107a45	-0.14109142
31	0xbd94b8c1	-0.072618015
32	0xbdde27fa	-0.10847469
33	0xbdc285e6	-0.09498195
34	0x3c596ac0	0.01327008
35	0xbddbe235	-0.10736505
36	0x3d92d128	0.071688
37	0x3e032e26	0.12810573
38	0xbdc7439a	-0.09729691
39	0x3d9d13e6	0.07669811
40	0xbcbdb563	-0.023157781
41	0xbdb72f74	-0.08944598
42	0x3e02fd28	0.12791884
43	0xbd57dd32	-0.052701183
44	0x3d101dc5	0.03518464
45	0x3dc1ec91	0.094689496
46	0x3ded0b55	0.11574427
47	0xbd02748b	-0.031849425
48	0xbe152dea	-0.14568296
49	0x3d697bc7	0.05700281
50	0xbebb10c4	-0.3653623
51	0xbe0ce469	-0.13759007
52	0xbdf39755	-0.11894099
53	0x3d23303f	0.039840933
54	0xbe01b785	-0.12667663
55	0xbeafa39c	-0.34304512
56	0xbf0334c3	-0.51252383
57	0xbe12338b	-0.14277475
58	0x3d97becc	0.074094385
59	0xb93b43af	-0.00017858924
60	0xbdc0323a	-0.0938458
61	0x3d013281	0.031542305
62	0xbecb66ff	-0.39727017
63	0xbf320c70	-0.6955023
64	0x3d224d15	0.039624292
65	0x3de4f480	0.11179447
66	0xbe862afd	-0.26204672
67	0xbe9ca0a7	-0.30591318
68	0xbe5aa916	-0.21353564
69	0xbebe5d3e	-0.37180513
70	0xbe34cb4a	-0.17655674
71	0xbc6addde	-0.014335124
72	0x3d63cf11	0.055617396
73	0x3d2dd991	0.042443816
74	0xbd9616b9	-0.07328553
75	0x3cdc111f	0.026863633
76	0xbe0fa8e9	-0.14029278
77	0xbe17ae2e	-0.14812538
78	0xbda62e6a	-0.081143215
79	0xbe234bc9	-0.15946878
80	0xbe6d73b2	-0.23188666
81	0xbe9c6bc2	-0.30550963
82	0xbd9c3a7d	-0.07628343
83	0x3d591b3a	0.05300448
84	0xbe4ca72c	-0.19985646
85	0xbdfb982b	-0.12284883
86	0xbe9eebbf	-0.31039235
87	0xbedd8342	-0.43264204
88	0xbdba4760	-0.09095645
89	0xbea4c358	-0.32180285
90	0xbcc83e5e	-0.024443801
91	0xbe61e500	-0.22060013
92	0xbed54e78	-0.4166143
93	0xbe64ea5f	-0.2235503
94	0xbe681f0e	-0.22668096
95	0xbee9ed61	-0.45688918
96	0xbe778fac	-0.241759
97	0xbe5eac02	-0.21745303
98	0xbf0069b7	-0.5016131
99	0xbe42deee	-0.19030353
100	0xbd8ea2c7	-0.06964641
101	0xbbf8fb58	-0.007598322
102	0x3cfe5956	0.031048458
103	0x3d7fc0e2	0.062439807
104	0x3db19272	0.0867051
105	0xbde88995	-0.11354367
106	0x3d9b807a	0.07592864
107	0x3d2d5f25	0.042327065
108	0x3d8e73da	0.06955691
109	0x3d421bd9	0.04738984
110	0xbdbc1b8f	-0.09184944
111	0x3d0022f5	0.031283338
112	0x3d822b1f	0.06355881
113	0x3dba1862	0.09086682
114	0x3d9afed1	0.075681336
115	0x3d9b4caf	0.075829856
116	0x3da354e0	0.07975173
117	0xbd21945a	-0.03944812
118	0xb819368a	-3.6528836e-05
119	0xbd6c30f0	-0.057663858
120	0xbd290d25	-0.0412723
121	0x3de08e10	0.10964596
122	0x3e08ff0d	0.13378544
123	0x3d8fbdce	0.07018624
124	0x3d8842a3	0.06653335
125	0xbd191989	-0.037377868
126	0x3c99d169	0.018776612
127	0x3d2d8fae	0.04237335
128	0x3d1506f2	0.036383577
129	0xbdb7d105	-0.08975414
130	0xbdbd7f30	-0.09252775
131	0xbc9bf768	-0.01903887
132	0x3e019190	0.12653184
133	0x3c8ec03d	0.01742565
134	0xbc696e05	-0.014247422
135	0x3cea00cf	0.028564839
136	0xbddacd06	-0.10683636
137	0x3dccc575	0.099985994
138	0x3d177d0e	0.036984496
139	0x3de919b7	0.11381858
140	0x3d7b1122	0.061295636
141	0x3b946991	0.004529186
142	0x3ccaab45	0.02473987
143	0x3df05228	0.1173442
144	0x3e00572c	0.12533253
145	0x3daad84c	0.083420366
146	0x3cf58966	0.029972743
147	0x3cfda6e1	0.030963363
148	0x3d7a0580	0.0610404
149	0x3dfaac1e	0.1223986

fc.weight f4 [1, 50]
0	0xbe2f3679	-0.17110623
1	0x3c956dbd	0.018240804
2	0x3df2ff1c	0.118650645
3	0x3d5ec96e	0.054391317
4	0xbd3f7241	-0.04673982
5	0xbdef189a	-0.11674614
6	0xbda6f30f	-0.081518285
7	0xbd8cf31c	-0.06882307
8	0xbd9c7ad0	-0.07640612
9	0xbd8f8af7	-0.07008927
10	0xbcedc45b	-0.029024294
11	0xbdb7e1af	-0.089785926
12	0xbdf39434	-0.11893502
13	0xbe01f597	-0.12691341
14	0xbddc8318	-0.10767192
15	0xbc82671a	-0.015918303
16	0xbd9db23d	-0.07700012
17	0xbd56c0bb	-0.052429896
18	0xbd4effd2	-0.050536938
19	0x3e16c9de	0.14725444
20	0xbdf9e464	-0.12201765
21	0x3dc945ae	0.098277435
22	0x3e1ee766	0.15517959
23	0x3e062bea	0.1310269
24	0x3db799b2	0.08964862
25	0x3da39863	0.0798805
26	0x3d2dac90	0.042400897
27	0xbdf7a577	-0.12092107
28	0x3dd31218	0.103061855
29	0xbe03604e	-0.12829706
30	0x3d43f7f8	0.047843903
31	0xbd7df310	-0.06199938
32	0x3dc54be9	0.09633619
33	0x3d912620	0.0708735
34	0xbdb28afe	-0.08717917
35	0xbdcae016	-0.09906022
36	0xbdac1d93	-0.08404078
37	0x3d41a856	0.04727968
38	0x3b91a89b	0.004445148
39	0x3d901d6f	0.07036864
40	0xbe193f35	-0.14965518
41	0xbd5f9499	-0.054585073
42	0xbe225976	-0.15854439
43	0xbd56f9d7	-0.05248436
44	0x3d9bcb44	0.07607129
45	0xbda0ad9e	-0.07845615
46	0x3ab77a02	0.0013998153
47	0x3d9f5298	0.077794254
48	0x3b3503a6	0.0027620583
49	0xbdb857be	-0.090011105
