models/lstm_model.pth (torch, 208489 bytes, 9 tensors)

lstm.weight_ih_l0 f4 [256, 5]
00000000: 7da8 9d3c 581a 893d 4653 0bbc 08ca 083e
00000010: c8e8 90bd c67d 75be 71df 90be 1db8 59be
00000020: 9eb6 b0bd 4680 9ebe 29f9 9f3d 66e1 023e
00000030: 1aa7 5cbd c7ce 623c 79a4 0bbf 385f 0fbe
00000040: ef40 80be 4efc 6bbe 13d8 89bd 0c96 98be
00000050: 91be 713d f7b5 db3c 078d 0dbd 2e9c 3e3e
00000060: 5f8c eabd c73e 57be 6f39 c3bd 0d15 4bbe
00000070: cf4d d7bd 66c3 0f3f e996 023e c8ab 3bbd
00000080: 4ee3 373e def1 63bd d724 a6be 1390 cdbd
00000090: b8e8 4cbe b84d 5abd a2d5 c3bd 52a4 733e
000000a0: a97e 6cbe 55b7 6ebe 8cf2 53be 3bdb 3ebe
000000b0: 65b0 cabd 76e0 b03d 88a1 d23d 2624 973d
000000c0: a559 0d3e 6c91 3fbe c0f2 0a3e 8a96 3d3d
000000d0: 8c1e 5c3e 6710 49bd 65af c4bc d216 81bd
000000e0: 2158 5bbe 114f 35be 1960 08be 87a0 de3e
000000f0: 78f5 41be d5ca 883d 07da 35bd 24d6 453d
00000100: a1e6 323e 3871 83bd 63ea 83be 11c3 6dbd
00000110: b1e5 c73c 90cc 7c3e 3d97 0fbb 7e55 9b3c
00000120: 1afa 0fbd e79c b0bd e5e1 c1be e389 97be
00000130: 550b 47be 2f96 abbe 3fa9 89bd 9200 fcbd
00000140: 2e7a 21be e277 60be 91d8 30be 3dad 48bd
00000150: c98d 11be d1b2 8fbe fbd8 c7be b005 babe
00000160: 1c2a 8bbd 4a6a fabe a0df d1be a7de f5be
00000170: 98a1 0bbf 2f0b c4be 867e 02bf 7068 9bbe
00000180: ac11 a5be cd89 89be 53fa a7be d1f2 8e3c
00000190: 75f4 df3d a5ef 1e3e 9d33 e13d 99a2 e33c
000001a0: af61 a4be 6d0c 003f 7310 0c3f f7b8 b73e
000001b0: 1c33 a63d 0a60 f53c 083d 893a 59de c5bd
000001c0: 4780 babd 0c0d 1c3d 0294 073e 87cb 61be
000001d0: a209 86be 8b1a 5bbe 47ef a2bc 77fe 54be
000001e0: 20b2 4dbe f502 9abe 644e 27be 5af9 45be
000001f0: 8014 52be 4652 9c3d 8faf 3a3c 3006 f13d
00000200: f035 9b3c 7f1b e2be 17a0 14be 2085 283d
00000210: 0c57 1bbe 4d5e cc3d fc24 f8bd 07e5 61be
00000220: d6bd 60bd d3bb 04be 2f0b 4ebe 29c3 a0be
00000230: 39cb 633d cc63 c8bb 8b0c 633d e546 80bd
00000240: 39c9 c0be f3a3 013d 3078 9fbd fdc8 79bc
00000250: 911f 423e d95c d3be 766b 3e3e acf4 283e
00000260: cac6 193e 40ba 083e a70f a6bd 27fe 59be
00000270: bfe8 f4bd 78cf 49bd a41d 5fbe e128 91bd
00000280: 8bfb 8abd 530e 683d 9a1c 19bd 053e 193d
00000290: 007a 55bd 4541 ddbd a9f4 653c a4dc 03be
000002a0: acc3 19bc 0a8d 673d dbac 303d f0a9 a1bc
000002b0: e808 8dbc 78e5 0e3e ab62 37be c4ee 4dbd
000002c0: 3dde 093e 9be7 fc3d 3bc5 883d 9c98 9fbe
000002d0: dbb4 ba3d 0902 1abc fd22 2c3c b8a8 c73d
000002e0: 3f82 c5be 8e34 2ebd c255 02bd 232e 843d
000002f0: 6463 1f3d 9281 1bbe 4bd4 0b3e 7162 493c
00000300: f4e8 523d 43b5 1dbd 0628 5cbe 0687 9cbe
00000310: 7c86 a7be 3518 4cbe 376e acbe 1826 9abe
00000320: 8d32 51be 2432 a9be 6793 a8be aac0 c33d
00000330: d921 94be 620d 34be 1712 1fbe 6cea 36be
00000340: 1c69 263d b9f4 39be fd15 48be deb2 5ebe
00000350: 1e88 a2bd 5084 babd f68e 69be c40b 9c3d
00000360: 5461 f73d 2847 173e fad6 1c3e cde8 4b3e
00000370: 79c6 6fbe 4b8b 8cbe 9418 75be 9730 56be
00000380: 7e33 6fbd 168b b83d 534f c23d b833 b43d
00000390: 3d9f 913d e2f5 1abf b6eb a73d 2102 e03d
000003a0: 22e6 c23d c363 c63d 873f a33e ce8b 12bd
000003b0: b712 93bd 38c9 103e cb98 ef3d 2695 23bc
000003c0: c2f9 f83d 5260 423d 55a4 323e 7230 5dbe
000003d0: 3ccd f7bc b085 0dbe dbf2 cbbd 600a 653d
000003e0: aede 0dbe f133 aa3d c1f1 5dbe 07b5 40be
000003f0: 7f6e 81be 1c63 36be 4f20 2f3e b885 8ebe
0.01924538 0.06694478 -0.008503741 0.13358319 -0.070756495 -0.2397376 -0.28295472 -0.2126164
-0.086285815 -0.3095724 0.078111954 0.12781295 -0.053870298 0.013843245 -0.5454784 -0.14001167
-0.2504954 -0.23045465 -0.06730666 -0.29801977 0.05901963 0.026820166 -0.034558322 0.18614265
-0.11452555 -0.21020041 -0.09532439 -0.19832249 -0.10512888 0.5615753 0.1275288 -0.04581812
0.17957804 -0.055650584 -0.32449982 -0.100372456 -0.2001065 -0.053296775 -0.095622316 0.23793152
-0.23095192 -0.23312123 -0.20697993 -0.18638317 -0.09896926 0.086365625 0.10284716 0.07379942
0.13803728 -0.18707818 0.13569164 0.046286143 0.21496028 -0.049087908 -0.024009416 -0.06303181
-0.21420337 -0.17705943 -0.13317908 0.43481848 -0.18941295 0.06679312 -0.04439738 0.048299924
0.1747079 -0.06418079 -0.2576476 -0.058047358 0.024401518 0.2468741 -0.0021910213 0.018961664
-0.035150625 -0.08623677 -0.37867656 -0.29597387 -0.19437917 -0.33513018 -0.06721734 -0.12304796
-0.15769264 -0.21920732 -0.17270114 -0.048993338 -0.14214243 -0.28066114 -0.3903273 -0.36332464
-0.06795141 -0.48909217 -0.40990925 -0.48021433 -0.5454345 -0.38289782 -0.5097431 -0.30353117
-0.32240045 -0.26862946 -0.3280817 0.017449768 0.10935298 0.15521105 0.109961726 0.027787494
-0.32105777 0.5001896 0.547126 0.35883304 0.08115217 0.029953022 0.0010470459 -0.0966155
-0.09106498 0.03809838 0.13240054 -0.22050296 -0.26179224 -0.21396844 -0.019889487 -0.20800196
-0.2008748 -0.3008038 -0.16338497 -0.19333401 -0.20515633 0.0763288 0.0113943955 0.11768758
0.018946618 -0.44161603 -0.14514194 0.041142583 -0.15169924 0.09978924 -0.12116429 -0.22060023
-0.05486854 -0.12962274 -0.20121454 -0.31398895 0.05561373 -0.0061154123 0.055431884 -0.06263522
-0.3765352 0.031650495 -0.07786596 -0.015245673 0.18957354 -0.41281775 0.1859568 0.16499585
0.15017238 0.13352299 -0.08108454 -0.21288358 -0.11958455 -0.049270123 -0.21788651 -0.07087875
-0.06786259 0.056654286 -0.037380792 0.037412662 -0.0521183 -0.10803465 0.014035382 -0.12877136
-0.009385031 0.05653099 0.043133598 -0.019734353 -0.01721616 0.13954723 -0.17908733 -0.050276533
0.13463683 0.12348863 0.06678244 -0.3117112 0.09116527 -0.009399899 0.010506389 0.097489774
-0.38575932 -0.04253059 -0.031820066 0.064541124 0.038913146 -0.15186146 0.13655202 0.012291537
0.051491693 -0.038502943 -0.21499643 -0.30571765 -0.3271979 -0.19931109 -0.33677837 -0.30107188
-0.2042944 -0.33046067 -0.3292496 0.09558232 -0.28932074 -0.1758323 -0.15534244 -0.17862862
0.040627584 -0.1815976 -0.19539638 -0.2174792 -0.079361185 -0.09107268 -0.22808442 0.076194316
0.12079111 0.14773238 0.15316382 0.19913025 -0.23415555 -0.27450022 -0.23935157 -0.20916973
-0.058398716 0.090109035 0.09487786 0.08798927 0.071104504 -0.6053144 0.08199255 0.10937906
0.095165506 0.09686997 0.31884405 -0.03577786 -0.07181304 0.14139259 0.11699065 -0.00998429
0.121570125 0.04745514 0.174455 -0.21600512 -0.03024923 -0.13820529 -0.099584304 0.055918097
-0.13854477 0.08310688 -0.21674253 -0.18819056 -0.25279614 -0.17811245 0.17102169 -0.27836394

lstm.weight_hh_l0 f4 [256, 64]
00000000: cf5b 9cbd c67f cbbc 2a0a 273d 4174 69be
00000010: 3998 803d 58e0 a7be e1d7 aabd a773 3b3d
00000020: fe8c ac3d 93f8 863b d95c fcbd 44e5 6cba
00000030: 809c 633c 5e50 b53d 0da3 07be 4960 883c
00000040: eb55 2dbd 242e 8c3c d52e 94bd 2248 3ebe
00000050: 456b aabd 5693 2c3e 1a19 dd3d 0cee 763d
00000060: b0a3 37bb 738f ddbd 9413 1f3d 5b05 2cbe
00000070: 4908 2f3d aa61 813d 4fa5 43bc 09c4 4e3d
00000080: 2620 fabc 9463 74bd eb00 b3bc b7da 5aba
00000090: e1ce 343e c6f9 2abc dbe9 9abd 2baa e3bd
000000a0: 10a7 fe3d 18e9 ecbd 699a 0bbe 6bf9 233d
000000b0: f885 353b 5234 b73c 14ba 8abc d48d 1dbe
000000c0: e2a5 45be 18d0 13be 2764 4e3d 51a3 b4bd
000000d0: 1256 323c 04aa ea3d 15cd 1bbd 9743 8bbd
000000e0: 3589 b9bd 71b4 223e c0bd 36bc 119e 433e
000000f0: 298d 003e e10b c5bb 9917 bb3d d323 e0bc
00000100: 12c2 ecbd 519e a5bd e0d3 90bb deeb f2bc
00000110: 5bc1 edbc c786 bf3c 40c4 973d 124a a8bd
00000120: 1181 ebbc 8d0f 01bc c2f0 d33b a6cf 9cbc
00000130: 2f1e 743d 4261 893d 660b f63d e88f cd3d
00000140: 9dd8 363e 4274 9939 7da2 633d c424 a33c
00000150: ea26 953c 597e 1e3d 4fdd ac3c bd33 0c3e
00000160: e60d f13d 84cc 8e3b 2802 e8bb 73a2 f0bb
00000170: 71b8 a6bd 2412 06be b1ab 5c3c d788 083e
00000180: 51c7 a23d 9f30 28bd a01d 07be 0e74 e73d
00000190: 44ea 0bbe 09a3 fe3c 665d 5b3d ff81 2d3d
000001a0: 1041 52bc a343 1f3c f8a9 92bd 6629 313d
000001b0: 1c51 2b3e 1fc8 023e 4386 71bc 94d1 0f3c
000001c0: bffe 08be 7897 a1bd 4153 d7b7 35e8 9b3c
000001d0: 151c 4ebe 1051 a23d 01a3 9fbc 97ad 213e
000001e0: 6af1 0e3e f5a5 a1bd a718 cb3c 0f4f eb3d
000001f0: 445c 813d 8b13 b2bd f39f 733e 9ce2 3bbd
00000200: a6fc 02be d2e1 87bd ab2f 6abe 80a4 903d
00000210: d421 853d dc6d 84bd 16fe 653e b40d ce3c
00000220: c439 ab3d fe70 313e 6ff5 983d 9e8e 1c3e
00000230: 2323 123d cbf8 e73d abac b93d 28a9 febd
00000240: aa38 043e bac8 9ebd 6913 d0bd 35ff 1ebe
00000250: 8dde d4bc 722c 28bd 4079 4b3d 284f 723c
00000260: e80b c0bd b320 0d3c a3ba 203d 2bed fdbd
00000270: b530 8abd 0f97 f4bb 69ab 5e3c 7c28 b0bd
00000280: 583e 3cbe e010 2e3e f5f1 4e3d 4190 193d
00000290: db4b 44be badc 2fbe 35a0 cc3b 368b 32bd
000002a0: fdf6 a7bc 5332 aebd af1d 1abe 8818 c03c
000002b0: 4473 033e 4540 6c3e e0ad 4ebe 6f42 0bbe
000002c0: 157e 9a3d 3358 93be 3f72 0f3e b0fa 463e
000002d0: b04a b13d e75e 0ebe df9f 393d c057 d43c
000002e0: e9a0 c33d 1aa4 85bd d031 8ebc 4208 19be
000002f0: 7db0 ecb9 d095 2ebd ffaa 0d3d b702 2bbb
00000300: 981b 2e3e 7d81 2cbd 1dfb 73bd 094c 833d
00000310: 01db 9a3e 7096 d5bd 28e6 623d 9416 55bd
00000320: c75a f7bc 8fc6 18bd a822 babc 8019 8abd
00000330: 90f1 3e3d 8f20 173e 859e cbbd fa58 5b3c
00000340: 83cb 91bd 5b14 cebd d9ff f33d 4678 1c3d
00000350: 1cf9 323e d0ae 563d 9b9d 193b 8d60 32be
00000360: 6830 4bbe f2ae bdbd 4e22 0c3c f415 b0bd
00000370: 2099 bbbc bfc1 88bd 2d94 ccbd f360 bebd
00000380: d7fb 6fbd 5a6c c43d a233 8b3d 384d aabd
00000390: 5220 51bc 6928 223b a410 28bd 6fcb 973c
000003a0: 02fd 64be 59c3 df3d 34ff 39be 2f4f acbd
000003b0: 5479 d6bc 20bd d63c 9517 7ebc 8c31 b63d
000003c0: 5b77 11bd 8fbd 78bd 2d7c 7b3d a011 6cbd
000003d0: 00e8 c13d e6e8 0dbd 3e71 9dbd f464 c2bd
000003e0: 67e6 e4bd 34d4 a8bc b642 373d c4e3 fd3d
000003f0: 76e2 68bc 923c c73d 8c61 16bc 6125 863d
-0.076346986 -0.0248412 0.040781178 -0.22798254 0.06279034 -0.32788348 -0.08341957 0.04576459
0.084253296 0.004118988 -0.12322397 -0.0009036849 0.013892293 0.088532194 -0.13245793 0.016647475
-0.042318266 0.017111845 -0.07235495 -0.18582204 -0.08321241 0.16853079 0.10795803 0.060285613
-0.002802115 -0.108183764 0.03883703 -0.16798918 0.04273251 0.06317456 -0.011941268 0.050479922
-0.030532908 -0.059665278 -0.021851024 -0.0008348631 0.17657043 -0.010435527 -0.07564136 -0.11116441
0.124342084 -0.115678966 -0.13633122 0.040032785 0.002769826 0.022363815 -0.016934432 -0.15386134
-0.1930156 -0.1443485 0.05038848 -0.08820213 0.010884779 0.11458209 -0.03803738 -0.06800001
-0.09059373 0.15889145 -0.011153638 0.19103266 0.12553848 -0.006013379 0.0913536 -0.027360832
-0.115604535 -0.08086837 -0.0044197887 -0.029653486 -0.029022863 0.023379697 0.074104786 -0.08217253
-0.028748067 -0.007877243 0.0064679096 -0.019141983 0.059599098 0.067080036 0.12013893 0.100372136
0.17856069 0.00029269053 0.055574883 0.019914992 0.018207032 0.038694713 0.021101622 0.13691612
0.11770229 0.0043578763 -0.007080335 -0.007343584 -0.08140648 -0.13092858 0.013468669 0.1333345
0.07948173 -0.041061994 -0.13194895 0.113014325 -0.13663584 0.0310836 0.05355587 0.042360302
-0.012832895 0.009720716 -0.07161325 0.04325237 0.1673016 0.12771653 -0.014741483 0.008777995
-0.13378428 -0.078902185 -2.5668765e-05 0.019031623 -0.201279 0.07925618 -0.019486906 0.15788876
0.1395928 -0.07892982 0.024792029 0.114896886 0.063164264 -0.08695134 0.23791485 -0.04587041
-0.1279169 -0.06634869 -0.22869746 0.07062626 0.06500593 -0.064662665 0.22460207 0.025153019
0.08360627 0.1732826 0.07468688 0.15288779 0.03567804 0.1132675 0.09066137 -0.12434608
0.1291224 -0.07753129 -0.10159952 -0.15527041 -0.025985027 -0.04105801 0.04967618 0.01478938
-0.09377271 0.008613753 0.03924049 -0.12398752 -0.067475714 -0.0074642967 0.013590672 -0.08601472
-0.18383157 0.16998625 0.050523717 0.037491087 -0.19169562 -0.17174044 0.006244684 -0.043589793
-0.020503515 -0.08505692 -0.15050386 0.023449197 0.12836939 0.23071392 -0.20183516 -0.13599561
0.075435795 -0.28778228 0.14008425 0.19431567 0.08656824 -0.1390339 0.04531848 0.025920749
0.095521756 -0.065254405 -0.017357737 -0.14944556 -0.00045144922 -0.04262334 0.034586903 -0.0026094147
0.17002714 -0.042115677 -0.059565652 0.06410987 0.30245212 -0.10429084 0.055395275 -0.052023485
-0.030194653 -0.037298735 -0.022721604 -0.06743145 0.04661709 0.14758514 -0.099423446 0.013387913
-0.07118895 -0.10062476 0.119140334 0.03820064 0.1747784 0.052412808 0.0023439887 -0.17419644
-0.19842684 -0.09261884 0.008553101 -0.08597937 -0.022900164 -0.06677579 -0.099892 -0.09295835
-0.058589783 0.09590979 0.067969576 -0.083155096 -0.012764053 0.0024743325 -0.041031495 0.018529622
-0.2236214 0.109259315 -0.18163759 -0.084135406 -0.0261809 0.026213229 -0.015508552 0.08896169
-0.035514217 -0.060727652 0.06139772 -0.057633996 0.094680786 -0.034645937 -0.07687615 -0.094919115
-0.11176758 -0.020608999 0.044741355 0.123969585 -0.014214149 0.0972835 -0.00917853 0.06550098

lstm.bias_ih_l0 f4 [256]
00000000: e48f 59be 02b7 6bbe 4391 f2bd ff29 9fbe
00000010: 45be f0bd 7722 c43d f18b aabd 8ad5 70bd
00000020: 4490 61be 5187 dfbd a7c7 833d 3b46 debc
00000030: 1f14 8abd a7f8 5fbe a6e4 28be 9878 aebe
00000040: 09a9 e7bd 6e7f 0bbf 17f1 08bf f963 22be
00000050: adaf 44bd a18a ed3d 6fef 20be 2ef0 99be
00000060: 4d95 71be 1d1b c83b cf04 12be ce26 5cbd
00000070: 9dab 43bc 0382 a139 124e 0dbe c0ce 0fbe
00000080: 2a27 19be e6e7 b8bd c29c 153d 4c57 0abe
00000090: 7fd5 f3bd d0fc 71bd b62c 63be 3fe6 14be
000000a0: da4d e8bd 2098 2dbe dccb 36be 8d6e 7ebd
000000b0: 4efa f8bd 55c1 43be 4ffc 06bd d4f4 5d3d
000000c0: 64f5 093d 220e 993d 4b69 7abe 17af 91be
000000d0: 5322 4abe 4853 eabd 89c8 5fbe 6d74 04bf
000000e0: 03e7 3f3d 69f2 56be c95e a7be ed39 9ebe
000000f0: 2799 fcbe 5bc1 67be e2a3 50bd 20d6 d8bd
00000100: c2fa eebd cb75 babd 7788 e13d 75c9 aebd
00000110: 5294 cd3c 3624 a43d ca40 eb3c dc2a 9bbd
00000120: 5b3f 5ebe 1ea6 b33d d710 e23d 44ca f4bd
00000130: 1aab 20be 8e8c a2bc 64ad 7d3c 113d 4abe
00000140: d490 a43e 1974 00bf 28a2 b5be a080 55be
00000150: 6ccb eabc 8e28 c5bc bc5c dcbd 6ace a1be
00000160: 754f 07be be68 41bd 7f0c b3bd c36b 0dbe
00000170: b4e9 1ebd 5009 6abd 2898 9abd 57ed 4cbe
00000180: 88d7 5cbd fe6c 2bbd e221 14be b7b6 8b3c
00000190: 85e6 533d 7376 03be ba89 08be 5357 30be
000001a0: 6600 9b3b 23d3 d7bd b69f 23be 0ccb d1bd
000001b0: 1b7c 08be 5bd0 acbd ffec afbd 9145 95bd
000001c0: b639 e6bc bdd9 9dbd ef4b 41be e3f2 63be
000001d0: 0c90 28be 4835 f6bd 9534 0abe c1cd c1be
000001e0: 0ba1 54bd f3a7 51be bd49 1abe 50cc a6be
000001f0: fc3f b5be 1464 46bd 56bd 32be d4e1 673d
00000200: cac5 18bc 6132 60bc a7bc af3d 2bcf c53c
00000210: 5b95 6bbc 7b30 cb3c 8ab9 983c 57fc 1bbe
00000220: 816e 8d3d c67b 94bd 9bbd de3d 7246 18bc
00000230: 6c69 853d cf03 6e3d 4712 c9bc b3d3 f33c
00000240: 5ca1 d6bd 3028 a23d 8684 223d e698 923d
00000250: baba 6f3d 2697 02be 72ce 12bd 0d6a ab3b
00000260: c459 afbc c0b0 6dbd 0761 c33d 0b20 fd3d
00000270: 9221 42bd 3a5c 4dbd 1759 f2bd 6238 bcbb
00000280: b413 14be 6754 0cbd 7644 91bc 35ee 31be
00000290: f3c3 d63d 873f cdbd 96dd 1c3e bdde e53c
000002a0: c7c4 16bd 62ca a73d b5b4 043c a45d 20be
000002b0: bf75 4dbd 5563 19be 410d 15bc 90e6 94bc
000002c0: 6279 b13d be6f 993c d1d5 d3bd 54cb d539
000002d0: 7a26 373d 7099 b4bd 76b5 3f3d dca8 243d
000002e0: 27dc eabd def7 003d 6988 313c 2670 46bd
000002f0: 424c 31bd ba5a d73d 9cfc 443d 2f3d 133e
00000300: 2ea6 3ebd b797 3abe 0e6b 9ebd aac6 4bbe
00000310: 4abf bcbd 7aac a7bb 44ae 00be 4e92 2e3d
00000320: 1042 afbd 4c6f c03d 99af e53d a151 c1bd
00000330: a1c7 06be 80ed dbbd a4cd 3fbc e394 b6be
00000340: af2a 843d 0f2a f2be 1ecc 15bf e4c8 8bbe
00000350: 43f7 b6bd 48ac 763d 20a4 64be c4b1 91be
00000360: f5dc 54be 788d 3ebe 546f 05be 89de ac3b
00000370: a26f aa3c 0d39 b5bc 3506 b6bd d2a5 3ebe
00000380: d178 69bd b4d9 79bd f777 88bd d769 cd3c
00000390: 2068 6fbc 074b 10be 0211 11be 4280 a5be
000003a0: a624 fcbd 37f7 2cbe 64be 5cbe a777 93bd
000003b0: 8610 01be 4318 60bc 9793 f33d a4a4 e93c
000003c0: b91a 4e3d e832 413d 1828 01be 92dd 2cbe
000003d0: 89d8 ecbd 4a7e 64bd 7108 9ebc 347c b1be
000003e0: 808d 4fbd 404b 70be cf4f 52be 93f4 a8be
000003f0: 18b9 e7be c76a 56be a60d 4ebe 0cd8 553d
-0.21246296 -0.2301903 -0.11844113 -0.31086728 -0.11755041 0.09576886 -0.08327473 -0.058797397
-0.22027689 -0.109144814 0.06434565 -0.027133098 -0.06742119 -0.21872197 -0.16493472 -0.3407638
-0.11311538 -0.5449132 -0.53492874 -0.15858449 -0.0480191 0.11598707 -0.15716337 -0.30066055
-0.2359211 0.006106748 -0.14259647 -0.053747945 -0.011942771 0.0003080518 -0.13799313 -0.14043713
-0.14956346 -0.09028606 0.03652645 -0.13509864 -0.119059555 -0.05907899 -0.22185025 -0.14540957
-0.11342974 -0.16952562 -0.17851204 -0.06211715 -0.12157117 -0.19116719 -0.032955464 0.054188564
0.03368129 0.07473399 -0.24454229 -0.28453895 -0.19739656 -0.11441666 -0.21853842 -0.5174015
0.04685117 -0.2099091 -0.32689503 -0.3090357 -0.49335596 -0.22632353 -0.05093754 -0.10587716
-0.11668922 -0.091044985 0.11012357 -0.08534519 0.025095139 0.08014719 0.028717417 -0.07576534
-0.21703856 0.08771919 0.11038368 -0.119526416 -0.1569027 -0.019842412 0.015483234 -0.19749857
0.32141745 -0.5017715 -0.35475278 -0.20849848 -0.028661452 -0.02406719 -0.10759875 -0.31602794
-0.13213904 -0.04721903 -0.08742618 -0.13810639 -0.038797095 -0.057137787 -0.07548553 -0.20012413
-0.053916484 -0.04185199 -0.1446605 0.017054899 0.051733512 -0.12838154 -0.13333789 -0.17220812
0.004730272 -0.10538318 -0.15978894 -0.10243806 -0.13328592 -0.08438178 -0.08590125 -0.07288659
-0.02810369 -0.07707546 -0.18876623 -0.22260623 -0.164612 -0.12021881 -0.13496621 -0.3785229
-0.051911395 -0.20474224 -0.15067191 -0.32577753 -0.3540038 -0.048435286 -0.17455038 0.05661185
-0.0093245 -0.013683886 0.085809045 0.024146637 -0.014378871 0.02480339 0.01864316 -0.15232979
0.069058426 -0.072501704 0.10876008 -0.009294139 0.06514248 0.0581091 -0.024544848 0.029764032
-0.104799956 0.079178214 0.039677165 0.07158069 0.058527686 -0.12752971 -0.035841413 0.005231148
-0.021405108 -0.05802989 0.09539991 0.12359627 -0.047395296 -0.050136782 -0.11833399 -0.005744026
-0.14460641 -0.03426018 -0.01773284 -0.17376025 0.10486593 -0.100218825 0.15318903 0.028060311
-0.036808755 0.08192898 0.008099725 -0.15660721 -0.05016112 -0.14979298 -0.009097398 -0.018176347
0.0866573 0.01873004 -0.103435166 0.00040778017 0.04471443 -0.088183284 0.046803914 0.0402001
-0.11467772 0.031486385 0.010835745 -0.048446797 -0.043285616 0.105153516 0.04809247 0.14378808
-0.0465452 -0.18221937 -0.07735263 -0.19900003 -0.09216173 -0.0051169964 -0.12566477 0.042619996
-0.08557522 0.09396228 0.11215133 -0.094393976 -0.1316209 -0.10738659 -0.011706743 -0.35660467
0.06453454 -0.47297713 -0.58514583 -0.27301705 -0.0893388 0.060222894 -0.22328234 -0.28455937
-0.20787413 -0.18608654 -0.1303075 0.0052755517 0.020805184 -0.02212193 -0.08887903 -0.18617943
-0.056999985 -0.060998634 -0.066635065 0.025074882 -0.014612228 -0.1409112 -0.14166644 -0.32324415
-0.12311678 -0.1689118 -0.21557003 -0.07200556 -0.1260396 -0.013677659 0.11893385 0.02852089
0.050318453 0.04716769 -0.12612951 -0.16881397 -0.11564738 -0.0557845 -0.019291135 -0.34665072
-0.050672054 -0.23466206 -0.20538257 -0.32999095 -0.45258403 -0.2093917 -0.20122394 0.05220799

lstm.bias_hh_l0 f4 [256]
00000000: 23d5 483c 603d 90bd 3254 0dbe c20f 0bbe
00000010: 58b5 73bb 5c58 cd3d 3202 0fbe 8221 eebc
00000020: e60c 20be bfdc a6bd d2e6 383e 9089 033d
00000030: a474 683d cae3 ecbc 38fd 22be 5b8f 45be
00000040: 9cd5 c3bc 4f02 e4be f69b 08bf 889c 71be
00000050: 9ed9 9bbd ad15 b6bd 05af 46be c18a 94be
00000060: 4de5 97be c63e 17bc 2ebb e6bd 5d12 633d
00000070: d524 08be a2b9 e5ba 7f3b debd ecbb 0ebe
00000080: f0fd 2bbc 7292 d1bd 93bd e0ba 2de8 51be
00000090: 4488 3dbe 25ca 36be bf8e d5bd 9e92 7fbe
000000a0: f616 ce3a 9f3d 64be f069 84be 28cd cbbd
000000b0: 7a61 83be 288e 47be 72f2 fd3d d7dc 23bd
000000c0: a452 c4bd eff2 1bbe 1773 5ebe ea9b 9fbe
000000d0: b372 57be 7b85 0cbd c355 34be d3fb e9be
000000e0: b930 ccbd fb8a 96bd dfd1 b3be 0e63 e9be
000000f0: 8671 0cbf 98ce 64be 47e2 4dbe 510c c73d
00000100: f50b 35be 77e7 bebb 55e4 043e 469d 3dbd
00000110: 98b1 213d 1fd2 a9bc 2451 b1bd 20cf 773b
00000120: ba9a 44be 275d f33d 1b4d 523d d151 6c3d
00000130: f984 2bbe 0405 9d3c 1c3b 5bbc 4acf 13be
00000140: 84da b33e 5a68 a3be ac08 f3be 1a80 8dbe
00000150: 321d dbbd 4c2c aebd 0da0 6abd db24 1dbe
00000160: 6a6a 27be ec22 9c3d 9cc3 8ebe 53bc 30be
00000170: e34f 1bbd 4c1f febc fe7e 233d 3e63 75be
00000180: c54c 3abe ca1a 6ebe b165 f1bd d35c a23c
00000190: 7322 3a3d 1ed8 cbbd 30a8 80be 2b59 90bd
000001a0: bbbd c0bd 8dbd 30be 3b48 96bd 4ae8 4dbe
000001b0: 9a46 efbd ddc9 813d 96f5 30be c6ad 9abc
000001c0: 4357 d1bd a54b 62be d741 b0bd 96a9 7fbe
000001d0: b986 6bbe f65a 57be c5a4 04be c4f9 9fbe
000001e0: e14b 8bbd 9657 4bbe e792 aebe 0373 9bbe
000001f0: aafd edbe 4057 41be abc2 dcbd ac28 663d
00000200: 4a6d 103e cc1f 423d 6bf1 ccbb 88df 843d
00000210: cf8b 003e 555b a93c 3aad 04bd 9c4d 153d
00000220: d488 2bbd 9848 32be 670e 8d3d c01d c8bd
00000230: ed38 8d3d 80b7 c13d 1711 f83d f841 74bd
00000240: 0e79 09be 5b70 073d 95dc 643d 30ed 90bc
00000250: 3333 ba3d ee37 e5bd 52f6 353d 7199 03be
00000260: 92ce 563d 883b 74bd aa15 e4bc 421f 37bd
00000270: 9072 d3bd 89ab 183d f558 03be 78a6 fbbd
00000280: 2e91 c6bc 0665 263e 4e5c 343e 8e81 643d
00000290: a2e8 18bd e813 d3bc 417a afbc 3f5d 8ab9
000002a0: 9ce9 8e3c 5f7c 23be aa2e 9cbb 93f7 2abc
000002b0: 1cf0 603d 7f6d 81bc 9875 0f3e 917a 183e
000002c0: 7276 db3d 5dc0 523d c0f3 093d 553f 8fbd
000002d0: c95e 803c 2388 15bd ebfc d2bd 3083 753d
000002e0: b1d1 4f3d 9c9a b53b 3186 b0bc 26f8 90bd
000002f0: a994 3dbc 86b0 7f3c 45ec 8d3d 9fa2 5ebd
00000300: 3569 de3c e404 5cbe d574 97bd 6c2e 78be
00000310: 071d 23be f258 bcbd e905 8cbd 6ba7 d6bc
00000320: 2d4c 64be 5729 02bc e49e 8a3c 3973 61bd
00000330: 56c2 1dbe 72ca d2bd c7fd e8bd ae03 70be
00000340: 6c8a 4b3d 0259 02bf 5719 f7be 1128 4dbe
00000350: e3af 44be c422 1cbd ee7f 78bd b6c9 37be
00000360: 8fd7 a1be 5a48 653a b8ce 26bc 6a35 c73d
00000370: e097 063d 877f 3a3c 0f7d f73c 4a3e 48be
00000380: 16ec c4bd d33b a3bd cfe7 c5bd 086d a23d
00000390: 47f0 0b3d 9f12 9e3c afc6 51be cb1c a6be
000003a0: bbb1 a5bd 5569 06be 7007 1dbe ae32 b83c
000003b0: b7ad fcbd a87b 45be bfdc 16bd 1afd 01be
000003c0: bafc 1fbd 1a14 c73c 2e8a 07be 20be 64be
000003d0: 85c6 4cbd 9b6a 7ebe 11d5 5bbd 9adf b7be
000003e0: 0fc2 283d f670 28be 3d1e bbbe 298f a9be
000003f0: 0b98 f7be dd79 c2bd 42bc 2bbe 2f84 34bd
0.012257847 -0.07042956 -0.13801649 -0.1358023 -0.0037186947 0.10026619 -0.13965681 -0.029068712
-0.1562992 -0.08147573 0.18056801 0.03211361 0.056751862 -0.028917212 -0.15916908 -0.19292967
-0.023905568 -0.4453301 -0.5336298 -0.23594868 -0.076098666 -0.08890853 -0.19402702 -0.2901211
-0.2966713 -0.009231275 -0.112661704 0.055437434 -0.132953 -0.0017526636 -0.10851192 -0.13938874
-0.010497555 -0.1023301 -0.0017146341 -0.20498724 -0.18509012 -0.1785055 -0.10427617 -0.24958274
0.0015723396 -0.22289132 -0.25862074 -0.0995124 -0.25660306 -0.19487822 0.123997584 -0.04000553
-0.09586075 -0.1522939 -0.21723591 -0.3117364 -0.21039848 -0.034306984 -0.1761084 -0.4569994
-0.099702306 -0.07350727 -0.35121056 -0.45583385 -0.54860723 -0.22344434 -0.20105849 0.09719146
-0.17680342 -0.0058259326 0.12977727 -0.046292566 0.039476007 -0.020730076 -0.086580545 0.0037812665
-0.19199648 0.11883002 0.051343065 0.057695214 -0.16749944 0.01916743 -0.013380792 -0.14434543
0.35127652 -0.3191555 -0.47467554 -0.27636796 -0.10698928 -0.08504543 -0.057281543 -0.1534609
-0.16349187 0.07623848 -0.27883613 -0.1725934 -0.037917983 -0.031020783 0.03991603 -0.23963639
-0.18193348 -0.23252407 -0.11786974 0.019819653 0.04544301 -0.099533305 -0.25128317 -0.070482574
-0.09411188 -0.17259808 -0.073379956 -0.20108142 -0.11683388 0.063373305 -0.17281184 -0.01888169
-0.10221722 -0.22099169 -0.08606308 -0.24967036 -0.23000611 -0.21030793 -0.1295348 -0.31245244
-0.06801582 -0.1985763 -0.34096453 -0.30361184 -0.46482593 -0.1888094 -0.107793175 0.05619113
0.1410419 0.047393605 -0.006254365 0.06487948 0.12553333 0.020673433 -0.032391764 0.036450967
-0.041878536 -0.17410505 0.06887513 -0.09771299 0.06895623 0.09458828 0.12112635 -0.059633225
-0.13425085 0.033066135 0.055874426 -0.017691225 0.09091797 -0.11192308 0.044424362 -0.12851502
0.052443095 -0.059627086 -0.027842361 -0.044707544 -0.103245854 0.037272964 -0.12826903 -0.12287611
-0.024239149 0.16249475 0.17613336 0.055787615 -0.03733123 -0.025766328 -0.0214206 -0.00026390885
0.017445378 -0.15965413 -0.004766305 -0.010435003 0.054916486 -0.015799282 0.14009702 0.14890505
0.10715951 0.051452983 0.033679724 -0.069945015 0.015670197 -0.036506783 -0.103021465 0.059939563
0.050737087 0.0055421125 -0.021548362 -0.070785806 -0.011571088 0.015606051 0.069298305 -0.054354306
0.027149776 -0.2148624 -0.07395331 -0.24236459 -0.15929042 -0.091966525 -0.06837065 -0.026202878
-0.22294684 -0.0079444265 0.016921468 -0.055041526 -0.15406165 -0.1029252 -0.11376529 -0.23438904
0.049692556 -0.50917065 -0.4826152 -0.20034815 -0.1920772 -0.038119093 -0.06066888 -0.1794804
-0.3160977 0.0008746438 -0.0101811215 0.09726985 0.032859683 0.011382944 0.030211 -0.19555011
-0.09615342 -0.07970395 -0.096633546 0.07930952 0.034164693 0.019295989 -0.20485948 -0.32443842
-0.0809054 -0.13126118 -0.15334868 0.022485103 -0.12337821 -0.19285452 -0.036831614 -0.12694207
-0.03905938 0.024301577 -0.13236305 -0.22338152 -0.04999401 -0.24845354 -0.053669993 -0.35912782
0.041200694 -0.16449341 -0.36546507 -0.33117035 -0.48358187 -0.094959 -0.16771033 -0.044071373

lstm.weight_ih_l1 f4 [256, 64]
00000000: db3d d9bd af3f 09bc 66cf 833b 5765 a4be
00000010: 93d6 473e 698c 223d d1e8 8b3d 0756 a13d
00000020: 2aa1 9d3b 9926 a5bb 4f63 62be cf2a aabc
00000030: bf98 4dbd 99af 513d cfe8 cfbd a365 2c3e
00000040: 763d e4bd 3f08 cbbd 13ec f1bd 1e00 b63d
00000050: 5f6e a1bd 7622 b33b 21af d73d 1223 99bc
00000060: 1e21 29bd fdfa f43c 68d1 20bd a9c7 1ebe
00000070: 47be 19be 6fdb ed3d f10a f23d f855 8fbc
00000080: 430a 2bbd 7c7c 723c dafc bd3c 7c2a 90bd
00000090: 700f bd3d 76a1 773d db46 08be c69c 06be
000000a0: 7785 d23d e29b 09be 7d3f a63d d071 08bd
000000b0: f9e8 213c 7ae2 9bbd 2eef bcbb d146 613d
000000c0: 566a 6bbe 97bb 0ebd 8b5c afbd 0cce 233e
000000d0: 7e22 25bd 464c 10bd 3e63 1cbe fd65 80bd
000000e0: da32 0cbd ba68 70bc 2f49 82ba 0d99 4ebc
000000f0: e215 383e 0f46 cbbc 0975 bfbb 8f82 d33d
00000100: 03b8 513d a90c 88bc 6950 85bc 2cec 49bd
00000110: 38c4 f23c 6bdf 6abe 42df e7bd 1a58 a63d
00000120: 1cfd 813d 5937 edbc 220d 82be 04ed 04be
00000130: ca65 76bc a37b 8ebd 4c7b f2bd 43a8 ca3d
00000140: 3c83 1b3e e466 b2bd 107a 8b3d 8ec3 023e
00000150: 2faa 48bd c1b9 b53c 2a3f dbbc a675 af3d
00000160: 9b62 a83c a83f 2e3d 0730 c73b 710f 0bbe
00000170: 4ab9 4a3c 7c62 aa3d 7950 9d3c 174a 743d
00000180: 2fa4 b53d af3f f0bc f4e6 babc f67f 94bd
00000190: 69e6 cc3d b489 45bd b01a 543d 6a77 4abe
000001a0: 5fd0 32bc fa72 eebc 54be 1abc 03f0 a1bd
000001b0: 14b2 be3c 67f0 9bbc f0aa 453c c5d2 53be
000001c0: 4025 77be a775 a1bd 9fa5 3d3b 3903 a1bd
000001d0: bdf4 0bbd 4bff c4bb eb79 283c 7197 b83d
000001e0: d8a8 0fbd 31f7 ed3d 9129 14bd bb18 f23d
000001f0: 86ed 87bc e85b 8fbd 462e 483d 7bff 3b3d
00000200: 4c31 1ebe 9ed0 e13d 8d37 213e 0da1 2bbe
00000210: 626f 57be ec68 0cbe 8dfc afbc aef4 493e
00000220: 08ec 8c3e 6d42 1a3e 7894 52be 2e3b dd3d
00000230: ddf6 ab3d 28ea a63d d859 73be 9139 e43b
00000240: ca77 a03d 0fe2 f9bd 06e9 87bd a97a a93c
00000250: 84e0 c8bd 5e02 4f3e f8ec 99bc a15f f53d
00000260: 8796 75be a327 f43d 9e37 3cbe c283 75be
00000270: b35a f73d 702c e7bc 18dd 0c3e e349 4a3e
00000280: bc8c 6d3d 0cc6 30be 8ddf 3cbe 2ba1 7abd
00000290: aaf9 1e3d f46e 593d 2ab2 ac3d bef8 5ebe
000002a0: a007 d7bc 928c dd3c 1755 2abe ea6d a03d
000002b0: ac50 48bd a241 d63b cf39 233d 48d7 14be
000002c0: ec90 23be f1e2 1cbe a342 2dbe c9c2 e43d
000002d0: b390 03be e4d2 09bc 5ebc 51bd e0cd a7bd
000002e0: d983 753e f4fb 43bc d119 92bd 7ca4 573e
000002f0: b1e2 12bd f96b e63c 8dcf a93c d47c 6a3d
00000300: b1cf e9bd 9b1c bcbd 1c4d 183e 9c0c 17bd
00000310: 8438 14bd 7b4f ebbd ed53 a9bd 7d2b c3bd
00000320: da5f 123e 135f a4bc 60ee 4cbe 296d 1ebd
00000330: 4bf7 e83d 638c 043e 2d92 d8bd 73fd 20bd
00000340: 14a4 11bc 529c 3a3d b28e bdbb d96d e0bd
00000350: d4cd d03c 3cbe ff3c 06b3 433e f798 233d
00000360: 9d15 823d dd8d e8bd d88a 9f3d e2bd 37bd
00000370: 7c72 1cbe e99b de3d 3bb0 19bc d2e8 d03d
00000380: 40dc 0e3e 9465 8c3d 1d18 f8bc d0ae bfbd
00000390: 6739 1f3e 9425 aa3d 66dd f03c d759 b8bd
000003a0: 7c8e a13d 70e9 1dbe 44ab bc3d 8969 fe3c
000003b0: 0550 713a 943f 80be 6351 a8bd d1a6 bfbd
000003c0: 4cde 23be aa7f 27be a5cd 82bd 9466 3fbd
000003d0: c5d4 4e3d 2bca 02bd 4de7 a03d 081d 8fbd
000003e0: 1970 a5bc d50c dabd cc28 d1bd 529d 3e3e
000003f0: c3a0 ff3c 3553 9f3d 4098 ef3d b19c 683d
-0.10607501 -0.008377 0.0040225266 -0.32108566 0.19515447 0.039684687 0.068315156 0.078777365
0.004810472 -0.0050400016 -0.22108196 -0.020772366 -0.0501945 0.051192854 -0.101518266 0.16835646
-0.11144535 -0.09913682 -0.11812606 0.08886741 -0.0788238 0.0054667545 0.1053145 -0.01869348
-0.04129135 0.029904837 -0.039262205 -0.15505852 -0.15013991 0.11614119 0.11818493 -0.017497048
-0.041757833 0.014800187 0.023191858 -0.07039353 0.0923146 0.060456716 -0.13308279 -0.13145742
0.10279363 -0.13438371 0.08117578 -0.033311665 0.009882205 -0.07611556 -0.005765817 0.054999176
-0.22989783 -0.03484687 -0.08562573 0.1599657 -0.040316097 -0.03522899 -0.15272233 -0.06269453
-0.034228183 -0.014673406 -0.0009940023 -0.012609732 0.17977098 -0.02481368 -0.005842809 0.103276365
0.051200878 -0.0166076 -0.016273694 -0.049297497 0.02963458 -0.2293679 -0.1132188 0.08122273
0.06347105 -0.028957056 -0.25400645 -0.1298104 -0.015038917 -0.069571756 -0.11839923 0.098953746
0.1518678 -0.08711031 0.06810391 0.1276991 -0.048990425 0.0221833 -0.026763517 0.085673615
0.020554831 0.042541176 0.0060787234 -0.13580109 0.012373278 0.08319566 0.019203411 0.05964097
0.08869206 -0.029327242 -0.022815205 -0.07250969 0.10004885 -0.048227027 0.051783264 -0.19772115
-0.010913937 -0.02910756 -0.009444792 -0.07907107 0.023278274 -0.019035531 0.01206468 -0.20685871
-0.24135303 -0.078837685 0.002893783 -0.07861943 -0.034168947 -0.0060118786 0.010282974 0.0901326
-0.03507313 0.11619414 -0.036172453 0.11821123 -0.016592752 -0.069999516 0.048872255 0.045897942
-0.15448493 0.11026119 0.15743847 -0.16760655 -0.21038583 -0.137119 -0.02148273 0.19722244
0.27523828 0.15064402 -0.20564449 0.10802303 0.08396695 0.081501305 -0.23764741 0.0069648703
0.07835348 -0.122013204 -0.066362426 0.020688372 -0.09808448 0.20215747 -0.018789753 0.119811304
-0.23983203 0.119216226 -0.18380591 -0.23976043 0.120778464 -0.028219432 0.13756216 0.19754748
0.057995543 -0.17263049 -0.18444653 -0.061188858 0.038812317 0.05308433 0.084324196 -0.21774575
-0.026248753 0.027044568 -0.16634022 0.078334644 -0.04890506 0.0065385858 0.039850052 -0.14535248
-0.15973252 -0.15320946 -0.16919951 0.11169965 -0.12848167 -0.008412097 -0.05120503 -0.081935644
0.23976077 -0.011961926 -0.0713383 0.2105884 -0.03586072 0.028127657 0.02072885 0.05724795
-0.11416567 -0.091851436 0.14873165 -0.03687726 -0.03618671 -0.11489769 -0.08267961 -0.09529779
0.14294377 -0.020064866 -0.20012808 -0.038678322 0.113752924 0.12944178 -0.10574756 -0.039304208
-0.008889217 0.045559235 -0.005784833 -0.10958452 0.025488771 0.03121864 0.19111261 0.0399408
0.06351779 -0.11355183 0.07790154 -0.04485882 -0.15278047 0.10869581 -0.0093803955 0.10200657
0.13951206 0.06855312 -0.030284936 -0.09359515 0.15549241 0.08307949 0.029402446 -0.090015106
0.07888505 -0.1542108 0.09212354 0.031056182 0.0009205344 -0.25048506 -0.08218648 -0.093579896
-0.16002768 -0.16357294 -0.0638688 -0.046728685 0.05049588 -0.031931084 0.07856617 -0.06987959
-0.020195054 -0.10646979 -0.102128595 0.186147 0.031204587 0.07779542 0.11698961 0.056790058

lstm.weight_hh_l1 f4 [256, 64]
00000000: 9c9e 1d3e 6405 313e 1288 3dbe 1812 13be
00000010: 9455 003d 05b7 3d3b 539a ddbc 84d4 3cbd
00000020: 28aa ffbc c4e9 27be a843 fc3d c176 1bbe
00000030: fac8 aebd e27b 2f3e 172d a7bd 5189 5bbd
00000040: d83f 813d 2f01 05be 59d7 14be 3e2d 1ebd
00000050: cce4 88be a105 55be 1fcb 593d d9b4 a7b9
00000060: 1a2e 2f3e 1154 083e 8d46 003e 1769 883c
00000070: 0997 17be 80f6 eebb d582 8cbe b82b 55be
00000080: f2b1 18be 443e 40bd dbfc 91bd 4136 9a3e
00000090: 3ffe a3bc dd5d 793e 9277 8fbd 08de 66bb
000000a0: 8cc4 14bd 1675 f8bd a27a 58be 8bb5 a23e
000000b0: fb4f 30bd 301e 3dbe fd4e ca3c 8327 9fbd
000000c0: 3d79 4a3e ce73 a03c 9822 c43d a344 923e
000000d0: 52f6 4abc 932a 413e 6788 dbbb b54e 9abd
000000e0: f7ba e5bd f7cf 9abe 7b79 44bc e1dd f03b
000000f0: 6b27 853c 9e5c bb3d f5a6 a3be 6e81 7e3e
00000100: 2536 2d3e a9ab 983c 4380 15be ebab 2abe
00000110: 1d19 eb3d da13 3d3d 76d7 8ebd 0fdd 04bd
00000120: 762a 49be a7f6 debd 74f9 1abd 8d05 2bbe
00000130: fdae 28be b36a b0bc 4545 29be 545b c3bd
00000140: b0d0 033e 6d91 abbc 58d0 23be 3e98 0d3e
00000150: a9e2 3e3d aaf3 c7bd d76b 163e a729 a9bd
00000160: 6990 893d 1bb4 043e 7bcc 5f3d 3435 a43c
00000170: ad05 49bd 7d2d ba3b f235 d5bc c363 1cbe
00000180: e151 e9bd b8d4 51bd 2358 86bc a930 773e
00000190: 46d2 4dbe 4b45 05bd 8d25 8abd b213 c3bd
000001a0: 60ef 4c3c 7d90 3cbe 66e6 51bb 3e00 06bd
000001b0: 7964 073d 5bb7 d63d f984 173c c8ea 4d3d
000001c0: 6cbe 97bd ec92 9539 548a 493e 3fc5 833d
000001d0: 91cf bdbc ac3c 0d3d 08fe 8cbd 4c26 493d
000001e0: 648f ecbd 2629 99bc c4ba 17be 8326 073e
000001f0: 0668 ebbd a85a 3abd d15d 08be e4d9 8c3d
00000200: b299 d13c c77a b73d 0bef 853d 1b52 43bc
00000210: bde0 2fbe 658c 00be 4fbc 8abc b282 3e3d
00000220: 0203 1a3d d657 383e e5f5 c33c 3af6 8a3c
00000230: c571 a33c e8cd 56bd e1b2 ecbd e190 2bbe
00000240: 7e46 f23d 7f1d 7d3c bdc6 0dbe e00f 643c
00000250: 2a31 23be fc3f 663e c87f f63d f983 f6bb
00000260: f627 dd3d ce96 da3b 0dff 6c3e a09d 77bc
00000270: 5c2d 20be 9d6c a03c 7d77 473d 6a6f 843d
00000280: 5019 0a3e f553 6fbd 8624 50bd d2f7 4f3e
00000290: ca77 19bd ef9b 803c bea3 bcbd 8a84 453e
000002a0: 4d8d b33d d401 9d3c 355e 87bc a2d3 e83d
000002b0: 3584 bc3c 99c8 963c b24d 223c 357c 803d
000002c0: bad4 0abd 3b02 cd3d af2b 5f3d a93f abba
000002d0: 2a1b 613d c869 a33b 0524 88bd 6f85 95bd
000002e0: 82a3 cfbd bdce d5bd 3a07 0abe 3766 6bbd
000002f0: e5bd d6bd ee76 a23d d4bf 3dbe 8b8e 4d3d
00000300: 925f 4a3d 0040 9b3c 9119 cabc 85b2 323b
00000310: 3e15 1b3e 73dc 703d 69ee a4bc 2649 5abe
00000320: 6e7b 05be 2b65 39be e329 c9bc 2566 4dbe
00000330: b75e a6bd 624d 6a3c efe8 123d 989b 153d
00000340: c753 8b3c a902 44bb aecc 3dbe b073 233e
00000350: 3253 0b3b 9544 39be 6afb 593c 1df5 61be
00000360: a45f 1f3e 2d2f 2a3e c9f8 8bbd 4f78 f73d
00000370: 691b 583d 804e e73d 3c4f 15bd 89ef e4bd
00000380: 1326 dd3c 4896 00bc c82d 80bd d70c 0a3e
00000390: 0442 3bbd eea5 103e 861d 89bb 69ef c7bd
000003a0: 8862 9a3d be83 92be b76b 57be 33ac db3c
000003b0: 397c 2bbc be9f ed3d fb26 3cbd 69e7 593d
000003c0: 6226 643d a7ca ee3d 898f ec3d 902e 093d
000003d0: 6231 bcbd f38f 8e3d 39b9 4dbd 1d79 a1bc
000003e0: 55a9 1bbe b175 a8bd 2faa a13d f2b3 b8bc
000003f0: af43 143d c7d9 723a 203a 13be 3b3c c43d
0.15392536 0.17287213 -0.18508938 -0.14362371 0.031331614 0.00289482 -0.027051127 -0.04610111
-0.031209067 -0.16397768 0.12317592 -0.1518202 -0.08534427 0.17137101 -0.08162897 -0.053597752
0.06311005 -0.12988733 -0.14535274 -0.038617365 -0.26737058 -0.20802929 0.053172227 -0.00031987464
0.1710743 0.13313319 0.12526913 0.016651673 -0.14803709 -0.0072925687 -0.27443567 -0.20817459
-0.14911631 -0.04693438 -0.071283065 0.30119517 -0.020018695 0.24352212 -0.07005228 -0.0035227556
-0.036320254 -0.12131707 -0.2114053 0.3177913 -0.043045025 -0.18468547 0.024695868 -0.07771208
0.19772811 0.01958647 0.09576911 0.2856799 -0.012387829 0.18863897 -0.00669961 -0.075345434
-0.11217301 -0.3023679 -0.011991854 0.007350669 0.016254148 0.09148525 -0.31963316 0.24854061
0.16915186 0.018636541 -0.14599709 -0.16667144 0.11479399 0.04616151 -0.0697469 -0.03243738
-0.19645104 -0.10886889 -0.037835553 -0.16701336 -0.16473003 -0.021535253 -0.1653033 -0.09538904
0.12872577 -0.020943368 -0.15997446 0.13827607 0.04660288 -0.09763272 0.14689575 -0.08259898
0.06716997 0.1295933 0.054638367 0.0200449 -0.04907768 0.005681692 -0.0260267 -0.15272431
-0.1139257 -0.051228255 -0.016399449 0.24139656 -0.20099744 -0.032536786 -0.067454435 -0.09525241
0.012508243 -0.18414493 -0.0032028197 -0.032715075 0.033054803 0.10484191 0.009248012 0.050272733
-0.07409367 0.0002852896 0.19681674 0.06434106 -0.023170264 0.03448169 -0.0688439 0.04910879
-0.11550787 -0.018696379 -0.14817339 0.13198285 -0.1149445 -0.045496613 -0.13317038 0.06877497
0.025585983 0.08958965 0.065397345 -0.011921431 -0.17175575 -0.12553556 -0.016935496 0.04651136
0.037600525 0.18002257 0.023920963 0.016963113 0.01995171 -0.05244246 -0.11557556 -0.16754486
0.118298516 0.015448927 -0.13845344 0.0139198005 -0.15936723 0.22485346 0.12036091 -0.0075230566
0.107986376 0.0066708094 0.23144169 -0.015113264 -0.15642303 0.01958304 0.048697937 0.06466563
0.13486218 -0.058429677 -0.05081608 0.2030938 -0.037467755 0.015699355 -0.09210919 0.19288841
0.08767185 0.01916591 -0.016524414 0.11368491 0.02301226 0.0184062 0.009906219 0.062736906
-0.033894278 0.10010191 0.05448502 -0.0013065237 0.054957546 0.0049869753 -0.06647495 -0.07300841
-0.101386085 -0.10439823 -0.13479319 -0.057470527 -0.10485438 0.0793284 -0.18530208 0.050184768
0.04940755 0.018951416 -0.024670394 0.002726705 0.15144822 0.058803987 -0.020133214 -0.21316966
-0.13035366 -0.18104999 -0.024556106 -0.20058496 -0.08123534 0.014300676 0.035866674 0.03652534
0.017007722 -0.0029908812 -0.1853511 0.159621 0.0021259305 -0.18092568 0.013304571 -0.2206616
0.15563828 0.16619559 -0.068345614 0.12083494 0.052760515 0.112942696 -0.036452517 -0.111785
0.026995694 -0.00784833 -0.06258732 0.1348146 -0.045717254 0.14125797 -0.0041844277 -0.09762461
0.075383246 -0.28616136 -0.21037184 0.02681551 -0.010466629 0.11602734 -0.045935612 0.053199206
0.055700667 0.116597466 0.11550815 0.03349167 -0.091891065 0.0696105 -0.05022547 -0.019711072
-0.15201314 -0.08225573 0.07893788 -0.022546742 0.03619736 0.0009264019 -0.14377642 0.095818006

lstm.bias_ih_l1 f4 [256]
00000000: 4214 93be 79d2 29be 6c6d 2abe 1d63 e6bd
00000010: 2f8f a2be c3ac 9abe caf7 3bbe 9e14 a0bc
00000020: 67ab f0be 9715 863d ef2e 95bd 5840 33be
00000030: 5b91 02be c510 83be cac4 f6bd 13e7 ebbe
00000040: f221 eebe 0db0 1dbe 632e 60bd d5bd 3b3d
00000050: 418e a23d 5c9d cfbd 721b d7be edc9 9ebd
00000060: a9cb aabe dcbd b0bc ff8a 32be e8fc 45be
00000070: e502 72bc ae70 42be 8f02 adbd ddec 67bd
00000080: 4bb4 2ebe 815d dbbd 1c97 16bf 2702 fabe
00000090: 1f05 afbe 85b6 bfbd f639 b6be 8775 25bf
000000a0: dc6f 10be ed97 dcbe f9a0 833c 360c febe
000000b0: 760a 61bd 9616 8abe 31ac 0a3d cbab 9ebd
000000c0: 2836 2d3d a70b 39be 78e2 a3be 32a0 57bd
000000d0: 1d73 84be 3785 01be e1be c4be c7fd ccbe
000000e0: 26a4 b8be af30 acbd d499 fbbe aebf a4be
000000f0: 7538 9dbe fd00 09bf 8e69 14be eb58 efbc
00000100: cf2a 73be a471 14be 19d9 8fbe 2910 1dbe
00000110: 2ca1 8bbe 40bd a0be b50f a1be ec50 26be
00000120: ec20 d2be f2ab 9bbd 118c 553c 55bb 77be
00000130: 6aa5 48be b54b d1be 2d0a cb3d 037c c4be
00000140: 3219 4ebe ef1d 91bd b636 d63c c01f dd3e
00000150: 8cbc 02bd f1e3 5dbe 3a90 68be 5b57 8ebe
00000160: 8777 313d 50fc 39bd 7206 84be aed5 aabe
00000170: 3b87 273e b932 8abe a05d 1bbe e80e 3ebc
00000180: da66 58bc 18a8 b4bd be5b 4cbf a49f c9be
00000190: 84bd bebe cf04 753c 808f 37be 2984 e4be
000001a0: 5328 18be 39c7 89be eb49 46be b968 07bf
000001b0: 3aba 10be 21c3 fcbd 724d a0bc c72c 4bbe
000001c0: 5ce7 67bd be3c 57bd 4b83 b5be b9ac fcbd
000001d0: 5d3a 66be 1872 9ebe e163 d2be dbc6 e0be
000001e0: 7dd8 9abe eb75 0c3d 5f38 c9be 6460 f6be
000001f0: f0f9 a0be d174 bebe e6a5 b8be e5d4 22be
00000200: 741b 613c 47ce 86bc 7076 3c3d a7e2 3e3d
00000210: 4133 52bb 536f 77bd 4fab 6a3d 9d32 4b3c
00000220: 13ed d43c d0c7 5f3d dd1c 59bd 3af9 323d
00000230: 4854 b13d 87f0 923c 9489 c03d 57b2 de3d
00000240: bb1a 793d 2a1d bd3c 64d4 2c3e 755f 13bd
00000250: 9b68 e33d d6c9 a03d bec7 a9bc 5e56 a2bb
00000260: de44 4b3d 7e24 64bd cbf5 f6ba 3c17 303d
00000270: 7110 133e 7394 0bbd c9b3 953d 7120 7a3d
00000280: 159c 853d d5a2 893d 0aa0 e23b 5e42 33bd
00000290: a2dd 583c 764a f5bd d8a4 4cbd 8c7f 853d
000002a0: 8a90 593c 5b0b 403c 2405 cb3d 3221 a8bc
000002b0: 28a2 0d3d deac a43d aa39 5cbb 1382 c0bc
000002c0: 3275 a4bd 4815 9c3d 6b82 51bd e4d9 c4bd
000002d0: ee2b 833d dbed 40bd ab17 87bd be37 db3b
000002e0: f0c0 dcbc 5f3c e83d 6f2f 173d 7206 a03d
000002f0: f6b8 85bd a1a0 12bd 444f 84bd 8ca6 06be
00000300: c795 a8be bfd4 6dbe 1f8d 66be b705 d33c
00000310: 9ab8 49be 277f 5fbe fb60 43be 0e0e 75be
00000320: 990f efbe efb3 02be cb9f 2f3d 3b59 02be
00000330: 7418 10be a74e 9dbe 3e38 13bc ea06 05bf
00000340: 34bf 85be c281 5f3c 42c5 c7bd 4894 e43b
00000350: 81ed abbd 2d40 0c3d 295b adbe 04f5 6fbe
00000360: 5a63 003e 34bc 983d 1c37 70be bda9 a4be
00000370: a59f 013e 751e 0bbd d1b5 613b 55a1 36be
00000380: ae97 5cbd 13cb 4ebc a225 4fbf 0b65 1cbf
00000390: 2b67 85be 6dc9 f0bd bac1 bfbe f03d fcbe
000003a0: b216 a8bd 7878 cbbe 5968 89bd 05f5 d3be
000003b0: d437 39be a21d 44be e0bb 8fbd 7be0 21be
000003c0: 9d88 c73c a181 99bd 9287 adbe a8cb b7bd
000003d0: 4af7 0cbe d45a 7dbe 58c9 70be 77ff 8cbe
000003e0: 8b7e dfbe 064f a0bd 9815 bcbe 1875 d5be
000003f0: afb1 45be 8392 a7be cffd 9abc 6a9b 403d
-0.28726393 -0.16584195 -0.16643304 -0.11249373 -0.31749865 -0.30209932 -0.18356243 -0.019541081
-0.4700577 0.06547087 -0.072843425 -0.17505014 -0.12750761 -0.25598732 -0.12049253 -0.46074733
-0.46510273 -0.1539919 -0.054731738 0.045835335 0.07937289 -0.10137436 -0.42013127 -0.07753358
-0.33358505 -0.021574907 -0.17435835 -0.19334757 -0.014771198 -0.18988296 -0.08447754 -0.056622375
-0.17060964 -0.10711194 -0.58824325 -0.48829767 -0.34183595 -0.09360985 -0.35591096 -0.6463246
-0.14105171 -0.4308466 0.016067969 -0.4961869 -0.054941617 -0.26970357 0.03385562 -0.07747611
0.042287976 -0.18070851 -0.3200872 -0.05264301 -0.25869074 -0.12648474 -0.3842688 -0.40037367
-0.36062735 -0.08407723 -0.491408 -0.3217749 -0.30707136 -0.53517133 -0.14493391 -0.029217204
-0.23746799 -0.14496475 -0.2809532 -0.15338196 -0.27271402 -0.31394386 -0.31457296 -0.16241807
-0.41040742 -0.07601155 0.013033883 -0.24192555 -0.1959435 -0.40878072 0.0991405 -0.38375863
-0.20126799 -0.070857875 0.026149135 0.43188286 -0.031918094 -0.21668984 -0.22711268 -0.27801022
0.04332688 -0.04540664 -0.25786167 -0.3336615 0.1636018 -0.26991823 -0.15172434 -0.011600234
-0.0132081155 -0.08821124 -0.7982749 -0.3937961 -0.37253964 0.01495476 -0.17925835 -0.4463208
-0.14859132 -0.26909807 -0.19364135 -0.5289417 -0.1413354 -0.123419054 -0.019568179 -0.198413
-0.056617126 -0.052548163 -0.3545173 -0.12337632 -0.22483201 -0.30946422 -0.41091827 -0.43901715
-0.30243292 0.034292143 -0.3930082 -0.48120415 -0.31440687 -0.371985 -0.3606407 -0.15901525
0.0137394555 -0.016455783 0.04601139 0.04660287 -0.0032074007 -0.0604089 0.05729228 0.012402204
0.025991952 0.054633915 -0.05300604 0.043694712 0.086586535 0.017936958 0.09401241 0.108738594
0.060816508 0.023085196 0.16877896 -0.035979707 0.11103936 0.07850997 -0.020725127 -0.0049541434
0.049626224 -0.055698864 -0.0018841563 0.042990908 0.1436174 -0.03407712 0.07309682 0.061066095
0.06523911 0.06720511 0.006916051 -0.043764465 0.013236435 -0.11977093 -0.049961895 0.06518468
0.01327909 0.011721457 0.0991309 -0.020523641 0.034578472 0.08040784 -0.0033603706 -0.023499524
-0.08030166 0.076212466 -0.051149767 -0.09611872 0.06404863 -0.047101837 -0.06596311 0.0066899946
-0.026947469 0.1133964 0.03691047 0.07813729 -0.06529419 -0.03579772 -0.06460431 -0.1314947
-0.3292677 -0.23225687 -0.22514771 0.025759561 -0.19699326 -0.21825849 -0.19079964 -0.23931143
-0.46691588 -0.12763952 0.042877 -0.12729351 -0.14071828 -0.3072407 -0.008985577 -0.51963675
-0.2612244 0.0136417765 -0.09754421 0.0069756843 -0.0839491 0.03424089 -0.33858612 -0.2343331
0.125379 0.07457772 -0.23458523 -0.3216075 0.12658556 -0.033964593 0.0034440646 -0.17834981
-0.05385559 -0.012621659 -0.809168 -0.6109168 -0.26055273 -0.11757169 -0.3745249 -0.49266005
-0.08207454 -0.39740348 -0.06709356 -0.41397873 -0.18087703 -0.19151929 -0.07018256 -0.15808289
0.024357134 -0.07495428 -0.33892494 -0.08974391 -0.13766208 -0.2474168 -0.23514307 -0.27538654
-0.43651232 -0.078275725 -0.36735225 -0.41690898 -0.19306062 -0.32728967 -0.018919853 0.047023214

lstm.bias_hh_l1 f4 [256]
00000000: 3163 9cbe 2b8a cebd ed9a b7be 5465 40bd
00000010: 3c0d 48be b585 c2be a03a 14be 10a5 21be
00000020: 1dfb 10bf ee09 24be ff10 31be 7ffd 78bd
00000030: fd2e b5be f11a d3be ef95 95bd b79f fbbe
00000040: 5d85 b2be b290 84bd f88f e93d 9122 0b3e
00000050: 5d81 e2bb fa4c 0f3e e9aa adbe 98a5 15be
00000060: acd5 acbe 111e 59bb 3960 4ebe f047 6dbe
00000070: dc66 adbc 14cb bebd 4f99 b5bd e9b8 17be
00000080: de89 22be 32bf 813c cd63 4fbf 8a82 f3be
00000090: caff 46be b4f8 37bd edf9 bcbe 1bf2 24bf
000000a0: f097 f4bd 3de5 d1be 65d1 39be 0e2c 13bf
000000b0: d63b 31be c8dc 24be d42c b1bd af4d 5bbd
000000c0: d3e3 ccbd abc3 53be b7a6 8fbe 7c86 55bc
000000d0: dfab 65be 6d6e 81be 0e12 8bbe d656 81be
000000e0: 766d acbe 9249 ddbd 755e f1be e627 aebe
000000f0: 9c5a 2fbe e3e2 babe eeff 36be f59c 4cbd
00000100: 7ba6 c4be 4b1b febc c6fe b6be 00e3 45be
00000110: 8af9 9bbe c1ed debe 2f88 aabe 0cd0 97be
00000120: b26f 23bf 25b5 83be c2ac b1bd af95 dcbd
00000130: 9d2c 2abe ddbb e6be 23cf c23c 6ad8 dabe
00000140: 8ceb 92be 591f 2dbd bc4c 1b3d 03a6 de3e
00000150: 6f4d 7cbc dbbd 12be 68a1 debe 8935 9abe
00000160: 12ee fb3d 48f2 53bd d9fb c1be a7d1 0bbf
00000170: 6894 1a3e 0a98 80be b2e1 2dbe d56b acbb
00000180: fc21 6ebd 0ce2 26be 0cb6 58bf bef4 eabe
00000190: 1735 b1be f454 8c3d 10be 9cbe 921a d7be
000001a0: f3f7 25be 30f1 80be 2975 b8bd 691c dcbe
000001b0: 6ee1 40bd e00b 58bd 1349 fa3c 5b5a 8ebe
000001c0: 3dbd d5bc 8f81 84bd 3b2b afbe f4ce a3bb
000001d0: 1948 96bd b082 a0be 9a61 51be 0678 abbe
000001e0: 3cb3 e7be 92ef 69bc 7453 84be df69 fdbe
000001f0: 4ed0 47be 3a20 d5be c49a bfbe 1a75 623c
00000200: d196 0cbd 1905 9fbd 3ec0 823d 12c6 d93c
00000210: 65ef 70bd bb2c d33d 4343 673d 2895 8d3d
00000220: 2012 163d 1cc8 623d 8d67 07bd 74a4 343d
00000230: 4637 56bc 6865 b5bd ea16 4c3d e7aa 73bd
00000240: fadd cebd 6a4c 273d a139 333d ba18 69be
00000250: b662 333e 8603 293d f148 91bc 7a9c 8a3d
00000260: 814c d4bd e4b4 22be 7317 2ebd 655f cfbd
00000270: 0ec8 bc3d 0906 48bd 5fa1 973c b2f9 833d
00000280: f456 3e3d 7755 673d f76c 8c3d cbe2 42bc
00000290: b53c cdbd c0f7 c2bd 725a 903d 5e3a efbc
000002a0: dd57 c0bd e00c 043d 0b89 a73c c101 8ebc
000002b0: 0618 203d 8ea4 cabd 5876 173e 328b 6abd
000002c0: fef2 953c 36df f5bd 8db7 38bd f588 91bc
000002d0: db75 c9ba 8e9c aebc 7d56 b3bb debe 3cbd
000002e0: f58d 8d3d 3807 2a3d 3780 c4bd 0934 fabd
000002f0: e030 1d3e 0ff7 16bc 1f02 f33d d8bf 43bc
00000300: 8702 84be b586 cbbd ceb4 5cbe 3680 1dbe
00000310: fb66 3ebe 5cf1 a7be 2972 84bd b9b9 6cbe
00000320: 61f4 e2be 4193 e937 6a22 1fbe 6588 d4bd
00000330: af95 a0be 927b acbe 5a62 0b3c 137e 0cbf
00000340: 72ea 9abe 3e58 75bd a4dd a03d e796 053d
00000350: 22cc 8cbd f98e b23d 17fb fabe baee bebd
00000360: d48d 623d 028d 8dbd 36d2 10be 7e5c 61be
00000370: 822b dd3d 214f 45be b9ec d0bd 3330 91bd
00000380: c57f e4bd 2b04 2ebc 1ad6 47bf 5fd9 20bf
00000390: 1c19 48be b702 85bd 0b4c 9ebe 08e8 00bf
000003a0: a9f3 97bd b245 6fbe feae 6a3d 908e 0bbf
000003b0: 44a6 3c3d f487 50be adef bcbc f569 00be
000003c0: 40ca 45be 4a41 54be 64db 6cbe 3907 4dbd
000003d0: bde2 32be c5b7 20be 777e 4dbe dffc aebe
000003e0: 681f b2be 7219 61bc b78c fabe 04c9 92be
000003f0: 3ba4 adbe 37bf e5be 02e3 89bd fbf6 6bbc
-0.30544427 -0.10084947 -0.35860386 -0.046971634 -0.19536299 -0.37992635 -0.14475489 -0.15785623
-0.5663317 -0.16019413 -0.1729164 -0.060788628 -0.35387412 -0.41231492 -0.07303988 -0.4914529
-0.34867373 -0.06472911 0.11404413 0.13587405 -0.006912394 0.13994208 -0.33919457 -0.1461395
-0.3375677 -0.0033129493 -0.20153894 -0.23171973 -0.021167211 -0.09316078 -0.08867132 -0.14816631
-0.15872905 0.01583824 -0.8101166 -0.4756053 -0.19433513 -0.044914916 -0.36909428 -0.64431924
-0.11943042 -0.40995207 -0.18146284 -0.574891 -0.17307982 -0.16099846 -0.086511284 -0.05354088
-0.100043915 -0.2068011 -0.2805688 -0.013032552 -0.22428845 -0.2527956 -0.27162212 -0.25261563
-0.33677262 -0.10805048 -0.47142377 -0.34014815 -0.17124408 -0.36501226 -0.17871067 -0.049954373
-0.38408265 -0.031018874 -0.35741252 -0.19324875 -0.3046382 -0.43540767 -0.33307025 -0.29650915
-0.6384231 -0.2572414 -0.08675529 -0.107707374 -0.16618581 -0.45065203 0.023780411 -0.42743236
-0.28695333 -0.042266224 0.037914976 0.43486032 -0.015399321 -0.14330237 -0.43482518 -0.3011897
0.12301268 -0.05174473 -0.37887457 -0.5461678 0.15095675 -0.25115997 -0.16980627 -0.005261878
-0.05813788 -0.16297168 -0.8465278 -0.45889848 -0.34610817 0.06852141 -0.30613756 -0.4201246
-0.16207866 -0.2518401 -0.090067215 -0.42990425 -0.047089987 -0.0527457 0.030552423 -0.2780331
-0.026091212 -0.06470024 -0.3421267 -0.004999036 -0.0733797 -0.31349707 -0.20447388 -0.33490008
-0.45253932 -0.014278309 -0.2584492 -0.49494836 -0.19513056 -0.4162615 -0.37422764 0.0138218645
-0.034323517 -0.07764644 0.063843235 0.026583705 -0.058822054 0.10311266 0.05646063 0.06913215
0.03663838 0.05536662 -0.033057738 0.044102147 -0.013074702 -0.08857232 0.04982654 -0.059489157
-0.101009324 0.04084436 0.04375613 -0.22763339 0.17518124 0.041263126 -0.017734976 0.06768127
-0.103661545 -0.15889317 -0.04250283 -0.10125617 0.09217845 -0.04883388 0.018509565 0.0644411
0.046469644 0.05647799 0.06856721 -0.011894892 -0.100213446 -0.09519911 0.07048501 -0.029202636
-0.093917586 0.03223884 0.02045109 -0.01733482 0.03908541 -0.098946676 0.14791238 -0.057261653
0.018304344 -0.12005465 -0.045096923 -0.017765502 -0.0015370207 -0.021314885 -0.0054729567 -0.046080463
0.06911842 0.04151079 -0.095947675 -0.12216956 0.15350676 -0.009214177 0.11865639 -0.011947595
-0.25783178 -0.09937803 -0.21553347 -0.1538094 -0.18593971 -0.3280133 -0.06467087 -0.23117723
-0.4432707 2.7844335e-05 -0.15540472 -0.10377578 -0.313642 -0.33688027 0.008507336 -0.54879874
-0.30256993 -0.059898607 0.078547746 0.032614615 -0.06874873 0.08718676 -0.4901969 -0.09322877
0.05531104 -0.06911661 -0.14142689 -0.22007939 0.10799314 -0.19268467 -0.10201401 -0.070892714
-0.111571826 -0.010621111 -0.7806107 -0.6283168 -0.19540828 -0.064946584 -0.3091739 -0.5035405
-0.07419521 -0.2336643 0.05729579 -0.5451441 0.046057 -0.20364362 -0.023063505 -0.1254042
-0.19315434 -0.20728031 -0.23130566 -0.050055716 -0.17469306 -0.15695103 -0.20067774 -0.341773
-0.34789586 -0.013738977 -0.48935482 -0.28668988 -0.3391436 -0.44872448 -0.067327514 -0.014402146
