models/vanilla_model.pth (torch, 20542 bytes, 5 tensors)

rnn.weight_ih_l0 f4 [64, 5]
00000000: b916 173c d205 29bd 136b 4e3c 9fa7 cf3d
00000010: 7772 62bd 41af ea3d 4457 ca39 2afe c43d
00000020: dcd1 223e c482 03bd 988d b13d 7df9 963d
00000030: 87b6 38bd dc68 a53d 6d29 96bb 544d 5f3d
00000040: e4d8 683d 79f0 ed3c 27f7 333d ae09 903c
00000050: 56b1 94bd ba67 f0bc 8ecb 0f3d 992f e5bd
00000060: a42e 50bd fff8 92bc 6d71 d1bd 0a10 24bb
00000070: e685 f0bd b2f0 f1bd bf86 6fbd 1705 8a3b
00000080: 4bd7 a7bd a14c 21be 21e6 d03d 7d9b 0b3e
00000090: ff64 e73d 72de d53c 68ac bd3d bcea 413d
000000a0: 63da 84bd a984 dd3d 1905 b93c 3453 343d
000000b0: 3122 05bd 3a3e 843d 2512 953c 2453 2abd
000000c0: d51c 51bd 503b 353b a7e0 d8bc 8831 113d
000000d0: d671 9b3d 7215 853d 965a 203d 92ac c7bd
000000e0: 34f8 91bd ba68 0dbd 7ddf 28bd 0146 763d
000000f0: 8482 333d 837e 8c3d d61f c2bd ac8e 01be
00000100: 3de5 7ebd b2c4 fabd 1e62 4bbd e89a ce3d
00000110: cdfd 10be 3f44 2b3b e19d c8bd d748 68bc
00000120: a14b ac3d 2174 803c f4bb 56bd 329f c43d
00000130: 4769 c53d 7077 9abd 8411 abbd 94a4 bb3d
00000140: 5c88 ea3c 4160 bfbd 0d90 a9bd f773 c3bc
00000150: d850 cdbd e39f 8b3d 8eca a63d f4ed 99bd
00000160: 8e93 cfbd e9a7 7c3d 1455 5cbc 9b63 3fbd
00000170: 76ef 91bc bcd3 873d 4b91 10be 2eb3 02be
00000180: 85d4 babd 06cd 593c fda9 043e d3e6 af3d
00000190: af3c 98bc d336 cb3d d4c2 5abd 89dd a63d
000001a0: 5237 89bd 47dd 473d 7307 bcbd cf69 733d
000001b0: 9e47 423e a711 17bd 37c3 4d3c b1fd c03a
000001c0: 4665 85bd 8795 3cbd 193d 3d3c 7ff3 c8bd
000001d0: 6773 3b3d 53a9 9e3d 207e 29be 9abe 31bd
000001e0: 0374 afbc 130b bb3d f860 d73b 6838 e8bd
000001f0: c22f 023e 3421 2f3d e211 9c3c 15e5 7e3d
00000200: cde4 2abd 528e 39bd d7f7 543d c847 28bc
00000210: 0496 213e 5285 153d 4322 4dbd 233d 2d3d
00000220: f8f4 aabd 46b9 03bd 770c 243e e734 c13c
00000230: 4bd3 673d 39a9 31bd 458e 58bd 8a38 9fbc
00000240: c680 e5bd 90f2 8fbd 8719 993d df0f 603c
00000250: 0138 22be 96d9 76bd b4d5 b6bc eeda 083d
00000260: 49f4 de3c 518b 8d3d 6b63 153c db38 fd3c
00000270: e6fe b9bc 49a9 7bbd a266 09bd 7cda e43d
00000280: 34c9 80bd 72bb 45bd fc0d 413d 8180 14be
00000290: e154 8c3d 643e 02be 7fb0 7c3b 30fb 89bd
000002a0: a4da 61bd 0e22 fc3d e909 1dbc ed8e 903d
000002b0: a72e 653d 21d0 ad3d 592d 57bd 86e9 43bd
000002c0: a5c0 043d 3060 a7bd 4bda 06bd 2905 c1bd
000002d0: df86 95bd 7d1d 9f3c 86f9 cc3c 13de febd
000002e0: a744 ae3d ec16 01bd c9af 7f3c a6fc c1bd
000002f0: 19b7 073d 72fe 29bd 0c34 c03d e054 873d
00000300: ef91 873d 738b 4f3d 6fd2 673d dd12 8e3d
00000310: 8497 46bd ad13 e43c 68e8 783d ca7a b8bd
00000320: c549 e5bc 16e3 a63d 5749 003e 17ad 203d
00000330: ad35 bf3c 87d3 06bc 982a c13d 17b6 3b3d
00000340: 2fb1 0bbe dd9b a1bd 3e6d 60bb 9803 b7bd
00000350: ba49 94bd 9d18 a6bc 190e d93d fdf4 d8bd
00000360: a3ab cdbc 0e88 d6bd 90da e13d 14f9 bdbc
00000370: 2a45 2cbc 5763 92bd 7d57 39bd a71c 163e
00000380: f049 383d de63 d93d eb87 cdbc 8549 a53d
00000390: 360a 4d3d 74f1 e0bd 2c54 013e eff2 c6bd
000003a0: f0aa 583d 4f9c bd3d b9e0 8d3d 89e7 33bd
000003b0: 8490 b33d e7e4 aabd 0319 c73d 97fe 753d
000003c0: 3872 013e 58b2 e4bd 10d3 ee3d 5cb4 0c3e
000003d0: 6135 b93c 6cfd d93d 72ac 3ebd 894d 1abd
000003e0: 26cc a3bc 3537 253d d9c9 733b 9e3d 7dbd
000003f0: c3c3 a6bd 369c 973d ecbf 83bd 0e86 cfbc
0.009221726 -0.041265316 0.012598771 0.10139393 -0.055284943 0.11459208 0.0003859346 0.096187904
0.15900367 -0.03210713 0.08669585 0.07371805 -0.045095947 0.08076641 -0.004582575 0.054517105
0.056847468 0.02904533 0.043936875 0.01758274 -0.07260387 -0.029346336 0.035106234 -0.11190719
-0.05082573 -0.017940996 -0.102267124 -0.0025033974 -0.11744289 -0.11813487 -0.058478113 0.0042120325
-0.08195361 -0.15751888 0.102001436 0.13633533 0.1129856 0.026107047 0.092613995 0.047343
-0.064869665 0.108163185 0.022585439 0.04402466 -0.03250331 0.06457181 0.018197129 -0.041583195
-0.051052887 0.0027653761 -0.02647431 0.035447627 0.07590072 0.06498231 0.03914889 -0.09749712
-0.07127419 -0.034523703 -0.04122876 0.060125355 0.04382564 0.06860068 -0.094787285 -0.12652081
-0.062230337 -0.12244548 -0.04965412 0.1008814 -0.14159317 0.0026133207 -0.09795738 -0.014177523
0.084128626 0.015680375 -0.05242534 0.096006766 0.09639221 -0.07542312 -0.0835295 0.0916225
0.028629474 -0.09344531 -0.08279429 -0.023859007 -0.10025185 0.06817605 0.08144103 -0.07516089
-0.10135566 0.06168357 -0.013448019 -0.04672585 -0.01781438 0.06632182 -0.14117925 -0.12763664
-0.09122566 0.01329351 0.1295547 0.08588948 -0.018583624 0.09922566 -0.05340846 0.08147723
-0.06700005 0.04879501 -0.09181108 0.05942708 0.18972632 -0.03688207 0.01255875 0.0014724043
-0.06513457 -0.046041038 0.011550211 -0.09812068 0.045764353 0.0774714 -0.16552019 -0.043394662
-0.021417623 0.091329716 0.006572839 -0.11338884 0.1271353 0.042756274 0.019051496 0.06223019
-0.041722108 -0.045301743 0.05199417 -0.01027102 0.15779883 0.036504097 -0.050081503 0.042294633
-0.08347505 -0.032159112 0.1602038 0.023584796 0.05659799 -0.043374274 -0.052870054 -0.01943614
-0.11206202 -0.07028687 0.07475572 0.013675659 -0.15841676 -0.0602661 -0.022318698 0.033411913
0.027216094 0.06911338 0.009117941 0.0309109 -0.022704553 -0.06144074 -0.033545144 0.11174485
-0.062883765 -0.048274465 0.047132477 -0.14502145 0.06852127 -0.12719113 0.0038557348 -0.06737363
-0.055140153 0.12311183 -0.009584882 0.07058511 0.055952694 0.08486963 -0.05253348 -0.047830127
0.032410283 -0.08172643 -0.032923024 -0.09424812 -0.07301115 0.01942324 0.025021326 -0.12444701
0.08509188 -0.031516 0.015605875 -0.09472017 0.0331336 -0.041502424 0.09384927 0.066079855
0.066196315 0.0506701 0.05659717 0.06937192 -0.04848434 0.027841413 0.060768515 -0.09007795
-0.027989278 0.08148782 0.12527977 0.03922757 0.023341024 -0.008229143 0.09431952 0.04582795
-0.13641809 -0.07891057 -0.00342448 -0.08936232 -0.07240625 -0.020275408 0.10598392 -0.10593603
-0.025106257 -0.10475169 0.110280156 -0.023190059 -0.010514537 -0.07147854 -0.04524945 0.14659368
0.044992387 0.10614751 -0.025089225 0.08070663 0.050058566 -0.109835535 0.12629765 -0.09714305
0.052897394 0.09258329 0.06927628 -0.04392198 0.087677985 -0.08344441 0.097215675 0.06005725
0.12641227 -0.11166829 0.11661351 0.13740677 0.02260846 0.106440395 -0.046551175 -0.0376716
-0.019994806 0.040335853 0.0037199168 -0.06182634 -0.08142807 0.07402842 -0.064330906 -0.025332477

rnn.weight_hh_l0 f4 [64, 64]
00000000: 81f2 cfbd 7782 6cbd a7f3 e2bd 34cf 0a3d
00000010: f0f5 91bd 35a5 fabc 602a 123c a05a 153d
00000020: da61 6dbd b2a8 78bc ecef cdbd d76a 9a3d
00000030: 9724 8bbc 6fa8 efbd 5849 aebd d16a c93c
00000040: 1909 e4bc 9a18 a33d bfe5 57bd a048 9abd
00000050: 2ebd 53bc ce6d c33b 2499 ea3d 0f21 17be
00000060: 4b52 683d 9922 2bbd 7fda b5bd fe9e d4bc
00000070: 90d8 12bc dbee c8bd 5291 dcbd 652a 27bc
00000080: 475c df3c 90f4 10bc e951 e1bd 19b5 17bc
00000090: 3eae cd3d 0b0b b33d 6a6d 50bd 9733 b63d
000000a0: 1dc0 663d 45d7 ae3d 6738 76bd 2adb e83d
000000b0: fc8e 94bc 5011 cf3d 1160 b63d 2fd5 a63d
000000c0: 474e 983d ebac c7bd 4f10 b5bb e5ec 0bbe
000000d0: bd1b 73bd 0c7f edbd 4d25 893c 1e53 003e
000000e0: 61c5 c9bd f8c0 6c3d d78b c53c 39eb 1cbd
000000f0: 0d7d ed3d 11d3 fe3d d585 d23c 0897 14bd
00000100: ab28 983d b1e0 68bd 6e4e 043e a3c0 cdbd
00000110: bb43 d5bd 646c bf3d 329c 2cbc b07f d03d
00000120: 2bb2 023c 652b 98bd 02c6 fa3d f490 b9bb
00000130: 2159 40bd 1a77 73bd 70b1 373d accc 08bc
00000140: b75e ce3d e2b1 67bd 4ff0 973d c6e3 88bd
00000150: 80d5 2c3b 2342 843d 82c6 ba3d 0e82 803d
00000160: 1280 9cbd b493 b2bd 4734 1e3d 1745 e03d
00000170: b34a a1bd 7615 9c3d c20a 97bd 62ca fb3c
00000180: b256 9e3c 4c2c 68bd 4805 9ebd d62e 7b3d
00000190: ee92 84bd d20e eabc 7c6a 8abd 0bbf 483d
000001a0: ffd5 e93d d913 af3d 703c b33c 7461 803c
000001b0: bdf6 c13d 1f01 e2bd 8b0b 96bd e50e 99bd
000001c0: 1a7c ed3d ae6a e03d 33d1 a0bd 3104 acbc
000001d0: 247f 14be c8fa 53bd fd29 bebd cb73 aa3c
000001e0: a8bc b13d e07c c03d 5679 da3d 620b fabc
000001f0: 6e5f b6bd f593 8cbc f873 e5bc dd4e 4fbc
00000200: 3994 b43d eab5 213c 59e3 88bd 649b b83d
00000210: 9538 1e3d 1c0d ee3d 2e9c cf3d 458e 00bd
00000220: c882 4a3c 6e8e fe3a f703 bebd 306b cdbd
00000230: 2cd0 5d3d 62b1 56bd 08b9 e2bc 7cce ae3d
00000240: 4ed7 713c 754e 77bd be85 8d3d 5bbd c8bd
00000250: 53d6 f73c d733 883d e97b 82bd 4c83 c7bd
00000260: 9dd2 233d 3efa 8e3d 6efb a93d 29ad cdbd
00000270: c61c 893d b937 ccbd 9d35 113d d2a0 9f3c
00000280: 3ef7 9a3c 030a 91bd 0602 24bd 6642 083d
00000290: 14b1 90bd 6717 84b9 6fb8 1fbd 3871 cfbc
000002a0: fbc5 dfbd d178 193d 7eb6 793d 908c 1ebc
000002b0: 908a 983d 55e3 d23c 5330 3abd 3176 09be
000002c0: 0fde 6f3d a9af b73c 18b8 3ebd eec5 dcbd
000002d0: d4f0 a53d 8a70 533d d298 b0bd fdfc 873d
000002e0: 7a0f 24bc e836 d53d 593c b2bc 8bda a9bd
000002f0: 027c eb3d b5d8 803d 1703 283c 8f1d 2fbd
00000300: f19c f43d 0a19 1f3d 4b1d 93bd 99d6 e53d
00000310: 7f1a fcbd 16cf 49bc c257 3abd dc0a 0dbd
00000320: 6590 873c 6a9e 423d e0ac 783d 09d7 14bc
00000330: 82d3 31bd d483 9f3d 2666 c73d 1dc1 e3bd
00000340: 1aa8 2a3d 031c 08be 4f0a f23d 5f32 a0bd
00000350: 1944 eabd 05b8 ba3c 186e 8c3c 319f 25bb
00000360: 63f5 9ebd 7e20 21bc 73d6 dcbd 5c69 c53d
00000370: 1cd9 2c3c c4a0 e5bd c5b5 f53d cbf1 f1bd
00000380: ddd8 8c3c 578b b93c 22bd e1bd 6627 ee3d
00000390: 0470 ffbd 43e4 c0bd 57bf f1bd 9f4f a1bd
000003a0: 4dfa 0fbc 44f4 bbbd 2dff 06bc 6973 f23d
000003b0: 2425 b83d 343a aebd b68f 62bd b778 00bd
000003c0: 6da1 e33d ea81 ee3d 3995 9e3d eb34 7e3d
000003d0: 8ae3 c2bc 7af9 56b9 15d2 cb3d 043e 99bd
000003e0: 3ffd d43d 4353 0d3e 51c8 f43d e89c 833d
000003f0: dc3f d6bd 221f c63d 920a b53b c534 41bd
-0.10153676 -0.05774161 -0.11081629 0.03388901 -0.07126987 -0.030596355 0.008921236 0.03646338
-0.057954647 -0.015176939 -0.10055527 0.07539909 -0.01698522 -0.11702048 -0.08510083 0.024587067
-0.02783637 0.07963677 -0.052709337 -0.07533383 -0.012923522 0.0059640175 0.114549905 -0.14758705
0.056719106 -0.04178104 -0.088795654 -0.02595472 -0.008962765 -0.09811183 -0.10769905 -0.010202979
0.027265681 -0.008847371 -0.11001951 -0.009259486 0.10043 0.08742341 -0.050885595 0.08896559
0.056335557 0.08537153 -0.060112383 0.11369927 -0.018134587 0.10110724 0.08905042 0.0814613
0.07436805 -0.09749778 -0.005525626 -0.13664587 -0.059352625 -0.11596498 0.01674142 0.12531707
-0.098521 0.057801217 0.024114532 -0.038310263 0.11596117 0.124426015 0.025698582 -0.036276847
0.07429632 -0.056854907 0.12920544 -0.10046508 -0.10413309 0.09346846 -0.010535287 0.101806045
0.007977049 -0.07430152 0.12244798 -0.0056630317 -0.04696 -0.059439756 0.044846952 -0.008349579
0.10076659 -0.056566127 0.07418882 -0.06684069 0.0026372373 0.06457927 0.091198936 0.06274806
-0.07641615 -0.087195784 0.038624074 0.10950678 -0.07875576 0.07621281 -0.07375099 0.030736152
0.019328449 -0.05668287 -0.07715851 0.061323963 -0.06473337 -0.02857152 -0.067585915 0.049010318
0.1141777 0.085487075 0.021879405 0.01567147 0.0947089 -0.1103537 -0.073264204 -0.07473544
0.11595936 0.109578475 -0.078524016 -0.020998092 -0.14501625 -0.051752836 -0.092853524 0.020807168
0.086785614 0.09398818 0.10667674 -0.030523006 -0.089049205 -0.017160395 -0.0280094 -0.01265308
0.08817334 0.009870032 -0.06683988 0.090140134 0.03862818 0.11623594 0.10137211 -0.03138568
0.012360282 0.001942111 -0.092781 -0.1003021 0.054153606 -0.05241526 -0.02767612 0.085354775
0.014760805 -0.060377557 0.06910275 -0.09801742 0.030253565 0.06650513 -0.0637129 -0.0974184
0.03999578 0.06981324 0.082999095 -0.10042793 0.06694941 -0.09971566 0.03545152 0.019485865
0.018916722 -0.07081988 -0.040040992 0.033266447 -0.07065025 -0.00025194438 -0.03899425 -0.025322542
-0.10926434 0.037468735 0.060965054 -0.009677067 0.07448304 0.025743166 -0.04545624 -0.13423993
0.05856138 0.022422628 -0.046562284 -0.107799396 0.08102575 0.051620997 -0.08622898 0.066400506
-0.0100134555 0.10410863 -0.021757292 -0.08293637 0.11498262 0.062913336 0.010254643 -0.0427528
0.11943997 0.03884224 -0.071833216 0.11222572 -0.12309741 -0.01231744 -0.04549385 -0.034434184
0.016548345 0.047514357 0.06071174 -0.0090844715 -0.0434146 0.07788816 0.0973628 -0.11120818
0.04166422 -0.13291936 0.118183725 -0.078221075 -0.1143877 0.022792825 0.01714234 -0.0025271887
-0.077616476 -0.009834407 -0.107830904 0.09639236 0.01054981 -0.11212304 0.119975604 -0.118136965
0.017193252 0.02264945 -0.11022402 0.116286084 -0.12472537 -0.094185375 -0.11804073 -0.07876515
-0.008787704 -0.09177449 -0.00823955 0.11838419 0.08991459 -0.08507195 -0.055312835 -0.031365123
0.11114774 0.11645873 0.07743306 0.062062185 -0.02379014 -0.00020501568 0.09952179 -0.07482532
0.10399865 0.13801293 0.1195227 0.06426412 -0.10461399 0.09673907 0.0055249417 -0.047169466

rnn.bias_ih_l0 f4 [64]
00000000: 50b4 013d cc25 e63c f5d3 2dbd 88a9 773d
00000010: fee8 8a3d 3383 6e3d 5ee2 d53d 00f4 7bbc
00000020: 7e6d 853c a87b 813d d00d 323d 37a9 fc3d
00000030: 3bc0 8bbd 5246 263c dd11 bdbc 617b 8ebd
00000040: 3246 123b 72d8 babd 4c22 173c 5f07 bc3d
00000050: fb12 9abd ad8a 903d 1739 fabc 1a73 553c
00000060: 0f5f 2d3d 30a7 253d 43ef bd3d baa8 5ebd
00000070: e289 83b9 6710 923c 6ff2 10bd 3167 01bd
00000080: adbe 8e3d 9029 853d cf92 883d e4c9 f0bc
00000090: 46c8 e63c 209a f0bd 17c3 99b9 77bb 54bd
000000a0: 6d9b 5bbd 7f83 833d 0436 963d f8bf 4e3c
000000b0: 06e8 003e d54a a93d 485f 1cbc df53 4b3d
000000c0: e67e 913d 458e b03d 8334 1bbd 6f28 cc3d
000000d0: bead 41bc 1038 93bd ac52 ab3d 88e3 653d
000000e0: d392 3a3d a091 63bd d7b3 8d3d 1716 9abc
000000f0: f12e 06bd 1fdd e4bd a139 cebd 7e6e 083d
0.0316661 0.028094195 -0.042438466 0.060464412 0.06782721 0.05823059 0.10443567 -0.015377998
0.016287562 0.06322414 0.043470204 0.12336963 -0.068237744 0.010148602 -0.023079807 -0.069571264
0.0022319672 -0.09123315 0.009224486 0.091810934 -0.075231515 0.070577 -0.0305448 0.013027931
0.042326983 0.040442646 0.09274151 -0.05436013 -0.00025088998 0.017830087 -0.035387453 -0.03159255
0.06969962 0.06502068 0.066686265 -0.029393144 0.02817167 -0.11748147 -0.00029327787 -0.051936593
-0.053615022 0.06421565 0.073345214 0.012619011 0.1258851 0.08266226 -0.009544201 0.049640533
0.07104282 0.08620886 -0.037891876 0.099686496 -0.0118212085 -0.071884274 0.08365378 0.056125194
0.04555018 -0.0555588 0.06919067 -0.018809361 -0.03275961 -0.11174988 -0.100695856 0.0333085

rnn.bias_hh_l0 f4 [64]
00000000: e2c9 0fbc 2f56 85bd 4c41 7fbc df57 22ba
00000010: 7ad3 bc3d 7e4e 8abd a4d2 1bbc 61a7 82bb
00000020: 47db ab3d 6858 763d cfdc a53d 710d 7a39
00000030: 3cae 7a3d 8693 70bd 4e06 293c b50b a43d
00000040: 0635 1b3d d84d a43d e1ae 25bd 2f5f 08be
00000050: 162e 653d 3886 553d 0f97 6dbd 183d 553d
00000060: 20fc cebd d0d8 c3bd 55ef 7f3d 3214 babd
00000070: fa10 c9bd d8df 193c 77af 733d 694d 29bc
00000080: b6bd adbd 8159 ba3c f709 233d 92f8 dbbd
00000090: 4be4 72bd cfcb e3bc 1cec c1bd d849 593d
000000a0: 9ed4 5dbd ef82 203c 4cc0 b53d e461 edbc
000000b0: a259 053e 45f5 e8bd 4f57 cc3d a77f 1a3d
000000c0: 6c2a 5cbd 946d 24bc dbac 54bd 0160 423d
000000d0: ceb1 08bc 325b 913d 32b1 e9bc 7561 9abd
000000e0: 078d 33bb 0d96 57bd 033b ccbd bbbc d53d
000000f0: 65f7 07be 59a4 c2bd dfad 4ebd 5f9d ea3d
-0.00877616 -0.06510579 -0.015579533 -0.00061929034 0.092200235 -0.067532524 -0.00951067 -0.0039872383
0.08391433 0.060142905 0.080987565 0.00023846865 0.06120132 -0.05873444 0.010316445 0.080100454
0.037892364 0.0802266 -0.04044998 -0.1331756 0.055952154 0.052129954 -0.05800539 0.052060217
-0.10106683 -0.09562838 0.062484104 -0.09085883 -0.09817691 0.009391747 0.05949351 -0.010333397
-0.0848345 0.022747757 0.039804425 -0.107407704 -0.05929975 -0.027807144 -0.094688624 0.05304894
-0.054157846 0.009796842 0.08874568 -0.028977342 0.13022473 -0.113749065 0.0997759 0.037719395
-0.053751394 -0.010035891 -0.05192266 0.047454838 -0.008343173 0.07097472 -0.028526876 -0.0753812
-0.0027397291 -0.052633334 -0.09972193 0.10436388 -0.13277967 -0.09504003 -0.050458785 0.114557974

fc.weight f4 [1, 64]
00000000: 704b 0dbc d613 d93d 420f 29bd 4fa9 9f3d
00000010: c3d5 27be 660d ccbd 090a 8dbd ad81 973d
00000020: f558 673d c487 9e3c 1292 a7bd 229d b13d
00000030: f297 23bd 9154 e9bd f849 73bc 3252 d53d
00000040: 3c3d e33c 8ab8 673d 8136 28bc 32e8 1d3d
00000050: 1a13 bb3d 45ba 483d b8c0 91bd bd2a ccbd
00000060: 79c0 f0ba 08d9 6bbb ca2e bb3d a6b1 df3b
00000070: 6d75 f7bd 0d65 c3bd 4741 aabd 19a1 803d
00000080: 8049 12be f309 08bd dfc7 0c3e 25ba 3e3d
00000090: e551 11be 08ae 093d fa34 fb3d d289 cc3d
000000a0: 1272 de3d 0efb 79bd 5ad5 283c 04cd 033e
000000b0: d883 013e 9846 b9bb c834 cc3d dced a53d
000000c0: 218e e63d fa82 29bd c87a c2bd b682 0d3e
000000d0: 1c67 3bbd eee3 0f3e 01ba 063e 2af6 6dbd
000000e0: 99dc 9b3d a8df 2e3e 0e43 653d 3d7d 043e
000000f0: 80a3 4abd ca7c 92bd 3fc5 85bd a66d 78bc
-0.008623943 0.105994865 -0.041274317 0.07795965 -0.16390137 -0.09963493 -0.0688668 0.073977806
0.05648132 0.019351847 -0.081821576 0.08672549 -0.03993983 -0.11393083 -0.0148491785 0.10416068
0.02773916 0.056572475 -0.010266901 0.038551517 0.09134503 0.049005765 -0.07116836 -0.09969089
-0.0018367908 -0.0035987515 0.09139784 0.0068265973 -0.12082944 -0.09540758 -0.08313232 0.06280727
-0.1428585 -0.033212613 0.1374812 0.04656424 -0.14191397 0.033613235 0.12265964 0.09987225
0.10861601 -0.06103044 0.010304773 0.12871176 0.1264795 -0.0056541674 0.09971005 0.08102009
0.11257578 -0.041384675 -0.09496075 0.13819394 -0.04575263 0.14051792 0.13156892 -0.05809609
0.07610435 0.17077506 0.05597215 0.129384 -0.049472332 -0.07152708 -0.06531762 -0.015162861
