models/vanilla_model.pth (torch, 21060 bytes, 5 tensors)

rnn.weight_ih_l0 f4 [64, 5]
-0.03654033 0.09953967 0.104451224 -0.14932095 -0.10180299 0.01336013 0.070094086 -0.107829876
-0.068913914 -0.036195066 0.00026606588 0.022220837 0.10050503 0.0034618347 0.036545943 0.059323736
-0.058599465 0.061111555 0.05519969 0.0081607895 -0.10462685 0.060631998 0.0046470384 0.0129766045
0.09165417 -0.035727493 0.001192411 0.10998231 -0.11239186 -0.13226235 -0.04677054 0.11438363
-0.047203682 -0.093190484 0.02079459 0.11131435 0.03531667 0.031904876 0.1296216 0.03675526
0.0011013631 0.06593782 -0.0996982 0.14032103 0.12595502 -0.06167438 0.0083062565 0.104373686
0.10345671 -0.12621935 0.07014785 -0.06613224 -0.05590055 0.08591842 -0.122012146 0.077884935
0.007151624 0.12554653 0.13208447 -0.024297701 -0.0075530233 -0.055170417 -0.037889056 -0.051300894
-0.12785688 -0.046613254 -0.097148985 -0.048529886 0.11218978 0.08042158 0.04297111 -0.06585347
-0.08018983 0.07769742 0.013724639 -0.024135025 0.04701168 -0.03963713 -0.047958333 0.018448854
0.055490397 0.0060919905 -0.09514938 -0.14336264 0.08779115 -0.0910417 0.117790915 0.106638275
0.15211405 -0.058859933 0.05057488 -0.059377227 0.11259828 -0.07958586 -0.06535589 0.024327166
0.1424161 0.014280059 -0.08810069 0.063918345 -0.06929253 -0.02919639 -0.06931526 0.11801683
0.041836683 0.005942152 -0.07237434 0.02018048 -0.0671788 -0.083182774 0.05987799 -0.050505426
0.10201382 -0.07821551 -0.046077415 0.114849485 0.026544992 -0.0650243 0.016922021 0.13831374
-0.10318408 -0.045058366 0.0895071 -0.05722683 0.03169859 -0.004743662 -0.07339346 -0.019633085
0.028316878 0.096653275 0.014063928 0.007156025 0.053828925 0.07756989 0.02401435 0.04956732
0.022030354 0.001576753 0.023816962 0.03863825 0.0089749405 -0.056500964 -0.10895776 -0.06544898
-0.12886006 -0.057072904 -0.0062978426 0.0052963654 -0.117132284 -0.10920791 -0.047297336 0.08730033
-0.046487164 -0.053272348 -0.030412937 0.09869833 0.13143216 -0.005600449 -0.011230463 0.13483962
0.08065812 0.027689626 0.05731413 -0.004363975 -0.06113543 -0.10672725 0.10367947 0.06414347
-0.105911136 0.0130955875 0.04469312 0.015922137 -0.059017852 0.074023955 -0.082549326 0.11633297
-0.073484965 -0.08047683 -0.042478636 0.06945302 -0.052118972 -0.10776294 0.10255195 0.03168037
-0.052123055 -0.030695848 -0.09294181 -0.092680775 -0.106921166 -0.024907231 0.0082204975 0.116445795
0.030723723 -0.0971318 0.026538022 -0.014791772 -0.040414896 0.06548813 0.12879406 -0.05025808
0.03370921 0.06976417 -0.067898765 0.16465464 0.05507555 0.010173853 -0.041807476 0.005914698
0.0876558 -0.017786242 0.026304677 -0.009123699 0.11942415 0.058529228 -0.06874579 0.047056746
0.07974532 0.11668336 0.060563948 0.0319767 0.017628897 0.0813306 -0.09954327 -0.123911284
-0.09258182 0.09718471 0.08739638 -0.026226427 0.056620147 0.06634235 -0.018329803 -0.12349144
0.0143222315 -0.117022 -0.12270355 0.081271976 0.057582475 -0.02401543 0.13515869 -0.06329849
0.01884246 -0.051029276 -0.10057453 -0.12969771 0.07370542 -0.07241356 0.040420476 -0.11271093
-0.15586793 -0.029229393 0.05709005 -0.0913422 0.00038339017 0.08862564 0.13851614 -0.050433982
00000000: 50ab 15bd 74db cb3d 86ea d53d 97e7 18be
00000010: 167e d0bd 72e4 5a3c 7d8d 8f3d e9d5 dcbd
00000020: bd22 8dbd 4741 14bd c27e 8b39 7908 b63c
00000030: 95d5 cd3d f3df 623b 33b1 153d 72fd 723d
00000040: fe05 70bd 1c50 7a3d 1219 623d d5b4 053c
00000050: 9a46 d6bd 4259 783d 2f46 983b d39b 543c
00000060: 2eb5 bb3d fe56 12bd ac4a 9c3a 683e e13d
00000070: b42d e6bd c86f 07be 7792 3fbd f741 ea3d
00000080: a658 41bd a7da bebd 6a59 aa3c c7f8 e33d
00000090: 36a8 103d b0ae 023d 86bb 043e af8c 163d
000000a0: 9d5b 903a 680a 873d 922e ccbd 51b0 0f3e
000000b0: 5afa 003e 469e 7cbd f716 083c dfc1 d53d
000000c0: 1de1 d33d a53f 01be ada9 8f3d 5770 87bd
000000d0: faf7 64bd fff5 af3d 81e1 f9bd 2382 9f3d
000000e0: 2c58 ea3b 458f 003e 2741 073e f90b c7bc
000000f0: 5a7f f7bb 60fa 61bd 8e31 1bbd e320 52bd
00000100: eaec 02be 8aed 3ebd 0cf6 c6bd 46c7 46bd
00000110: c1c3 e53d 12b4 a43d 7a02 303d 2fde 86bd
00000120: 913a a4bd d31f 9f3d 4fdd 603c d1b6 c5bc
00000130: 528f 403d 8b5a 22bd f56f 44bd 0d22 973c
00000140: e649 633d 529f c73b aedd c2bd a8cd 12be
00000150: d9cb b33d 1274 babd 5d3c f13d 2b65 da3d
00000160: c9c3 1b3e 1d17 71bd 9b27 4f3d 8935 73bd
00000170: ed99 e63d e9fd a2bd 4fd9 85bd c449 c73c
00000180: 87d5 113e e9f6 693c 226e b4bd 9fe7 823d
00000190: 3ee9 8dbd 452d efbc 29f5 8dbd cfb2 f13d
000001a0: f15c 2b3d 62b6 c23b ff38 94bd 8951 a53c
000001b0: 0a95 89bd bb5b aabd a042 753d c7de 4ebd
000001c0: 9fec d03d 742f a0bd acbb 3cbd 3536 eb3d
000001d0: e274 d93c 762b 85bd 0da0 8a3c 1ea2 0d3e
000001e0: 2d52 d3bd 1f8f 38bd 804f b73d ae66 6abd
000001f0: 61d6 013d b970 9bbb 4f4f 96bd 90d5 a0bc
00000200: ccf8 e73c 27f2 c53d 646c 663c 177d ea3b
00000210: b87b 5c3d f6dc 9e3d beb9 c43c 1a07 4b3d
00000220: 0079 b43c 0dab ce3a ca1b c33c 2443 1e3d
00000230: a10b 133c 8e6d 67bd 3f25 dfbd 1d0a 86bd
00000240: e4f3 03be 47c5 69bd 225e cebb 228d ad3b
00000250: 0de3 efbd 66a8 dfbd daba 41bd 84ca b23d
00000260: 5369 3ebd 1b34 5abd 8d24 f9bc 5a22 ca3d
00000270: 2796 063e f983 b7bb faff 37bc 6613 0a3e
00000280: 1630 a53d 5bd5 e23c 39c2 6a3d adff 8ebb
00000290: 2569 7abd d193 dabd e755 d43d a75d 833d
000002a0: f0e7 d8bd e08e 563c 2210 373d 246f 823c
000002b0: b4bc 71bd df99 973d 9f0f a9bd fb3f ee3d
000002c0: 497f 96bd 09d1 a4bd 14fe 2dbd 633d 8e3d
000002d0: b47a 55bd d1b2 dcbd c206 d23d 47c3 013d
000002e0: fc7e 55bd dc75 fbbc 4758 bebd 6bcf bdbd
000002f0: 7cf9 dabd 400a ccbc 44af 063c 227b ee3d
00000300: 51b0 fb3c 0aed c6bd 4466 d93c 3059 72bc
00000310: 178a 25bd a41e 863d 97e2 033e 6bdb 4dbd
00000320: ab12 0a3d 84e0 8e3d 820e 8bbd 3a9b 283e
00000330: e696 613d 3bb0 263c 513e 2bbd 15d0 c13b
00000340: e284 b33d 74b4 91bc e87c d73c 917b 15bc
00000350: a694 f43d 58bc 6f3d 98ca 8cbd 93be 403d
00000360: 8451 a33d aff7 ee3d e711 783d 00fa 023d
00000370: 7a6a 903c a890 a63d 58dd cbbd 33c5 fdbd
00000380: 8a9b bdbd c708 c73d e0fc b23d ced8 d6bc
00000390: 87ea 673d 7fde 873d 6228 96bc 15e9 fcbd
000003a0: cba7 6a3c 3ba9 efbd 004c fbbd ec71 a63d
000003b0: 9adb 6b3d 02bc c4bc 0a67 0a3e a4a2 81bd
000003c0: 815b 9a3c 1304 51bd 05fa cdbd 7acf 04be
000003d0: def2 963d 8f4d 94bd f18f 253d fdd4 e6bd
000003e0: d89b 1fbe 7b72 efbc 42d7 693d 9f11 bbbd
000003f0: c201 c939 5c81 b53d 2dd7 0d3e dd93 4ebd

rnn.weight_hh_l0 f4 [64, 64]
-0.008209065 0.09427108 -0.12764724 0.0041884515 0.03990318 0.078799434 0.04308813 -0.12106781
-0.06614895 -0.106601536 0.044969115 0.11724205 -0.025936892 0.11558517 -0.07391722 0.07860314
-0.0567585 -0.087404855 0.09015644 0.082577884 -0.10462587 0.070844114 0.08530241 -0.01655752
-0.027314642 0.069767 0.081356965 -0.038049817 -0.034502298 0.06781043 0.08677994 0.11306428
-0.01357545 0.015766472 -0.021041825 0.024095612 0.02801949 -0.07216618 -0.090375245 -0.009112018
-0.11412584 -0.095386274 0.0013304353 0.00072933664 -0.08825883 0.03370589 0.12384157 -0.08175092
0.12106133 -0.036736846 -0.07729253 -0.044289548 0.08514446 -0.0883507 0.077375285 -0.034413088
-0.07894999 -0.08360571 0.03097208 0.0121132275 0.060893197 -0.027053986 -0.12499717 0.12953289
0.11565905 -0.07790254 -0.0321373 0.104081236 -0.010198959 -0.095094785 -0.09755599 0.092442505
0.0061810426 0.061092414 0.07778725 -0.0009457988 0.09712427 -0.04217263 -0.08542942 0.12064847
0.17048046 -0.13350661 0.09531175 -0.080877736 -0.13849533 -0.10032575 -0.06670774 -0.082955085
0.059592225 -0.1236479 0.050658178 0.03905951 -0.071135044 0.10640126 -0.03658749 -0.11636709
0.049307346 -0.0092822425 -0.035318706 -0.099044666 -0.06823317 -0.02755954 -0.081852354 0.07282137
-0.050296478 0.08514637 -0.049472734 -0.10305256 -0.06676058 -0.07210473 0.1014709 -0.076321594
0.018132867 0.09279472 -0.034709994 0.09142419 0.010860048 -0.10588026 0.026373833 0.034013685
0.056658816 -0.055116456 -0.059659854 -0.03282102 0.034317274 0.027419243 -0.09693347 0.039230518
-0.078866184 -0.08427428 0.0031490538 0.059101086 -0.008818624 0.015100113 -0.107128546 -0.13322657
-0.04297389 0.08872403 0.01710798 -0.009804091 0.089676045 -0.11558498 0.10823492 -0.10450114
0.084683806 -0.03134209 0.12389141 -0.030687362 -0.015339682 -0.03387825 -0.039766848 0.1065775
-0.0015858177 0.008750104 0.10392996 0.09254453 0.032308728 0.0009332706 -0.042459205 -0.12588641
-0.054313634 -0.005942169 0.001248442 0.005586172 -0.0013935842 -0.042203523 0.0703034 -0.06960335
0.0059080706 0.05030405 0.04815936 0.055118896 0.09262984 0.12080201 0.013772841 -0.058589697
0.0069212774 -0.094908215 0.072437495 -0.009817678 -0.07447585 0.06792178 -0.035620432 0.09487503
-0.083258234 0.11326884 0.08703539 -0.113114715 0.06268053 -0.03790858 -0.019300306 -0.040384784
-0.019215496 0.041629296 -0.04138019 -0.03470755 -0.0037985384 0.0328818 0.11860556 0.08212059
0.025782308 0.103040084 0.0742352 0.10397068 0.07378469 0.0015082197 -0.048150476 -0.026810952
-0.057545055 0.080255896 -0.049029455 -0.116076306 0.031099202 0.08710172 -0.095154084 0.067793645
-0.061421424 -0.03741817 0.07182482 -0.045058522 0.084637396 0.091672175 0.022059046 -0.00047561884
0.0669163 -0.0559285 0.08015163 -0.038815383 -0.00861766 0.06709786 -0.0869916 -0.079191506
-0.023365784 -0.09045342 -0.05526519 -0.02961328 0.11493966 0.045329787 0.02633619 0.056998245
-0.04333166 -0.044091858 -0.04908398 -0.014647115 -0.0047026984 -0.110433996 0.029128699 -0.049462378
-0.055330496 -0.01602138 -0.104722835 -0.06949305 -0.09498775 -0.017368859 0.12788057 0.06130296
00000000: 507f 06bc 3211 c13d f5b5 02be 473f 893b
00000010: 8471 233d 9961 a13d 2e7d 303d 66f2 f7bd
00000020: 1a79 87bd e851 dabd 8931 383d 9a1c f03d
00000030: 9b79 d4bc ebb7 ec3d e961 97bd affa a03d
00000040: 9a7b 68bd 5101 b3bd f1a3 b83d 981e a93d
00000050: 1746 d6bd b816 913d 08b3 ae3d a3a3 87bc
00000060: f5c2 dfbc 00e2 8e3d 7b9e a63d 20da 1bbd
00000070: 4852 0dbd 32e0 8a3d aeb9 b13d 3f8e e73d
00000080: 906b 5ebc b028 813c e85f acbc 2964 c53c
00000090: 2189 e53c ddcb 93bd a816 b9bd 934a 15bc
000000a0: cfba e9bd e159 c3bd 0062 ae3a f430 3f3a
000000b0: 0cc1 b4bd 300f 0a3d a6a0 fd3d 076d a7bd
000000c0: 01ef f73d 6079 16bd 8c4b 9ebd f568 35bd
000000d0: 3860 ae3d 36f1 b4bd ef76 9e3d bdf4 0cbd
000000e0: 88b0 a1bd 7839 abbd 29b9 fd3c 8f76 463c
000000f0: 256b 793d 52a0 ddbc 84fe ffbd 45a4 043e
00000100: a7de ec3d 5e8b 9fbd 67a2 03bd 8b28 d53d
00000110: 8919 27bc 0ec1 c2bd 6fcb c7bd 7f52 bd3d
00000120: 588a ca3b 0a3c 7a3d ec4e 9f3d 7cef 77ba
00000130: 17e9 c63d 35bd 2cbd 9ff5 aebd 8c16 f73d
00000140: 6e92 2e3e f5b5 08be cf32 c33d 3aa3 a5bd
00000150: b8d1 0dbe 9677 cdbd 119e 88bd 5be4 a9bd
00000160: fa16 743d 1c3b fdbd f37e 4f3d ddfc 1f3d
00000170: 40af 91bd e7e8 d93d c4dc 15bd de51 eebd
00000180: 80f6 493d 8c14 18bc 59aa 10bd eed7 cabd
00000190: d5bd 8bbd 8bc4 e1bc 35a2 a7bd 5f23 953d
000001a0: ae03 4ebd 3861 ae3d eca3 4abd 380d d3bd
000001b0: c5b9 88bd a5ab 93bd facf cf3d 7f4e 9cbd
000001c0: 618b 943c 280b be3d 112c 0ebd 9b3c bb3d
000001d0: 58ee 313c c0d7 d8bd f00d d83c ef51 0b3d
000001e0: 1313 683d cbc1 61bd e45d 74bd 556f 06bd
000001f0: 4590 0c3d 529e e03c 0e85 c6bd 2eb0 203d
00000200: 9884 a1bd fe97 acbd 5b60 4e3b fb13 723d
00000210: fd7b 10bc 7766 773c 3666 dbbd 8c6c 08be
00000220: 6405 30bd f2b4 b53d 0926 8c3c 57a1 20bc
00000230: 13a8 b73d d1b7 ecbd 45aa dd3d b204 d6bd
00000240: b46e ad3d 9060 00bd c8ba fd3d 1064 fbbc
00000250: 4a53 7bbc ebc3 0abd 90e2 22bd 4e45 da3d
00000260: 36db cfba 995c 0f3c 3bd9 d43d fd87 bd3d
00000270: 2856 043d bba6 743a b4e9 2dbd 5ee8 00be
00000280: f977 5ebd 87b6 c2bb c3a2 a33a 350c b73b
00000290: eda8 b6ba 9add 2cbd 3bfb 8f3d 338c 8ebd
000002a0: 7d98 c13b 9f0b 4e3d c042 453d 5ac4 613d
000002b0: b7b4 bd3d 0b67 f73d 7ba7 613c c0fb 6fbd
000002c0: e2cb e23b 3d5f c2bd 1c5a 943d 53da 20bc
000002d0: cb86 98bd 931a 8b3d bbe6 11bd d74d c23d
000002e0: 4b83 aabd 7ef9 e73d 9c3f b23d b0a8 e7bd
000002f0: a65e 803d 0746 1bbd ad1b 9ebc 846a 25bd
00000300: d169 9dbc 7b83 2a3d 467e 29bd 8129 0ebd
00000310: e6f0 78bb 11af 063d 79e7 f23d d72e a83d
00000320: 6b35 d33c ae06 d33d a008 983d 94ee d43d
00000330: 6d1c 973d 75af c53a 6f39 45bd a4a2 dbbc
00000340: 5db4 6bbd 345d a43d 1cd3 48bd 6ab9 edbd
00000350: c1c3 fe3c 6362 b23d 25e0 c2bd 65d7 8a3d
00000360: 0895 7bbd cc43 19bd e418 933d 498f 38bd
00000370: 5f56 ad3d 9fbe bb3d 2cb5 b43c 7b5c f9b9
00000380: 6a0b 893d 4815 65bd 8a26 a43d e1fc 1ebd
00000390: 1631 0dbc 9a6a 893d a728 b2bd 282f a2bd
000003a0: 9a69 bfbc a53f b9bd c05d 62bd 8d97 f2bc
000003b0: 7c65 eb3d baab 393d febe d73c fe76 693d
000003c0: 8a7c 31bd aa99 34bd 490c 49bd 74fa 6fbc
000003d0: 1819 9abb 382b e2bd 4f9f ee3c 1099 4abd
000003e0: 3ba2 62bd 453f 83bc ed78 d6bd 5f52 8ebd
000003f0: f088 c2bd 2349 8ebc 20f3 023e d018 7b3d

rnn.bias_ih_l0 f4 [64]
-0.105230816 -0.120696396 0.07096217 0.054427356 -0.035659976 -0.074140884 -0.06854584 0.00659474
0.020006742 0.09067516 0.026921036 -0.011700268 0.07812004 0.01751809 0.009859609 0.014565708
0.086192474 -0.04654788 0.011615854 -0.06398792 0.029390674 -0.00942171 0.079387456 0.012830646
-0.070854016 0.075375386 0.072041556 -0.038644344 -0.056810323 -0.09290452 -0.055432584 0.07259112
-0.024092222 0.08279628 0.09474383 0.013060333 0.10220004 0.072027266 0.10464226 0.06982323
-0.0885322 -0.016653523 -0.044635423 -0.05493367 -0.02642389 0.05836021 -0.08790538 -0.04345651
0.1320648 0.043720286 0.06692003 0.101669244 0.0060767676 0.09406581 0.0652348 -0.09016792
0.032305405 -0.13540606 -0.07326432 -0.023858234 0.071058504 -0.052098934 -0.10429898 0.11708046
00000000: 4183 d7bd ac2f f7bd 9d54 913d 38ef 5e3d
00000010: 3210 12bd 2dd7 97bd c361 8cbd b018 d83b
00000020: 2ee5 a33c e6b3 b93d 8189 dc3c 7bb2 3fbc
00000030: 66fd 9f3d 1982 8f3c 338a 213c 02a5 6e3c
00000040: ae85 b03d fda8 3ebd 6c50 3e3c 190c 83bd
00000050: b6c4 f03c 845d 1abc e495 a23d a137 523c
00000060: e91b 91bd 695e 9a3d 868a 933d 8849 1ebd
00000070: f1b1 68bd ba44 bebd 470d 63bd a7aa 943d
00000080: 0d5d c5bc 1991 a93d 0e09 c23d 02fb 553c
00000090: 414e d13d 0883 933d ae4e d63d 7bff 8e3d
000000a0: 5f50 b5bd f86c 88bc a2d3 36bd 2102 61bd
000000b0: ea76 d8bc 1e0b 6f3d bc07 b4bd 74ff 31bd
000000c0: ff3b 073e 0b14 333d 5e0d 893d f737 d03d
000000d0: 9f1f c73b 93a5 c03d d399 853d f5a9 b8bd
000000e0: ac52 043d e3a7 0abe 9b0b 96bd 5872 c3bc
000000f0: 1f87 913d b165 55bd b49a d5bd e1c7 ef3d

rnn.bias_hh_l0 f4 [64]
0.006319097 -0.05495451 0.011842479 0.079849266 -0.029340353 -0.0062459107 -0.086273156 0.04706672
-0.0237395 0.06675327 -0.06554307 0.12473197 0.037700493 -0.0717363 -0.06730467 0.0050050193
0.084081836 0.041472502 -0.06316395 -0.0388852 -0.10774045 0.065360494 -0.028649807 0.060888726
-0.019914959 0.123709075 0.020779908 -0.033748325 -0.049153257 -0.11776011 0.085620485 -0.011018608
0.07941694 -0.0670446 0.050024394 -0.02554406 -0.033294078 0.050219037 -0.069797546 0.09040534
-0.030286029 0.08991442 -0.03266394 -0.11010986 -0.09270151 -0.093119234 0.10270606 -0.07649581
-0.04328041 -0.13065025 -0.097135596 0.029567469 -0.11538097 0.03373373 0.022349862 -0.055500668
-0.06573052 -0.005608708 0.064031824 0.063870214 0.016392358 0.10348866 0.07694819 -0.073441066
00000000: 6d10 cf3b fb17 61bd f506 423c 0388 a33d
00000010: 2e5b f0bc 7faa ccbb fbaf b0bd 08c9 403d
00000020: 5779 c2bc f0b5 883d 723b 86bd 7a73 ff3d
00000030: d56b 1a3d 7bea 92bd 08d7 89bd 2501 a43b
00000040: 1933 ac3d 12df 293d 1a5c 81bd 1646 1fbd
00000050: 06a7 dcbd b9db 853d 00b3 eabc 7566 793d
00000060: b224 a3bc 2f5b fd3d a03a aa3c af3b 0abd
00000070: ed54 49bd 362c f1bd cb59 af3d 6487 34bc
00000080: 59a5 a23d ae4e 89bd 61e6 4c3d c741 d1bc
00000090: 5f5f 08bd 7ab2 4d3d 04f2 8ebd 6f26 b93d
000000a0: 681a f8bc 0d25 b83d a0ca 05bd 4781 e1bd
000000b0: 4ada bdbd 4cb5 bebd 8e57 d23d d6a9 9cbd
000000c0: cd46 31bd 2ec9 05be 07ef c6bd 7a37 f23c
000000d0: dc4c ecbd 612c 0a3d 0f17 b73c ab54 63bd
000000e0: b99d 86bd 41c9 b7bb 1e23 833d 63ce 823d
000000f0: 4449 863c ddf1 d33d 0397 9d3d 4568 96bd

fc.weight f4 [1, 64]
-0.13856888 -0.05857392 -0.08761122 -0.044641472 -0.1393119 0.02040919 0.007058858 0.102301605
0.12752117 -0.0001400068 -0.0452932 0.12039157 -0.12307987 0.03989903 0.11349311 -0.049004577
-0.05947788 -0.05686137 -0.0024153178 0.05647128 0.008023528 -0.085045286 -0.082928605 0.08979069
-0.13172153 0.09569617 0.044411648 0.0518742 -0.11764591 -0.10095497 0.10099346 0.114224285
-0.009527292 0.063956045 0.13476896 -0.120552674 0.04583144 0.003428409 -0.06721679 0.023798315
0.13763744 0.108930945 0.105568185 0.0737072 -0.06999439 -0.02241741 -0.10728142 -0.06486342
0.051744502 -0.12847914 0.06735508 -0.050929025 -0.011376668 -0.05511198 -0.02909699 0.07311465
-0.029441126 -0.12927292 -0.07727809 -0.059505478 -0.003397625 0.048926044 -0.01356516 -0.02411904
00000000: 00e5 0dbe 35eb 6fbd 836d b3bd fad9 36bd
00000010: c7a7 0ebe 2c31 a73c fe4d e73b 8183 d13d
00000020: e994 023e cace 12b9 5d85 39bd db8f f63d
00000030: 4d11 fcbd 2a6d 233d 136f e83d 06b9 48bd
00000040: 149f 73bd 78e7 68bd 4f4a 1ebb 6e4e 673d
00000050: 1e75 033c 392c aebd 79d6 a9bd 2ee4 b73d
00000060: 02e2 06be 5bfc c33d fde8 353d 0b7a 543d
00000070: 57f0 f0bd 7bc1 cebd a9d5 ce3d 6cee e93d
00000080: 5c18 1cbc 63fb 823d e000 0a3e 52e4 f6bd
00000090: bfb9 3b3d 29af 603b f5a8 89bd aff4 c23c
000000a0: d4f0 0c3e 3017 df3d 2234 d83d cdf3 963d
000000b0: 3859 8fbd b7a4 b7bc 5cb6 dbbd 1dd7 84bd
000000c0: 0bf2 533d 0990 03be 76f1 893d f49a 50bd
000000d0: 3465 3abc 19bd 61bd d05c eebc 22bd 953d
000000e0: 842e f1bc 1f60 04be fa43 9ebd 04bc 73bd
000000f0: b0aa 5ebb ad66 483d 6840 5ebc 4b95 c5bc
